…
Note: 1. A module can have torch.nn.module or torch.nn.functional to compute logits (e.g. CrossEntropyLoss). They are not counted as submodules, thus not to be printed out. However they make up the difference between a parent's MACs (or latency) and the sum of its submodules'.
2. Number of floating-point operations is a theoretical estimation, thus FLOPS computed using that could be larger than the maximum system throughput.
3. The fwd latency listed in the top module's profile is directly captured at the module forward function in PyTorch, thus it's less than the fwd latency shown above which is captured in DeepSpeed.

Qwen3MoeForCausalLM(
  30.53 B = 100% Params, 1.58 TMACs = 100% MACs, 3.34 s = 100% latency, 965.28 GFLOPS
  (model): Qwen3MoeModel(
    30.22 B = 98.98% Params, 1.42 TMACs = 89.94% MACs, 3.33 s = 99.74% latency, 872.14 GFLOPS
    (embed_tokens): Embedding(311.16 M = 1.02% Params, 0 MACs = 0% MACs, 2.05 ms = 0.06% latency, 0 FLOPS, 151936, 2048)
    (layers): ModuleList(
      (0): Qwen3MoeDecoderLayer(
        623.12 M = 2.04% Params, 29.66 GMACs = 1.87% MACs, 197.1 ms = 5.9% latency, 306.98 GFLOPS
        (self_attn): Qwen3MoeAttention(
          18.87 M = 0.06% Params, 10.2 GMACs = 0.64% MACs, 18.52 ms = 0.55% latency, 1.11 TFLOPS
          (q_proj): Linear(8.39 M = 0.03% Params, 4.29 GMACs = 0.27% MACs, 2.56 ms = 0.08% latency, 3.35 TFLOPS, in_features=2048, out_features=4096, bias=False)
          (k_proj): Linear(1.05 M = 0% Params, 536.87 MMACs = 0.03% MACs, 2.58 ms = 0.08% latency, 415.88 GFLOPS, in_features=2048, out_features=512, bias=False)
          (v_proj): Linear(1.05 M = 0% Params, 536.87 MMACs = 0.03% MACs, 2.58 ms = 0.08% latency, 415.5 GFLOPS, in_features=2048, out_features=512, bias=False)
          (o_proj): Linear(8.39 M = 0.03% Params, 4.29 GMACs = 0.27% MACs, 2.6 ms = 0.08% latency, 3.3 TFLOPS, in_features=4096, out_features=2048, bias=False)
          (q_norm): Qwen3MoeRMSNorm(128 = 0% Params, 0 MACs = 0% MACs, 2.66 ms = 0.08% latency, 26.06 GFLOPS, (128,), eps=1e-06)
          (k_norm): Qwen3MoeRMSNorm(128 = 0% Params, 0 MACs = 0% MACs, 2.64 ms = 0.08% latency, 3.28 GFLOPS, (128,), eps=1e-06)
        )
        (mlp): Qwen3MoeSparseMoeBlock(
          604.24 M = 1.98% Params, 19.46 GMACs = 1.23% MACs, 169 ms = 5.06% latency, 230.42 GFLOPS
          (gate): Linear(262.14 K = 0% Params, 134.22 MMACs = 0.01% MACs, 2.53 ms = 0.08% latency, 105.97 GFLOPS, in_features=2048, out_features=128, bias=False)
          (experts): ModuleList(
            (0): Qwen3MoeMLP(
              4.72 M = 0.02% Params, 0 MACs = 0% MACs, 0 s = 0% latency, 0 FLOPS
              (gate_proj): Linear(1.57 M = 0.01% Params, 0 MACs = 0% MACs, 0 s = 0% latency, 0 FLOPS, in_features=2048, out_features=768, bias=False)
              (up_proj): Linear(1.57 M = 0.01% Params, 0 MACs = 0% MACs, 0 s = 0% latency, 0 FLOPS, in_features=2048, out_features=768, bias=False)
              (down_proj): Linear(1.57 M = 0.01% Params, 0 MACs = 0% MACs, 0 s = 0% latency, 0 FLOPS, in_features=768, out_features=2048, bias=False)
              (act_fn): SiLUActivation(0 = 0% Params, 0 MACs = 0% MACs, 0 s = 0% latency, 0 FLOPS)
            )
            (1): Qwen3MoeMLP(
              4.72 M = 0.02% Params, 2.42 GMACs = 0.15% MACs, 12.57 ms = 0.38% latency, 384.63 GFLOPS
              (gate_proj): Linear(1.57 M = 0.01% Params, 805.31 MMACs = 0.05% MACs, 2.46 ms = 0.07% latency, 655.1 GFLOPS, in_features=2048, out_features=768, bias=False)
              (up_proj): Linear(1.57 M = 0.01% Params, 805.31 MMACs = 0.05% MACs, 2.49 ms = 0.07% latency, 648.12 GFLOPS, in_features=2048, out_features=768, bias=False)
              (down_proj): Linear(1.57 M = 0.01% Params, 805.31 MMACs = 0.05% MACs, 2.51 ms = 0.08% latency, 642.03 GFLOPS, in_features=768, out_features=2048, bias=False)
              (act_fn): SiLUActivation(0 = 0% Params, 0 MACs = 0% MACs, 2.48 ms = 0.07% latency, 316.95 MFLOPS)
            )
            (2-4): 3 x Qwen3MoeMLP(
              4.72 M = 0.02% Params, 0 MACs = 0% MACs, 0 s = 0% latency, 0 FLOPS
              (gate_proj): Linear(1.57 M = 0.01% Params, 0 MACs = 0% MACs, 0 s = 0% latency, 0 FLOPS, in_features=2048, out_features=768, bias=False)
              (up_proj): Linear(1.57 M = 0.01% Params, 0 MACs = 0% MACs, 0 s = 0% latency, 0 FLOPS, in_features=2048, out_features=768, bias=False)
              (down_proj): Linear(1.57 M = 0.01% Params, 0 MACs = 0% MACs, 0 s = 0% latency, 0 FLOPS, in_features=768, out_features=2048, bias=False)
              (act_fn): SiLUActivation(0 = 0% Params, 0 MACs = 0% MACs, 0 s = 0% latency, 0 FLOPS)
            )
            (5): Qwen3MoeMLP(
              4.72 M = 0.02% Params, 2.42 GMACs = 0.15% MACs, 12.55 ms = 0.38% latency, 385.21 GFLOPS
              (gate_proj): Linear(1.57 M = 0.01% Params, 805.31 MMACs = 0.05% MACs, 2.47 ms = 0.07% latency, 653.2 GFLOPS, in_features=2048, out_features=768, bias=False)
              (up_proj): Linear(1.57 M = 0.01% Params, 805.31 MMACs = 0.05% MACs, 2.48 ms = 0.07% latency, 649.56 GFLOPS, in_features=2048, out_features=768, bias=False)
              (down_proj): Linear(1.57 M = 0.01% Params, 805.31 MMACs = 0.05% MACs, 2.52 ms = 0.08% latency, 639.05 GFLOPS, in_features=768, out_features=2048, bias=False)
              (act_fn): SiLUActivation(0 = 0% Params, 0 MACs = 0% MACs, 2.48 ms = 0.07% latency, 316.62 MFLOPS)
            )
            (6-15): 10 x Qwen3MoeMLP(
              4.72 M = 0.02% Params, 0 MACs = 0% MACs, 0 s = 0% latency, 0 FLOPS
              (gate_proj): Linear(1.57 M = 0.01% Params, 0 MACs = 0% MACs, 0 s = 0% latency, 0 FLOPS, in_features=2048, out_features=768, bias=False)
              (up_proj): Linear(1.57 M = 0.01% Params, 0 MACs = 0% MACs, 0 s = 0% latency, 0 FLOPS, in_features=2048, out_features=768, bias=False)
              (down_proj): Linear(1.57 M = 0.01% Params, 0 MACs = 0% MACs, 0 s = 0% latency, 0 FLOPS, in_features=768, out_features=2048, bias=False)
              (act_fn): SiLUActivation(0 = 0% Params, 0 MACs = 0% MACs, 0 s = 0% latency, 0 FLOPS)
            )
            (16): Qwen3MoeMLP(
              4.72 M = 0.02% Params, 2.42 GMACs = 0.15% MACs, 12.62 ms = 0.38% latency, 382.98 GFLOPS
              (gate_proj): Linear(1.57 M = 0.01% Params, 805.31 MMACs = 0.05% MACs, 2.47 ms = 0.07% latency, 651.25 GFLOPS, in_features=2048, out_features=768, bias=False)
              (up_proj): Linear(1.57 M = 0.01% Params, 805.31 MMACs = 0.05% MACs, 2.5 ms = 0.08% latency, 643.07 GFLOPS, in_features=2048, out_features=768, bias=False)
              (down_proj): Linear(1.57 M = 0.01% Params, 805.31 MMACs = 0.05% MACs, 2.52 ms = 0.08% latency, 639.29 GFLOPS, in_features=768, out_features=2048, bias=False)
              (act_fn): SiLUActivation(0 = 0% Params, 0 MACs = 0% MACs, 2.5 ms = 0.07% latency, 314.51 MFLOPS)
            )
            (17-52): 36 x Qwen3MoeMLP(
              4.72 M = 0.02% Params, 0 MACs = 0% MACs, 0 s = 0% latency, 0 FLOPS
              (gate_proj): Linear(1.57 M = 0.01% Params, 0 MACs = 0% MACs, 0 s = 0% latency, 0 FLOPS, in_features=2048, out_features=768, bias=False)
              (up_proj): Linear(1.57 M = 0.01% Params, 0 MACs = 0% MACs, 0 s = 0% latency, 0 FLOPS, in_features=2048, out_features=768, bias=False)
              (down_proj): Linear(1.57 M = 0.01% Params, 0 MACs = 0% MACs, 0 s = 0% latency, 0 FLOPS, in_features=768, out_features=2048, bias=False)
              (act_fn): SiLUActivation(0 = 0% Params, 0 MACs = 0% MACs, 0 s = 0% latency, 0 FLOPS)
            )
            (53): Qwen3MoeMLP(
              4.72 M = 0.02% Params, 2.42 GMACs = 0.15% MACs, 12.68 ms = 0.38% latency, 381.06 GFLOPS
              (gate_proj): Linear(1.57 M = 0.01% Params, 805.31 MMACs = 0.05% MACs, 2.5 ms = 0.07% latency, 644.05 GFLOPS, in_features=2048, out_features=768, bias=False)
              (up_proj): Linear(1.57 M = 0.01% Params, 805.31 MMACs = 0.05% MACs, 2.54 ms = 0.08% latency, 635.32 GFLOPS, in_features=2048, out_features=768, bias=False)
              (down_proj): Linear(1.57 M = 0.01% Params, 805.31 MMACs = 0.05% MACs, 2.5 ms = 0.07% latency, 643.68 GFLOPS, in_features=768, out_features=2048, bias=False)
              (act_fn): SiLUActivation(0 = 0% Params, 0 MACs = 0% MACs, 2.51 ms = 0.08% latency, 313.13 MFLOPS)
            )
            (54-67): 14 x Qwen3MoeMLP(
              4.72 M = 0.02% Params, 0 MACs = 0% MACs, 0 s = 0% latency, 0 FLOPS
              (gate_proj): Linear(1.57 M = 0.01% Params, 0 MACs = 0% MACs, 0 s = 0% latency, 0 FLOPS, in_features=2048, out_features=768, bias=False)
              (up_proj): Linear(1.57 M = 0.01% Params, 0 MACs = 0% MACs, 0 s = 0% latency, 0 FLOPS, in_features=2048, out_features=768, bias=False)
              (down_proj): Linear(1.57 M = 0.01% Params, 0 MACs = 0% MACs, 0 s = 0% latency, 0 FLOPS, in_features=768, out_features=2048, bias=False)
              (act_fn): SiLUActivation(0 = 0% Params, 0 MACs = 0% MACs, 0 s = 0% latency, 0 FLOPS)
            )
            (68): Qwen3MoeMLP(
              4.72 M = 0.02% Params, 2.42 GMACs = 0.15% MACs, 12.53 ms = 0.38% latency, 385.83 GFLOPS
              (gate_proj): Linear(1.57 M = 0.01% Params, 805.31 MMACs = 0.05% MACs, 2.47 ms = 0.07% latency, 651 GFLOPS, in_features=2048, out_features=768, bias=False)
              (up_proj): Linear(1.57 M = 0.01% Params, 805.31 MMACs = 0.05% MACs, 2.49 ms = 0.07% latency, 645.89 GFLOPS, in_features=2048, out_features=768, bias=False)
              (down_proj): Linear(1.57 M = 0.01% Params, 805.31 MMACs = 0.05% MACs, 2.5 ms = 0.07% latency, 645.21 GFLOPS, in_features=768, out_features=2048, bias=False)
              (act_fn): SiLUActivation(0 = 0% Params, 0 MACs = 0% MACs, 2.47 ms = 0.07% latency, 318.39 MFLOPS)
            )
            (69-83): 15 x Qwen3MoeMLP(
              4.72 M = 0.02% Params, 0 MACs = 0% MACs, 0 s = 0% latency, 0 FLOPS
              (gate_proj): Linear(1.57 M = 0.01% Params, 0 MACs = 0% MACs, 0 s = 0% latency, 0 FLOPS, in_features=2048, out_features=768, bias=False)
              (up_proj): Linear(1.57 M = 0.01% Params, 0 MACs = 0% MACs, 0 s = 0% latency, 0 FLOPS, in_features=2048, out_features=768, bias=False)
              (down_proj): Linear(1.57 M = 0.01% Params, 0 MACs = 0% MACs, 0 s = 0% latency, 0 FLOPS, in_features=768, out_features=2048, bias=False)
              (act_fn): SiLUActivation(0 = 0% Params, 0 MACs = 0% MACs, 0 s = 0% latency, 0 FLOPS)
            )
            (84): Qwen3MoeMLP(
              4.72 M = 0.02% Params, 2.42 GMACs = 0.15% MACs, 12.38 ms = 0.37% latency, 390.27 GFLOPS
              (gate_proj): Linear(1.57 M = 0.01% Params, 805.31 MMACs = 0.05% MACs, 2.44 ms = 0.07% latency, 659.51 GFLOPS, in_features=2048, out_features=768, bias=False)
              (up_proj): Linear(1.57 M = 0.01% Params, 805.31 MMACs = 0.05% MACs, 2.46 ms = 0.07% latency, 653.96 GFLOPS, in_features=2048, out_features=768, bias=False)
              (down_proj): Linear(1.57 M = 0.01% Params, 805.31 MMACs = 0.05% MACs, 2.48 ms = 0.07% latency, 649.56 GFLOPS, in_features=768, out_features=2048, bias=False)
              (act_fn): SiLUActivation(0 = 0% Params, 0 MACs = 0% MACs, 2.42 ms = 0.07% latency, 324.56 MFLOPS)
            )
            (85-113): 29 x Qwen3MoeMLP(
              4.72 M = 0.02% Params, 0 MACs = 0% MACs, 0 s = 0% latency, 0 FLOPS
              (gate_proj): Linear(1.57 M = 0.01% Params, 0 MACs = 0% MACs, 0 s = 0% latency, 0 FLOPS, in_features=2048, out_features=768, bias=False)
              (up_proj): Linear(1.57 M = 0.01% Params, 0 MACs = 0% MACs, 0 s = 0% latency, 0 FLOPS, in_features=2048, out_features=768, bias=False)
              (down_proj): Linear(1.57 M = 0.01% Params, 0 MACs = 0% MACs, 0 s = 0% latency, 0 FLOPS, in_features=768, out_features=2048, bias=False)
              (act_fn): SiLUActivation(0 = 0% Params, 0 MACs = 0% MACs, 0 s = 0% latency, 0 FLOPS)
            )
            (114): Qwen3MoeMLP(
              4.72 M = 0.02% Params, 2.42 GMACs = 0.15% MACs, 12.59 ms = 0.38% latency, 383.92 GFLOPS
              (gate_proj): Linear(1.57 M = 0.01% Params, 805.31 MMACs = 0.05% MACs, 2.44 ms = 0.07% latency, 658.81 GFLOPS, in_features=2048, out_features=768, bias=False)
              (up_proj): Linear(1.57 M = 0.01% Params, 805.31 MMACs = 0.05% MACs, 2.51 ms = 0.08% latency, 641.72 GFLOPS, in_features=2048, out_features=768, bias=False)
              (down_proj): Linear(1.57 M = 0.01% Params, 805.31 MMACs = 0.05% MACs, 2.53 ms = 0.08% latency, 636.46 GFLOPS, in_features=768, out_features=2048, bias=False)
              (act_fn): SiLUActivation(0 = 0% Params, 0 MACs = 0% MACs, 2.48 ms = 0.07% latency, 317.5 MFLOPS)
            )
            (115-118): 4 x Qwen3MoeMLP(
              4.72 M = 0.02% Params, 0 MACs = 0% MACs, 0 s = 0% latency, 0 FLOPS
              (gate_proj): Linear(1.57 M = 0.01% Params, 0 MACs = 0% MACs, 0 s = 0% latency, 0 FLOPS, in_features=2048, out_features=768, bias=False)
              (up_proj): Linear(1.57 M = 0.01% Params, 0 MACs = 0% MACs, 0 s = 0% latency, 0 FLOPS, in_features=2048, out_features=768, bias=False)
              (down_proj): Linear(1.57 M = 0.01% Params, 0 MACs = 0% MACs, 0 s = 0% latency, 0 FLOPS, in_features=768, out_features=2048, bias=False)
              (act_fn): SiLUActivation(0 = 0% Params, 0 MACs = 0% MACs, 0 s = 0% latency, 0 FLOPS)
            )
            (119): Qwen3MoeMLP(
              4.72 M = 0.02% Params, 2.42 GMACs = 0.15% MACs, 12.74 ms = 0.38% latency, 379.23 GFLOPS
              (gate_proj): Linear(1.57 M = 0.01% Params, 805.31 MMACs = 0.05% MACs, 2.5 ms = 0.07% latency, 645.28 GFLOPS, in_features=2048, out_features=768, bias=False)
              (up_proj): Linear(1.57 M = 0.01% Params, 805.31 MMACs = 0.05% MACs, 2.52 ms = 0.08% latency, 640.08 GFLOPS, in_features=2048, out_features=768, bias=False)
              (down_proj): Linear(1.57 M = 0.01% Params, 805.31 MMACs = 0.05% MACs, 2.55 ms = 0.08% latency, 632.59 GFLOPS, in_features=768, out_features=2048, bias=False)
              (act_fn): SiLUActivation(0 = 0% Params, 0 MACs = 0% MACs, 2.53 ms = 0.08% latency, 311.07 MFLOPS)
            )
            (120-127): 8 x Qwen3MoeMLP(
              4.72 M = 0.02% Params, 0 MACs = 0% MACs, 0 s = 0% latency, 0 FLOPS
              (gate_proj): Linear(1.57 M = 0.01% Params, 0 MACs = 0% MACs, 0 s = 0% latency, 0 FLOPS, in_features=2048, out_features=768, bias=False)
              (up_proj): Linear(1.57 M = 0.01% Params, 0 MACs = 0% MACs, 0 s = 0% latency, 0 FLOPS, in_features=2048, out_features=768, bias=False)
              (down_proj): Linear(1.57 M = 0.01% Params, 0 MACs = 0% MACs, 0 s = 0% latency, 0 FLOPS, in_features=768, out_features=2048, bias=False)
              (act_fn): SiLUActivation(0 = 0% Params, 0 MACs = 0% MACs, 0 s = 0% latency, 0 FLOPS)
            )
          )
        )
        (input_layernorm): Qwen3MoeRMSNorm(2.05 K = 0% Params, 0 MACs = 0% MACs, 635.86 us = 0.02% latency, 845.97 GFLOPS, (2048,), eps=1e-06)
        (post_attention_layernorm): Qwen3MoeRMSNorm(2.05 K = 0% Params, 0 MACs = 0% MACs, 2.63 ms = 0.08% latency, 204.9 GFLOPS, (2048,), eps=1e-06)
      )
      (1): Qwen3MoeDecoderLayer(
        623.12 M = 2.04% Params, 29.66 GMACs = 1.87% MACs, 199.81 ms = 5.98% latency, 302.81 GFLOPS
        (self_attn): Qwen3MoeAttention(
          18.87 M = 0.06% Params, 10.2 GMACs = 0.64% MACs, 17.72 ms = 0.53% latency, 1.16 TFLOPS
          (q_proj): Linear(8.39 M = 0.03% Params, 4.29 GMACs = 0.27% MACs, 2.46 ms = 0.07% latency, 3.49 TFLOPS, in_features=2048, out_features=4096, bias=False)
          (k_proj): Linear(1.05 M = 0% Params, 536.87 MMACs = 0.03% MACs, 2.48 ms = 0.07% latency, 433.75 GFLOPS, in_features=2048, out_features=512, bias=False)
          (v_proj): Linear(1.05 M = 0% Params, 536.87 MMACs = 0.03% MACs, 2.46 ms = 0.07% latency, 435.76 GFLOPS, in_features=2048, out_features=512, bias=False)
          (o_proj): Linear(8.39 M = 0.03% Params, 4.29 GMACs = 0.27% MACs, 2.51 ms = 0.08% latency, 3.43 TFLOPS, in_features=4096, out_features=2048, bias=False)
          (q_norm): Qwen3MoeRMSNorm(128 = 0% Params, 0 MACs = 0% MACs, 2.53 ms = 0.08% latency, 27.36 GFLOPS, (128,), eps=1e-06)
          (k_norm): Qwen3MoeRMSNorm(128 = 0% Params, 0 MACs = 0% MACs, 2.5 ms = 0.07% latency, 3.46 GFLOPS, (128,), eps=1e-06)
        )
        (mlp): Qwen3MoeSparseMoeBlock(
          604.24 M = 1.98% Params, 19.46 GMACs = 1.23% MACs, 167.09 ms = 5% latency, 233.06 GFLOPS
          (gate): Linear(262.14 K = 0% Params, 134.22 MMACs = 0.01% MACs, 2.42 ms = 0.07% latency, 110.85 GFLOPS, in_features=2048, out_features=128, bias=False)
          (experts): ModuleList(
            (0-3): 4 x Qwen3MoeMLP(
              4.72 M = 0.02% Params, 0 MACs = 0% MACs, 0 s = 0% latency, 0 FLOPS
              (gate_proj): Linear(1.57 M = 0.01% Params, 0 MACs = 0% MACs, 0 s = 0% latency, 0 FLOPS, in_features=2048, out_features=768, bias=False)
              (up_proj): Linear(1.57 M = 0.01% Params, 0 MACs = 0% MACs, 0 s = 0% latency, 0 FLOPS, in_features=2048, out_features=768, bias=False)
              (down_proj): Linear(1.57 M = 0.01% Params, 0 MACs = 0% MACs, 0 s = 0% latency, 0 FLOPS, in_features=768, out_features=2048, bias=False)
              (act_fn): SiLUActivation(0 = 0% Params, 0 MACs = 0% MACs, 0 s = 0% latency, 0 FLOPS)
            )
            (4): Qwen3MoeMLP(
              4.72 M = 0.02% Params, 2.42 GMACs = 0.15% MACs, 12.68 ms = 0.38% latency, 381.06 GFLOPS
              (gate_proj): Linear(1.57 M = 0.01% Params, 805.31 MMACs = 0.05% MACs, 2.49 ms = 0.07% latency, 647.63 GFLOPS, in_features=2048, out_features=768, bias=False)
              (up_proj): Linear(1.57 M = 0.01% Params, 805.31 MMACs = 0.05% MACs, 2.51 ms = 0.08% latency, 641.42 GFLOPS, in_features=2048, out_features=768, bias=False)
              (down_proj): Linear(1.57 M = 0.01% Params, 805.31 MMACs = 0.05% MACs, 2.53 ms = 0.08% latency, 635.86 GFLOPS, in_features=768, out_features=2048, bias=False)
              (act_fn): SiLUActivation(0 = 0% Params, 0 MACs = 0% MACs, 2.5 ms = 0.07% latency, 314.18 MFLOPS)
            )
            (5): Qwen3MoeMLP(
              4.72 M = 0.02% Params, 2.42 GMACs = 0.15% MACs, 12.74 ms = 0.38% latency, 379.48 GFLOPS
              (gate_proj): Linear(1.57 M = 0.01% Params, 805.31 MMACs = 0.05% MACs, 2.49 ms = 0.07% latency, 646.64 GFLOPS, in_features=2048, out_features=768, bias=False)
              (up_proj): Linear(1.57 M = 0.01% Params, 805.31 MMACs = 0.05% MACs, 2.54 ms = 0.08% latency, 632.88 GFLOPS, in_features=2048, out_features=768, bias=False)
              (down_proj): Linear(1.57 M = 0.01% Params, 805.31 MMACs = 0.05% MACs, 2.54 ms = 0.08% latency, 632.94 GFLOPS, in_features=768, out_features=2048, bias=False)
              (act_fn): SiLUActivation(0 = 0% Params, 0 MACs = 0% MACs, 2.51 ms = 0.08% latency, 312.81 MFLOPS)
            )
            (6-54): 49 x Qwen3MoeMLP(
              4.72 M = 0.02% Params, 0 MACs = 0% MACs, 0 s = 0% latency, 0 FLOPS
              (gate_proj): Linear(1.57 M = 0.01% Params, 0 MACs = 0% MACs, 0 s = 0% latency, 0 FLOPS, in_features=2048, out_features=768, bias=False)
              (up_proj): Linear(1.57 M = 0.01% Params, 0 MACs = 0% MACs, 0 s = 0% latency, 0 FLOPS, in_features=2048, out_features=768, bias=False)
              (down_proj): Linear(1.57 M = 0.01% Params, 0 MACs = 0% MACs, 0 s = 0% latency, 0 FLOPS, in_features=768, out_features=2048, bias=False)
              (act_fn): SiLUActivation(0 = 0% Params, 0 MACs = 0% MACs, 0 s = 0% latency, 0 FLOPS)
            )
            (55): Qwen3MoeMLP(
              4.72 M = 0.02% Params, 2.42 GMACs = 0.15% MACs, 12.62 ms = 0.38% latency, 382.92 GFLOPS
              (gate_proj): Linear(1.57 M = 0.01% Params, 805.31 MMACs = 0.05% MACs, 2.49 ms = 0.07% latency, 645.71 GFLOPS, in_features=2048, out_features=768, bias=False)
              (up_proj): Linear(1.57 M = 0.01% Params, 805.31 MMACs = 0.05% MACs, 2.5 ms = 0.07% latency, 645.34 GFLOPS, in_features=2048, out_features=768, bias=False)
              (down_proj): Linear(1.57 M = 0.01% Params, 805.31 MMACs = 0.05% MACs, 2.52 ms = 0.08% latency, 640.26 GFLOPS, in_features=768, out_features=2048, bias=False)
              (act_fn): SiLUActivation(0 = 0% Params, 0 MACs = 0% MACs, 2.5 ms = 0.07% latency, 314.57 MFLOPS)
            )
            (56-67): 12 x Qwen3MoeMLP(
              4.72 M = 0.02% Params, 0 MACs = 0% MACs, 0 s = 0% latency, 0 FLOPS
              (gate_proj): Linear(1.57 M = 0.01% Params, 0 MACs = 0% MACs, 0 s = 0% latency, 0 FLOPS, in_features=2048, out_features=768, bias=False)
              (up_proj): Linear(1.57 M = 0.01% Params, 0 MACs = 0% MACs, 0 s = 0% latency, 0 FLOPS, in_features=2048, out_features=768, bias=False)
              (down_proj): Linear(1.57 M = 0.01% Params, 0 MACs = 0% MACs, 0 s = 0% latency, 0 FLOPS, in_features=768, out_features=2048, bias=False)
              (act_fn): SiLUActivation(0 = 0% Params, 0 MACs = 0% MACs, 0 s = 0% latency, 0 FLOPS)
            )
            (68): Qwen3MoeMLP(
              4.72 M = 0.02% Params, 2.42 GMACs = 0.15% MACs, 12.43 ms = 0.37% latency, 388.72 GFLOPS
              (gate_proj): Linear(1.57 M = 0.01% Params, 805.31 MMACs = 0.05% MACs, 2.45 ms = 0.07% latency, 657.33 GFLOPS, in_features=2048, out_features=768, bias=False)
              (up_proj): Linear(1.57 M = 0.01% Params, 805.31 MMACs = 0.05% MACs, 2.46 ms = 0.07% latency, 653.58 GFLOPS, in_features=2048, out_features=768, bias=False)
              (down_proj): Linear(1.57 M = 0.01% Params, 805.31 MMACs = 0.05% MACs, 2.48 ms = 0.07% latency, 648.44 GFLOPS, in_features=768, out_features=2048, bias=False)
              (act_fn): SiLUActivation(0 = 0% Params, 0 MACs = 0% MACs, 2.45 ms = 0.07% latency, 320.81 MFLOPS)
            )
            (69-81): 13 x Qwen3MoeMLP(
              4.72 M = 0.02% Params, 0 MACs = 0% MACs, 0 s = 0% latency, 0 FLOPS
              (gate_proj): Linear(1.57 M = 0.01% Params, 0 MACs = 0% MACs, 0 s = 0% latency, 0 FLOPS, in_features=2048, out_features=768, bias=False)
              (up_proj): Linear(1.57 M = 0.01% Params, 0 MACs = 0% MACs, 0 s = 0% latency, 0 FLOPS, in_features=2048, out_features=768, bias=False)
              (down_proj): Linear(1.57 M = 0.01% Params, 0 MACs = 0% MACs, 0 s = 0% latency, 0 FLOPS, in_features=768, out_features=2048, bias=False)
              (act_fn): SiLUActivation(0 = 0% Params, 0 MACs = 0% MACs, 0 s = 0% latency, 0 FLOPS)
            )
            (82): Qwen3MoeMLP(
              4.72 M = 0.02% Params, 2.42 GMACs = 0.15% MACs, 12.38 ms = 0.37% latency, 390.51 GFLOPS
              (gate_proj): Linear(1.57 M = 0.01% Params, 805.31 MMACs = 0.05% MACs, 2.43 ms = 0.07% latency, 663.2 GFLOPS, in_features=2048, out_features=768, bias=False)
              (up_proj): Linear(1.57 M = 0.01% Params, 805.31 MMACs = 0.05% MACs, 2.45 ms = 0.07% latency, 656.57 GFLOPS, in_features=2048, out_features=768, bias=False)
              (down_proj): Linear(1.57 M = 0.01% Params, 805.31 MMACs = 0.05% MACs, 2.47 ms = 0.07% latency, 651.88 GFLOPS, in_features=768, out_features=2048, bias=False)
              (act_fn): SiLUActivation(0 = 0% Params, 0 MACs = 0% MACs, 2.45 ms = 0.07% latency, 320.53 MFLOPS)
            )
            (83-89): 7 x Qwen3MoeMLP(
              4.72 M = 0.02% Params, 0 MACs = 0% MACs, 0 s = 0% latency, 0 FLOPS
              (gate_proj): Linear(1.57 M = 0.01% Params, 0 MACs = 0% MACs, 0 s = 0% latency, 0 FLOPS, in_features=2048, out_features=768, bias=False)
              (up_proj): Linear(1.57 M = 0.01% Params, 0 MACs = 0% MACs, 0 s = 0% latency, 0 FLOPS, in_features=2048, out_features=768, bias=False)
              (down_proj): Linear(1.57 M = 0.01% Params, 0 MACs = 0% MACs, 0 s = 0% latency, 0 FLOPS, in_features=768, out_features=2048, bias=False)
              (act_fn): SiLUActivation(0 = 0% Params, 0 MACs = 0% MACs, 0 s = 0% latency, 0 FLOPS)
            )
            (90): Qwen3MoeMLP(
              4.72 M = 0.02% Params, 2.42 GMACs = 0.15% MACs, 12.32 ms = 0.37% latency, 392.15 GFLOPS
              (gate_proj): Linear(1.57 M = 0.01% Params, 805.31 MMACs = 0.05% MACs, 2.41 ms = 0.07% latency, 667.46 GFLOPS, in_features=2048, out_features=768, bias=False)
              (up_proj): Linear(1.57 M = 0.01% Params, 805.31 MMACs = 0.05% MACs, 2.45 ms = 0.07% latency, 658.29 GFLOPS, in_features=2048, out_features=768, bias=False)
              (down_proj): Linear(1.57 M = 0.01% Params, 805.31 MMACs = 0.05% MACs, 2.46 ms = 0.07% latency, 655.16 GFLOPS, in_features=768, out_features=2048, bias=False)
              (act_fn): SiLUActivation(0 = 0% Params, 0 MACs = 0% MACs, 2.43 ms = 0.07% latency, 323.64 MFLOPS)
            )
            (91-113): 23 x Qwen3MoeMLP(
              4.72 M = 0.02% Params, 0 MACs = 0% MACs, 0 s = 0% latency, 0 FLOPS
              (gate_proj): Linear(1.57 M = 0.01% Params, 0 MACs = 0% MACs, 0 s = 0% latency, 0 FLOPS, in_features=2048, out_features=768, bias=False)
              (up_proj): Linear(1.57 M = 0.01% Params, 0 MACs = 0% MACs, 0 s = 0% latency, 0 FLOPS, in_features=2048, out_features=768, bias=False)
              (down_proj): Linear(1.57 M = 0.01% Params, 0 MACs = 0% MACs, 0 s = 0% latency, 0 FLOPS, in_features=768, out_features=2048, bias=False)
              (act_fn): SiLUActivation(0 = 0% Params, 0 MACs = 0% MACs, 0 s = 0% latency, 0 FLOPS)
            )
            (114): Qwen3MoeMLP(
              4.72 M = 0.02% Params, 2.42 GMACs = 0.15% MACs, 12.29 ms = 0.37% latency, 393.12 GFLOPS
              (gate_proj): Linear(1.57 M = 0.01% Params, 805.31 MMACs = 0.05% MACs, 2.43 ms = 0.07% latency, 663.53 GFLOPS, in_features=2048, out_features=768, bias=False)
              (up_proj): Linear(1.57 M = 0.01% Params, 805.31 MMACs = 0.05% MACs, 2.43 ms = 0.07% latency, 663.33 GFLOPS, in_features=2048, out_features=768, bias=False)
              (down_proj): Linear(1.57 M = 0.01% Params, 805.31 MMACs = 0.05% MACs, 2.47 ms = 0.07% latency, 653.07 GFLOPS, in_features=768, out_features=2048, bias=False)
              (act_fn): SiLUActivation(0 = 0% Params, 0 MACs = 0% MACs, 2.42 ms = 0.07% latency, 325.01 MFLOPS)
            )
            (115-118): 4 x Qwen3MoeMLP(
              4.72 M = 0.02% Params, 0 MACs = 0% MACs, 0 s = 0% latency, 0 FLOPS
              (gate_proj): Linear(1.57 M = 0.01% Params, 0 MACs = 0% MACs, 0 s = 0% latency, 0 FLOPS, in_features=2048, out_features=768, bias=False)
              (up_proj): Linear(1.57 M = 0.01% Params, 0 MACs = 0% MACs, 0 s = 0% latency, 0 FLOPS, in_features=2048, out_features=768, bias=False)
              (down_proj): Linear(1.57 M = 0.01% Params, 0 MACs = 0% MACs, 0 s = 0% latency, 0 FLOPS, in_features=768, out_features=2048, bias=False)
              (act_fn): SiLUActivation(0 = 0% Params, 0 MACs = 0% MACs, 0 s = 0% latency, 0 FLOPS)
            )
            (119): Qwen3MoeMLP(
              4.72 M = 0.02% Params, 2.42 GMACs = 0.15% MACs, 12.23 ms = 0.37% latency, 395.07 GFLOPS
              (gate_proj): Linear(1.57 M = 0.01% Params, 805.31 MMACs = 0.05% MACs, 2.41 ms = 0.07% latency, 669.25 GFLOPS, in_features=2048, out_features=768, bias=False)
              (up_proj): Linear(1.57 M = 0.01% Params, 805.31 MMACs = 0.05% MACs, 2.43 ms = 0.07% latency, 663.73 GFLOPS, in_features=2048, out_features=768, bias=False)
              (down_proj): Linear(1.57 M = 0.01% Params, 805.31 MMACs = 0.05% MACs, 2.42 ms = 0.07% latency, 666.41 GFLOPS, in_features=768, out_features=2048, bias=False)
              (act_fn): SiLUActivation(0 = 0% Params, 0 MACs = 0% MACs, 2.43 ms = 0.07% latency, 323.93 MFLOPS)
            )
            (120-127): 8 x Qwen3MoeMLP(
              4.72 M = 0.02% Params, 0 MACs = 0% MACs, 0 s = 0% latency, 0 FLOPS
              (gate_proj): Linear(1.57 M = 0.01% Params, 0 MACs = 0% MACs, 0 s = 0% latency, 0 FLOPS, in_features=2048, out_features=768, bias=False)
              (up_proj): Linear(1.57 M = 0.01% Params, 0 MACs = 0% MACs, 0 s = 0% latency, 0 FLOPS, in_features=2048, out_features=768, bias=False)
              (down_proj): Linear(1.57 M = 0.01% Params, 0 MACs = 0% MACs, 0 s = 0% latency, 0 FLOPS, in_features=768, out_features=2048, bias=False)
              (act_fn): SiLUActivation(0 = 0% Params, 0 MACs = 0% MACs, 0 s = 0% latency, 0 FLOPS)
            )
          )
        )
        (input_layernorm): Qwen3MoeRMSNorm(2.05 K = 0% Params, 0 MACs = 0% MACs, 2.56 ms = 0.08% latency, 210.17 GFLOPS, (2048,), eps=1e-06)
        (post_attention_layernorm): Qwen3MoeRMSNorm(2.05 K = 0% Params, 0 MACs = 0% MACs, 2.52 ms = 0.08% latency, 213.43 GFLOPS, (2048,), eps=1e-06)
      )
      (2): Qwen3MoeDecoderLayer(
        623.12 M = 2.04% Params, 29.66 GMACs = 1.87% MACs, 198.25 ms = 5.94% latency, 305.19 GFLOPS
        (self_attn): Qwen3MoeAttention(
          18.87 M = 0.06% Params, 10.2 GMACs = 0.64% MACs, 17.43 ms = 0.52% latency, 1.18 TFLOPS
          (q_proj): Linear(8.39 M = 0.03% Params, 4.29 GMACs = 0.27% MACs, 2.38 ms = 0.07% latency, 3.61 TFLOPS, in_features=2048, out_features=4096, bias=False)
          (k_proj): Linear(1.05 M = 0% Params, 536.87 MMACs = 0.03% MACs, 2.42 ms = 0.07% latency, 443.79 GFLOPS, in_features=2048, out_features=512, bias=False)
          (v_proj): Linear(1.05 M = 0% Params, 536.87 MMACs = 0.03% MACs, 2.45 ms = 0.07% latency, 438.52 GFLOPS, in_features=2048, out_features=512, bias=False)
          (o_proj): Linear(8.39 M = 0.03% Params, 4.29 GMACs = 0.27% MACs, 2.5 ms = 0.07% latency, 3.43 TFLOPS, in_features=4096, out_features=2048, bias=False)
          (q_norm): Qwen3MoeRMSNorm(128 = 0% Params, 0 MACs = 0% MACs, 2.43 ms = 0.07% latency, 28.43 GFLOPS, (128,), eps=1e-06)
          (k_norm): Qwen3MoeRMSNorm(128 = 0% Params, 0 MACs = 0% MACs, 2.45 ms = 0.07% latency, 3.53 GFLOPS, (128,), eps=1e-06)
        )
        (mlp): Qwen3MoeSparseMoeBlock(
          604.24 M = 1.98% Params, 19.46 GMACs = 1.23% MACs, 165.99 ms = 4.97% latency, 234.59 GFLOPS
          (gate): Linear(262.14 K = 0% Params, 134.22 MMACs = 0.01% MACs, 2.44 ms = 0.07% latency, 110.2 GFLOPS, in_features=2048, out_features=128, bias=False)
          (experts): ModuleList(
            (0-33): 34 x Qwen3MoeMLP(
              4.72 M = 0.02% Params, 0 MACs = 0% MACs, 0 s = 0% latency, 0 FLOPS
              (gate_proj): Linear(1.57 M = 0.01% Params, 0 MACs = 0% MACs, 0 s = 0% latency, 0 FLOPS, in_features=2048, out_features=768, bias=False)
              (up_proj): Linear(1.57 M = 0.01% Params, 0 MACs = 0% MACs, 0 s = 0% latency, 0 FLOPS, in_features=2048, out_features=768, bias=False)
              (down_proj): Linear(1.57 M = 0.01% Params, 0 MACs = 0% MACs, 0 s = 0% latency, 0 FLOPS, in_features=768, out_features=2048, bias=False)
              (act_fn): SiLUActivation(0 = 0% Params, 0 MACs = 0% MACs, 0 s = 0% latency, 0 FLOPS)
            )
            (34): Qwen3MoeMLP(
              4.72 M = 0.02% Params, 2.42 GMACs = 0.15% MACs, 12.46 ms = 0.37% latency, 387.83 GFLOPS
              (gate_proj): Linear(1.57 M = 0.01% Params, 805.31 MMACs = 0.05% MACs, 2.44 ms = 0.07% latency, 659.06 GFLOPS, in_features=2048, out_features=768, bias=False)
              (up_proj): Linear(1.57 M = 0.01% Params, 805.31 MMACs = 0.05% MACs, 2.47 ms = 0.07% latency, 651.25 GFLOPS, in_features=2048, out_features=768, bias=False)
              (down_proj): Linear(1.57 M = 0.01% Params, 805.31 MMACs = 0.05% MACs, 2.49 ms = 0.07% latency, 647.5 GFLOPS, in_features=768, out_features=2048, bias=False)
              (act_fn): SiLUActivation(0 = 0% Params, 0 MACs = 0% MACs, 2.46 ms = 0.07% latency, 319.97 MFLOPS)
            )
            (35): Qwen3MoeMLP(
              4.72 M = 0.02% Params, 0 MACs = 0% MACs, 0 s = 0% latency, 0 FLOPS
              (gate_proj): Linear(1.57 M = 0.01% Params, 0 MACs = 0% MACs, 0 s = 0% latency, 0 FLOPS, in_features=2048, out_features=768, bias=False)
              (up_proj): Linear(1.57 M = 0.01% Params, 0 MACs = 0% MACs, 0 s = 0% latency, 0 FLOPS, in_features=2048, out_features=768, bias=False)
              (down_proj): Linear(1.57 M = 0.01% Params, 0 MACs = 0% MACs, 0 s = 0% latency, 0 FLOPS, in_features=768, out_features=2048, bias=False)
              (act_fn): SiLUActivation(0 = 0% Params, 0 MACs = 0% MACs, 0 s = 0% latency, 0 FLOPS)
            )
            (36): Qwen3MoeMLP(
              4.72 M = 0.02% Params, 2.42 GMACs = 0.15% MACs, 12.41 ms = 0.37% latency, 389.54 GFLOPS
              (gate_proj): Linear(1.57 M = 0.01% Params, 805.31 MMACs = 0.05% MACs, 2.44 ms = 0.07% latency, 660.35 GFLOPS, in_features=2048, out_features=768, bias=False)
              (up_proj): Linear(1.57 M = 0.01% Params, 805.31 MMACs = 0.05% MACs, 2.47 ms = 0.07% latency, 653.07 GFLOPS, in_features=2048, out_features=768, bias=False)
              (down_proj): Linear(1.57 M = 0.01% Params, 805.31 MMACs = 0.05% MACs, 2.45 ms = 0.07% latency, 657.33 GFLOPS, in_features=768, out_features=2048, bias=False)
              (act_fn): SiLUActivation(0 = 0% Params, 0 MACs = 0% MACs, 2.46 ms = 0.07% latency, 319.5 MFLOPS)
            )
            (37-40): 4 x Qwen3MoeMLP(
              4.72 M = 0.02% Params, 0 MACs = 0% MACs, 0 s = 0% latency, 0 FLOPS
              (gate_proj): Linear(1.57 M = 0.01% Params, 0 MACs = 0% MACs, 0 s = 0% latency, 0 FLOPS, in_features=2048, out_features=768, bias=False)
              (up_proj): Linear(1.57 M = 0.01% Params, 0 MACs = 0% MACs, 0 s = 0% latency, 0 FLOPS, in_features=2048, out_features=768, bias=False)
              (down_proj): Linear(1.57 M = 0.01% Params, 0 MACs = 0% MACs, 0 s = 0% latency, 0 FLOPS, in_features=768, out_features=2048, bias=False)
              (act_fn): SiLUActivation(0 = 0% Params, 0 MACs = 0% MACs, 0 s = 0% latency, 0 FLOPS)
            )
            (41): Qwen3MoeMLP(
              4.72 M = 0.02% Params, 2.42 GMACs = 0.15% MACs, 12.44 ms = 0.37% latency, 388.51 GFLOPS
              (gate_proj): Linear(1.57 M = 0.01% Params, 805.31 MMACs = 0.05% MACs, 2.45 ms = 0.07% latency, 658.49 GFLOPS, in_features=2048, out_features=768, bias=False)
              (up_proj): Linear(1.57 M = 0.01% Params, 805.31 MMACs = 0.05% MACs, 2.47 ms = 0.07% latency, 652.07 GFLOPS, in_features=2048, out_features=768, bias=False)
              (down_proj): Linear(1.57 M = 0.01% Params, 805.31 MMACs = 0.05% MACs, 2.49 ms = 0.07% latency, 646.51 GFLOPS, in_features=768, out_features=2048, bias=False)
              (act_fn): SiLUActivation(0 = 0% Params, 0 MACs = 0% MACs, 2.46 ms = 0.07% latency, 319.29 MFLOPS)
            )
            (42-76): 35 x Qwen3MoeMLP(
              4.72 M = 0.02% Params, 0 MACs = 0% MACs, 0 s = 0% latency, 0 FLOPS
              (gate_proj): Linear(1.57 M = 0.01% Params, 0 MACs = 0% MACs, 0 s = 0% latency, 0 FLOPS, in_features=2048, out_features=768, bias=False)
              (up_proj): Linear(1.57 M = 0.01% Params, 0 MACs = 0% MACs, 0 s = 0% latency, 0 FLOPS, in_features=2048, out_features=768, bias=False)
              (down_proj): Linear(1.57 M = 0.01% Params, 0 MACs = 0% MACs, 0 s = 0% latency, 0 FLOPS, in_features=768, out_features=2048, bias=False)
              (act_fn): SiLUActivation(0 = 0% Params, 0 MACs = 0% MACs, 0 s = 0% latency, 0 FLOPS)
            )
            (77): Qwen3MoeMLP(
              4.72 M = 0.02% Params, 2.42 GMACs = 0.15% MACs, 12.35 ms = 0.37% latency, 391.4 GFLOPS
              (gate_proj): Linear(1.57 M = 0.01% Params, 805.31 MMACs = 0.05% MACs, 2.43 ms = 0.07% latency, 662.42 GFLOPS, in_features=2048, out_features=768, bias=False)
              (up_proj): Linear(1.57 M = 0.01% Params, 805.31 MMACs = 0.05% MACs, 2.42 ms = 0.07% latency, 665.49 GFLOPS, in_features=2048, out_features=768, bias=False)
              (down_proj): Linear(1.57 M = 0.01% Params, 805.31 MMACs = 0.05% MACs, 2.48 ms = 0.07% latency, 650.12 GFLOPS, in_features=768, out_features=2048, bias=False)
              (act_fn): SiLUActivation(0 = 0% Params, 0 MACs = 0% MACs, 2.44 ms = 0.07% latency, 321.93 MFLOPS)
            )
            (78-82): 5 x Qwen3MoeMLP(
              4.72 M = 0.02% Params, 0 MACs = 0% MACs, 0 s = 0% latency, 0 FLOPS
              (gate_proj): Linear(1.57 M = 0.01% Params, 0 MACs = 0% MACs, 0 s = 0% latency, 0 FLOPS, in_features=2048, out_features=768, bias=False)
              (up_proj): Linear(1.57 M = 0.01% Params, 0 MACs = 0% MACs, 0 s = 0% latency, 0 FLOPS, in_features=2048, out_features=768, bias=False)
              (down_proj): Linear(1.57 M = 0.01% Params, 0 MACs = 0% MACs, 0 s = 0% latency, 0 FLOPS, in_features=768, out_features=2048, bias=False)
              (act_fn): SiLUActivation(0 = 0% Params, 0 MACs = 0% MACs, 0 s = 0% latency, 0 FLOPS)
            )
            (83): Qwen3MoeMLP(
              4.72 M = 0.02% Params, 2.42 GMACs = 0.15% MACs, 12.38 ms = 0.37% latency, 390.33 GFLOPS
              (gate_proj): Linear(1.57 M = 0.01% Params, 805.31 MMACs = 0.05% MACs, 2.43 ms = 0.07% latency, 661.78 GFLOPS, in_features=2048, out_features=768, bias=False)
              (up_proj): Linear(1.57 M = 0.01% Params, 805.31 MMACs = 0.05% MACs, 2.46 ms = 0.07% latency, 655.93 GFLOPS, in_features=2048, out_features=768, bias=False)
              (down_proj): Linear(1.57 M = 0.01% Params, 805.31 MMACs = 0.05% MACs, 2.47 ms = 0.07% latency, 651.37 GFLOPS, in_features=768, out_features=2048, bias=False)
              (act_fn): SiLUActivation(0 = 0% Params, 0 MACs = 0% MACs, 2.45 ms = 0.07% latency, 320.93 MFLOPS)
            )
            (84-91): 8 x Qwen3MoeMLP(
              4.72 M = 0.02% Params, 0 MACs = 0% MACs, 0 s = 0% latency, 0 FLOPS
              (gate_proj): Linear(1.57 M = 0.01% Params, 0 MACs = 0% MACs, 0 s = 0% latency, 0 FLOPS, in_features=2048, out_features=768, bias=False)
              (up_proj): Linear(1.57 M = 0.01% Params, 0 MACs = 0% MACs, 0 s = 0% latency, 0 FLOPS, in_features=2048, out_features=768, bias=False)
              (down_proj): Linear(1.57 M = 0.01% Params, 0 MACs = 0% MACs, 0 s = 0% latency, 0 FLOPS, in_features=768, out_features=2048, bias=False)
              (act_fn): SiLUActivation(0 = 0% Params, 0 MACs = 0% MACs, 0 s = 0% latency, 0 FLOPS)
            )
            (92): Qwen3MoeMLP(
              4.72 M = 0.02% Params, 2.42 GMACs = 0.15% MACs, 12.33 ms = 0.37% latency, 391.93 GFLOPS
              (gate_proj): Linear(1.57 M = 0.01% Params, 805.31 MMACs = 0.05% MACs, 2.42 ms = 0.07% latency, 666.67 GFLOPS, in_features=2048, out_features=768, bias=False)
              (up_proj): Linear(1.57 M = 0.01% Params, 805.31 MMACs = 0.05% MACs, 2.44 ms = 0.07% latency, 660.74 GFLOPS, in_features=2048, out_features=768, bias=False)
              (down_proj): Linear(1.57 M = 0.01% Params, 805.31 MMACs = 0.05% MACs, 2.48 ms = 0.07% latency, 650.12 GFLOPS, in_features=768, out_features=2048, bias=False)
              (act_fn): SiLUActivation(0 = 0% Params, 0 MACs = 0% MACs, 2.43 ms = 0.07% latency, 323.61 MFLOPS)
            )
            (93-112): 20 x Qwen3MoeMLP(
              4.72 M = 0.02% Params, 0 MACs = 0% MACs, 0 s = 0% latency, 0 FLOPS
              (gate_proj): Linear(1.57 M = 0.01% Params, 0 MACs = 0% MACs, 0 s = 0% latency, 0 FLOPS, in_features=2048, out_features=768, bias=False)
              (up_proj): Linear(1.57 M = 0.01% Params, 0 MACs = 0% MACs, 0 s = 0% latency, 0 FLOPS, in_features=2048, out_features=768, bias=False)
              (down_proj): Linear(1.57 M = 0.01% Params, 0 MACs = 0% MACs, 0 s = 0% latency, 0 FLOPS, in_features=768, out_features=2048, bias=False)
              (act_fn): SiLUActivation(0 = 0% Params, 0 MACs = 0% MACs, 0 s = 0% latency, 0 FLOPS)
            )
            (113): Qwen3MoeMLP(
              4.72 M = 0.02% Params, 2.42 GMACs = 0.15% MACs, 12.3 ms = 0.37% latency, 392.85 GFLOPS
              (gate_proj): Linear(1.57 M = 0.01% Params, 805.31 MMACs = 0.05% MACs, 2.42 ms = 0.07% latency, 666.67 GFLOPS, in_features=2048, out_features=768, bias=False)
              (up_proj): Linear(1.57 M = 0.01% Params, 805.31 MMACs = 0.05% MACs, 2.44 ms = 0.07% latency, 661 GFLOPS, in_features=2048, out_features=768, bias=False)
              (down_proj): Linear(1.57 M = 0.01% Params, 805.31 MMACs = 0.05% MACs, 2.48 ms = 0.07% latency, 649.25 GFLOPS, in_features=768, out_features=2048, bias=False)
              (act_fn): SiLUActivation(0 = 0% Params, 0 MACs = 0% MACs, 2.43 ms = 0.07% latency, 323.13 MFLOPS)
            )
            (114-123): 10 x Qwen3MoeMLP(
              4.72 M = 0.02% Params, 0 MACs = 0% MACs, 0 s = 0% latency, 0 FLOPS
              (gate_proj): Linear(1.57 M = 0.01% Params, 0 MACs = 0% MACs, 0 s = 0% latency, 0 FLOPS, in_features=2048, out_features=768, bias=False)
              (up_proj): Linear(1.57 M = 0.01% Params, 0 MACs = 0% MACs, 0 s = 0% latency, 0 FLOPS, in_features=2048, out_features=768, bias=False)
              (down_proj): Linear(1.57 M = 0.01% Params, 0 MACs = 0% MACs, 0 s = 0% latency, 0 FLOPS, in_features=768, out_features=2048, bias=False)
              (act_fn): SiLUActivation(0 = 0% Params, 0 MACs = 0% MACs, 0 s = 0% latency, 0 FLOPS)
            )
            (124): Qwen3MoeMLP(
              4.72 M = 0.02% Params, 2.42 GMACs = 0.15% MACs, 12.32 ms = 0.37% latency, 392.45 GFLOPS
              (gate_proj): Linear(1.57 M = 0.01% Params, 805.31 MMACs = 0.05% MACs, 2.42 ms = 0.07% latency, 664.18 GFLOPS, in_features=2048, out_features=768, bias=False)
              (up_proj): Linear(1.57 M = 0.01% Params, 805.31 MMACs = 0.05% MACs, 2.44 ms = 0.07% latency, 661.13 GFLOPS, in_features=2048, out_features=768, bias=False)
              (down_proj): Linear(1.57 M = 0.01% Params, 805.31 MMACs = 0.05% MACs, 2.46 ms = 0.07% latency, 654.34 GFLOPS, in_features=768, out_features=2048, bias=False)
              (act_fn): SiLUActivation(0 = 0% Params, 0 MACs = 0% MACs, 2.44 ms = 0.07% latency, 322.31 MFLOPS)
            )
            (125-127): 3 x Qwen3MoeMLP(
              4.72 M = 0.02% Params, 0 MACs = 0% MACs, 0 s = 0% latency, 0 FLOPS
              (gate_proj): Linear(1.57 M = 0.01% Params, 0 MACs = 0% MACs, 0 s = 0% latency, 0 FLOPS, in_features=2048, out_features=768, bias=False)
              (up_proj): Linear(1.57 M = 0.01% Params, 0 MACs = 0% MACs, 0 s = 0% latency, 0 FLOPS, in_features=2048, out_features=768, bias=False)
              (down_proj): Linear(1.57 M = 0.01% Params, 0 MACs = 0% MACs, 0 s = 0% latency, 0 FLOPS, in_features=768, out_features=2048, bias=False)
              (act_fn): SiLUActivation(0 = 0% Params, 0 MACs = 0% MACs, 0 s = 0% latency, 0 FLOPS)
            )
          )
        )
        (input_layernorm): Qwen3MoeRMSNorm(2.05 K = 0% Params, 0 MACs = 0% MACs, 2.49 ms = 0.07% latency, 216.05 GFLOPS, (2048,), eps=1e-06)
        (post_attention_layernorm): Qwen3MoeRMSNorm(2.05 K = 0% Params, 0 MACs = 0% MACs, 2.54 ms = 0.08% latency, 211.83 GFLOPS, (2048,), eps=1e-06)
      )
      (3): Qwen3MoeDecoderLayer(
        623.12 M = 2.04% Params, 29.66 GMACs = 1.87% MACs, 126.37 ms = 3.78% latency, 478.8 GFLOPS
        (self_attn): Qwen3MoeAttention(
          18.87 M = 0.06% Params, 10.2 GMACs = 0.64% MACs, 17.33 ms = 0.52% latency, 1.18 TFLOPS
          (q_proj): Linear(8.39 M = 0.03% Params, 4.29 GMACs = 0.27% MACs, 2.39 ms = 0.07% latency, 3.6 TFLOPS, in_features=2048, out_features=4096, bias=False)
          (k_proj): Linear(1.05 M = 0% Params, 536.87 MMACs = 0.03% MACs, 2.42 ms = 0.07% latency, 443.57 GFLOPS, in_features=2048, out_features=512, bias=False)
          (v_proj): Linear(1.05 M = 0% Params, 536.87 MMACs = 0.03% MACs, 2.42 ms = 0.07% latency, 443.75 GFLOPS, in_features=2048, out_features=512, bias=False)
          (o_proj): Linear(8.39 M = 0.03% Params, 4.29 GMACs = 0.27% MACs, 2.45 ms = 0.07% latency, 3.5 TFLOPS, in_features=4096, out_features=2048, bias=False)
          (q_norm): Qwen3MoeRMSNorm(128 = 0% Params, 0 MACs = 0% MACs, 2.47 ms = 0.07% latency, 28.06 GFLOPS, (128,), eps=1e-06)
          (k_norm): Qwen3MoeRMSNorm(128 = 0% Params, 0 MACs = 0% MACs, 2.45 ms = 0.07% latency, 3.54 GFLOPS, (128,), eps=1e-06)
        )
        (mlp): Qwen3MoeSparseMoeBlock(
          604.24 M = 1.98% Params, 19.46 GMACs = 1.23% MACs, 96.71 ms = 2.9% latency, 402.66 GFLOPS
          (gate): Linear(262.14 K = 0% Params, 134.22 MMACs = 0.01% MACs, 2.38 ms = 0.07% latency, 112.59 GFLOPS, in_features=2048, out_features=128, bias=False)
          (experts): ModuleList(
            (0-11): 12 x Qwen3MoeMLP(
              4.72 M = 0.02% Params, 0 MACs = 0% MACs, 0 s = 0% latency, 0 FLOPS
              (gate_proj): Linear(1.57 M = 0.01% Params, 0 MACs = 0% MACs, 0 s = 0% latency, 0 FLOPS, in_features=2048, out_features=768, bias=False)
              (up_proj): Linear(1.57 M = 0.01% Params, 0 MACs = 0% MACs, 0 s = 0% latency, 0 FLOPS, in_features=2048, out_features=768, bias=False)
              (down_proj): Linear(1.57 M = 0.01% Params, 0 MACs = 0% MACs, 0 s = 0% latency, 0 FLOPS, in_features=768, out_features=2048, bias=False)
              (act_fn): SiLUActivation(0 = 0% Params, 0 MACs = 0% MACs, 0 s = 0% latency, 0 FLOPS)
            )
            (12): Qwen3MoeMLP(
              4.72 M = 0.02% Params, 2.42 GMACs = 0.15% MACs, 12.3 ms = 0.37% latency, 393 GFLOPS
              (gate_proj): Linear(1.57 M = 0.01% Params, 805.31 MMACs = 0.05% MACs, 2.37 ms = 0.07% latency, 679.07 GFLOPS, in_features=2048, out_features=768, bias=False)
              (up_proj): Linear(1.57 M = 0.01% Params, 805.31 MMACs = 0.05% MACs, 2.44 ms = 0.07% latency, 658.81 GFLOPS, in_features=2048, out_features=768, bias=False)
              (down_proj): Linear(1.57 M = 0.01% Params, 805.31 MMACs = 0.05% MACs, 2.47 ms = 0.07% latency, 652.88 GFLOPS, in_features=768, out_features=2048, bias=False)
              (act_fn): SiLUActivation(0 = 0% Params, 0 MACs = 0% MACs, 2.45 ms = 0.07% latency, 321.59 MFLOPS)
            )
            (13-42): 30 x Qwen3MoeMLP(
              4.72 M = 0.02% Params, 0 MACs = 0% MACs, 0 s = 0% latency, 0 FLOPS
              (gate_proj): Linear(1.57 M = 0.01% Params, 0 MACs = 0% MACs, 0 s = 0% latency, 0 FLOPS, in_features=2048, out_features=768, bias=False)
              (up_proj): Linear(1.57 M = 0.01% Params, 0 MACs = 0% MACs, 0 s = 0% latency, 0 FLOPS, in_features=2048, out_features=768, bias=False)
              (down_proj): Linear(1.57 M = 0.01% Params, 0 MACs = 0% MACs, 0 s = 0% latency, 0 FLOPS, in_features=768, out_features=2048, bias=False)
              (act_fn): SiLUActivation(0 = 0% Params, 0 MACs = 0% MACs, 0 s = 0% latency, 0 FLOPS)
            )
            (43): Qwen3MoeMLP(
              4.72 M = 0.02% Params, 2.42 GMACs = 0.15% MACs, 12.22 ms = 0.37% latency, 395.59 GFLOPS
              (gate_proj): Linear(1.57 M = 0.01% Params, 805.31 MMACs = 0.05% MACs, 2.37 ms = 0.07% latency, 678.39 GFLOPS, in_features=2048, out_features=768, bias=False)
              (up_proj): Linear(1.57 M = 0.01% Params, 805.31 MMACs = 0.05% MACs, 2.41 ms = 0.07% latency, 667.66 GFLOPS, in_features=2048, out_features=768, bias=False)
              (down_proj): Linear(1.57 M = 0.01% Params, 805.31 MMACs = 0.05% MACs, 2.45 ms = 0.07% latency, 657.46 GFLOPS, in_features=768, out_features=2048, bias=False)
              (act_fn): SiLUActivation(0 = 0% Params, 0 MACs = 0% MACs, 2.43 ms = 0.07% latency, 323.7 MFLOPS)
            )
            (44-81): 38 x Qwen3MoeMLP(
              4.72 M = 0.02% Params, 0 MACs = 0% MACs, 0 s = 0% latency, 0 FLOPS
              (gate_proj): Linear(1.57 M = 0.01% Params, 0 MACs = 0% MACs, 0 s = 0% latency, 0 FLOPS, in_features=2048, out_features=768, bias=False)
              (up_proj): Linear(1.57 M = 0.01% Params, 0 MACs = 0% MACs, 0 s = 0% latency, 0 FLOPS, in_features=2048, out_features=768, bias=False)
              (down_proj): Linear(1.57 M = 0.01% Params, 0 MACs = 0% MACs, 0 s = 0% latency, 0 FLOPS, in_features=768, out_features=2048, bias=False)
              (act_fn): SiLUActivation(0 = 0% Params, 0 MACs = 0% MACs, 0 s = 0% latency, 0 FLOPS)
            )
            (82): Qwen3MoeMLP(
              4.72 M = 0.02% Params, 2.42 GMACs = 0.15% MACs, 12.27 ms = 0.37% latency, 393.83 GFLOPS
              (gate_proj): Linear(1.57 M = 0.01% Params, 805.31 MMACs = 0.05% MACs, 2.41 ms = 0.07% latency, 667.6 GFLOPS, in_features=2048, out_features=768, bias=False)
              (up_proj): Linear(1.57 M = 0.01% Params, 805.31 MMACs = 0.05% MACs, 2.42 ms = 0.07% latency, 664.18 GFLOPS, in_features=2048, out_features=768, bias=False)
              (down_proj): Linear(1.57 M = 0.01% Params, 805.31 MMACs = 0.05% MACs, 2.45 ms = 0.07% latency, 656.44 GFLOPS, in_features=768, out_features=2048, bias=False)
              (act_fn): SiLUActivation(0 = 0% Params, 0 MACs = 0% MACs, 2.43 ms = 0.07% latency, 324.21 MFLOPS)
            )
            (83-84): 2 x Qwen3MoeMLP(
              4.72 M = 0.02% Params, 0 MACs = 0% MACs, 0 s = 0% latency, 0 FLOPS
              (gate_proj): Linear(1.57 M = 0.01% Params, 0 MACs = 0% MACs, 0 s = 0% latency, 0 FLOPS, in_features=2048, out_features=768, bias=False)
              (up_proj): Linear(1.57 M = 0.01% Params, 0 MACs = 0% MACs, 0 s = 0% latency, 0 FLOPS, in_features=2048, out_features=768, bias=False)
              (down_proj): Linear(1.57 M = 0.01% Params, 0 MACs = 0% MACs, 0 s = 0% latency, 0 FLOPS, in_features=768, out_features=2048, bias=False)
              (act_fn): SiLUActivation(0 = 0% Params, 0 MACs = 0% MACs, 0 s = 0% latency, 0 FLOPS)
            )
            (85): Qwen3MoeMLP(
              4.72 M = 0.02% Params, 2.42 GMACs = 0.15% MACs, 12.27 ms = 0.37% latency, 394 GFLOPS
              (gate_proj): Linear(1.57 M = 0.01% Params, 805.31 MMACs = 0.05% MACs, 2.39 ms = 0.07% latency, 674.46 GFLOPS, in_features=2048, out_features=768, bias=False)
              (up_proj): Linear(1.57 M = 0.01% Params, 805.31 MMACs = 0.05% MACs, 2.4 ms = 0.07% latency, 671.18 GFLOPS, in_features=2048, out_features=768, bias=False)
              (down_proj): Linear(1.57 M = 0.01% Params, 805.31 MMACs = 0.05% MACs, 2.48 ms = 0.07% latency, 650.43 GFLOPS, in_features=768, out_features=2048, bias=False)
              (act_fn): SiLUActivation(0 = 0% Params, 0 MACs = 0% MACs, 2.43 ms = 0.07% latency, 323.67 MFLOPS)
            )
            (86-106): 21 x Qwen3MoeMLP(
              4.72 M = 0.02% Params, 0 MACs = 0% MACs, 0 s = 0% latency, 0 FLOPS
              (gate_proj): Linear(1.57 M = 0.01% Params, 0 MACs = 0% MACs, 0 s = 0% latency, 0 FLOPS, in_features=2048, out_features=768, bias=False)
              (up_proj): Linear(1.57 M = 0.01% Params, 0 MACs = 0% MACs, 0 s = 0% latency, 0 FLOPS, in_features=2048, out_features=768, bias=False)
              (down_proj): Linear(1.57 M = 0.01% Params, 0 MACs = 0% MACs, 0 s = 0% latency, 0 FLOPS, in_features=768, out_features=2048, bias=False)
              (act_fn): SiLUActivation(0 = 0% Params, 0 MACs = 0% MACs, 0 s = 0% latency, 0 FLOPS)
            )
            (107): Qwen3MoeMLP(
              4.72 M = 0.02% Params, 2.42 GMACs = 0.15% MACs, 4.39 ms = 0.13% latency, 1.1 TFLOPS
              (gate_proj): Linear(1.57 M = 0.01% Params, 805.31 MMACs = 0.05% MACs, 2.41 ms = 0.07% latency, 669.51 GFLOPS, in_features=2048, out_features=768, bias=False)
              (up_proj): Linear(1.57 M = 0.01% Params, 805.31 MMACs = 0.05% MACs, 82.02 us = 0% latency, 19.64 TFLOPS, in_features=2048, out_features=768, bias=False)
              (down_proj): Linear(1.57 M = 0.01% Params, 805.31 MMACs = 0.05% MACs, 61.04 us = 0% latency, 26.39 TFLOPS, in_features=768, out_features=2048, bias=False)
              (act_fn): SiLUActivation(0 = 0% Params, 0 MACs = 0% MACs, 1.7 ms = 0.05% latency, 463.73 MFLOPS)
            )
            (108): Qwen3MoeMLP(
              4.72 M = 0.02% Params, 2.42 GMACs = 0.15% MACs, 327.83 us = 0.01% latency, 14.74 TFLOPS
              (gate_proj): Linear(1.57 M = 0.01% Params, 805.31 MMACs = 0.05% MACs, 62.94 us = 0% latency, 25.59 TFLOPS, in_features=2048, out_features=768, bias=False)
              (up_proj): Linear(1.57 M = 0.01% Params, 805.31 MMACs = 0.05% MACs, 56.03 us = 0% latency, 28.75 TFLOPS, in_features=2048, out_features=768, bias=False)
              (down_proj): Linear(1.57 M = 0.01% Params, 805.31 MMACs = 0.05% MACs, 53.64 us = 0% latency, 30.02 TFLOPS, in_features=768, out_features=2048, bias=False)
              (act_fn): SiLUActivation(0 = 0% Params, 0 MACs = 0% MACs, 49.35 us = 0% latency, 15.93 GFLOPS)
            )
            (109): Qwen3MoeMLP(
              4.72 M = 0.02% Params, 0 MACs = 0% MACs, 0 s = 0% latency, 0 FLOPS
              (gate_proj): Linear(1.57 M = 0.01% Params, 0 MACs = 0% MACs, 0 s = 0% latency, 0 FLOPS, in_features=2048, out_features=768, bias=False)
              (up_proj): Linear(1.57 M = 0.01% Params, 0 MACs = 0% MACs, 0 s = 0% latency, 0 FLOPS, in_features=2048, out_features=768, bias=False)
              (down_proj): Linear(1.57 M = 0.01% Params, 0 MACs = 0% MACs, 0 s = 0% latency, 0 FLOPS, in_features=768, out_features=2048, bias=False)
              (act_fn): SiLUActivation(0 = 0% Params, 0 MACs = 0% MACs, 0 s = 0% latency, 0 FLOPS)
            )
            (110): Qwen3MoeMLP(
              4.72 M = 0.02% Params, 2.42 GMACs = 0.15% MACs, 305.89 us = 0.01% latency, 15.8 TFLOPS
              (gate_proj): Linear(1.57 M = 0.01% Params, 805.31 MMACs = 0.05% MACs, 61.27 us = 0% latency, 26.29 TFLOPS, in_features=2048, out_features=768, bias=False)
              (up_proj): Linear(1.57 M = 0.01% Params, 805.31 MMACs = 0.05% MACs, 54.6 us = 0% latency, 29.5 TFLOPS, in_features=2048, out_features=768, bias=False)
              (down_proj): Linear(1.57 M = 0.01% Params, 805.31 MMACs = 0.05% MACs, 52.93 us = 0% latency, 30.43 TFLOPS, in_features=768, out_features=2048, bias=False)
              (act_fn): SiLUActivation(0 = 0% Params, 0 MACs = 0% MACs, 35.76 us = 0% latency, 21.99 GFLOPS)
            )
            (111-117): 7 x Qwen3MoeMLP(
              4.72 M = 0.02% Params, 0 MACs = 0% MACs, 0 s = 0% latency, 0 FLOPS
              (gate_proj): Linear(1.57 M = 0.01% Params, 0 MACs = 0% MACs, 0 s = 0% latency, 0 FLOPS, in_features=2048, out_features=768, bias=False)
              (up_proj): Linear(1.57 M = 0.01% Params, 0 MACs = 0% MACs, 0 s = 0% latency, 0 FLOPS, in_features=2048, out_features=768, bias=False)
              (down_proj): Linear(1.57 M = 0.01% Params, 0 MACs = 0% MACs, 0 s = 0% latency, 0 FLOPS, in_features=768, out_features=2048, bias=False)
              (act_fn): SiLUActivation(0 = 0% Params, 0 MACs = 0% MACs, 0 s = 0% latency, 0 FLOPS)
            )
            (118): Qwen3MoeMLP(
              4.72 M = 0.02% Params, 2.42 GMACs = 0.15% MACs, 320.91 us = 0.01% latency, 15.06 TFLOPS
              (gate_proj): Linear(1.57 M = 0.01% Params, 805.31 MMACs = 0.05% MACs, 61.99 us = 0% latency, 25.98 TFLOPS, in_features=2048, out_features=768, bias=False)
              (up_proj): Linear(1.57 M = 0.01% Params, 805.31 MMACs = 0.05% MACs, 55.79 us = 0% latency, 28.87 TFLOPS, in_features=2048, out_features=768, bias=False)
              (down_proj): Linear(1.57 M = 0.01% Params, 805.31 MMACs = 0.05% MACs, 53.41 us = 0% latency, 30.16 TFLOPS, in_features=768, out_features=2048, bias=False)
              (act_fn): SiLUActivation(0 = 0% Params, 0 MACs = 0% MACs, 45.06 us = 0% latency, 17.45 GFLOPS)
            )
            (119-127): 9 x Qwen3MoeMLP(
              4.72 M = 0.02% Params, 0 MACs = 0% MACs, 0 s = 0% latency, 0 FLOPS
              (gate_proj): Linear(1.57 M = 0.01% Params, 0 MACs = 0% MACs, 0 s = 0% latency, 0 FLOPS, in_features=2048, out_features=768, bias=False)
              (up_proj): Linear(1.57 M = 0.01% Params, 0 MACs = 0% MACs, 0 s = 0% latency, 0 FLOPS, in_features=2048, out_features=768, bias=False)
              (down_proj): Linear(1.57 M = 0.01% Params, 0 MACs = 0% MACs, 0 s = 0% latency, 0 FLOPS, in_features=768, out_features=2048, bias=False)
              (act_fn): SiLUActivation(0 = 0% Params, 0 MACs = 0% MACs, 0 s = 0% latency, 0 FLOPS)
            )
          )
        )
        (input_layernorm): Qwen3MoeRMSNorm(2.05 K = 0% Params, 0 MACs = 0% MACs, 2.48 ms = 0.07% latency, 216.67 GFLOPS, (2048,), eps=1e-06)
        (post_attention_layernorm): Qwen3MoeRMSNorm(2.05 K = 0% Params, 0 MACs = 0% MACs, 2.48 ms = 0.07% latency, 217.23 GFLOPS, (2048,), eps=1e-06)
      )
      (4): Qwen3MoeDecoderLayer(
        623.12 M = 2.04% Params, 29.66 GMACs = 1.87% MACs, 5.95 ms = 0.18% latency, 10.18 TFLOPS
        (self_attn): Qwen3MoeAttention(
          18.87 M = 0.06% Params, 10.2 GMACs = 0.64% MACs, 1 ms = 0.03% latency, 20.46 TFLOPS
          (q_proj): Linear(8.39 M = 0.03% Params, 4.29 GMACs = 0.27% MACs, 78.2 us = 0% latency, 109.84 TFLOPS, in_features=2048, out_features=4096, bias=False)
          (k_proj): Linear(1.05 M = 0% Params, 536.87 MMACs = 0.03% MACs, 83.45 us = 0% latency, 12.87 TFLOPS, in_features=2048, out_features=512, bias=False)
          (v_proj): Linear(1.05 M = 0% Params, 536.87 MMACs = 0.03% MACs, 63.9 us = 0% latency, 16.8 TFLOPS, in_features=2048, out_features=512, bias=False)
          (o_proj): Linear(8.39 M = 0.03% Params, 4.29 GMACs = 0.27% MACs, 71.05 us = 0% latency, 120.9 TFLOPS, in_features=4096, out_features=2048, bias=False)
          (q_norm): Qwen3MoeRMSNorm(128 = 0% Params, 0 MACs = 0% MACs, 129.22 us = 0% latency, 535.68 GFLOPS, (128,), eps=1e-06)
          (k_norm): Qwen3MoeRMSNorm(128 = 0% Params, 0 MACs = 0% MACs, 123.5 us = 0% latency, 70.06 GFLOPS, (128,), eps=1e-06)
        )
        (mlp): Qwen3MoeSparseMoeBlock(
          604.24 M = 1.98% Params, 19.46 GMACs = 1.23% MACs, 4.41 ms = 0.13% latency, 8.83 TFLOPS
          (gate): Linear(262.14 K = 0% Params, 134.22 MMACs = 0.01% MACs, 63.42 us = 0% latency, 4.23 TFLOPS, in_features=2048, out_features=128, bias=False)
          (experts): ModuleList(
            (0-14): 15 x Qwen3MoeMLP(
              4.72 M = 0.02% Params, 0 MACs = 0% MACs, 0 s = 0% latency, 0 FLOPS
              (gate_proj): Linear(1.57 M = 0.01% Params, 0 MACs = 0% MACs, 0 s = 0% latency, 0 FLOPS, in_features=2048, out_features=768, bias=False)
              (up_proj): Linear(1.57 M = 0.01% Params, 0 MACs = 0% MACs, 0 s = 0% latency, 0 FLOPS, in_features=2048, out_features=768, bias=False)
              (down_proj): Linear(1.57 M = 0.01% Params, 0 MACs = 0% MACs, 0 s = 0% latency, 0 FLOPS, in_features=768, out_features=2048, bias=False)
              (act_fn): SiLUActivation(0 = 0% Params, 0 MACs = 0% MACs, 0 s = 0% latency, 0 FLOPS)
            )
            (15): Qwen3MoeMLP(
              4.72 M = 0.02% Params, 2.42 GMACs = 0.15% MACs, 331.4 us = 0.01% latency, 14.58 TFLOPS
              (gate_proj): Linear(1.57 M = 0.01% Params, 805.31 MMACs = 0.05% MACs, 68.66 us = 0% latency, 23.46 TFLOPS, in_features=2048, out_features=768, bias=False)
              (up_proj): Linear(1.57 M = 0.01% Params, 805.31 MMACs = 0.05% MACs, 55.79 us = 0% latency, 28.87 TFLOPS, in_features=2048, out_features=768, bias=False)
              (down_proj): Linear(1.57 M = 0.01% Params, 805.31 MMACs = 0.05% MACs, 54.84 us = 0% latency, 29.37 TFLOPS, in_features=768, out_features=2048, bias=False)
              (act_fn): SiLUActivation(0 = 0% Params, 0 MACs = 0% MACs, 41.96 us = 0% latency, 18.74 GFLOPS)
            )
            (16): Qwen3MoeMLP(
              4.72 M = 0.02% Params, 2.42 GMACs = 0.15% MACs, 323.06 us = 0.01% latency, 14.96 TFLOPS
              (gate_proj): Linear(1.57 M = 0.01% Params, 805.31 MMACs = 0.05% MACs, 61.51 us = 0% latency, 26.18 TFLOPS, in_features=2048, out_features=768, bias=False)
              (up_proj): Linear(1.57 M = 0.01% Params, 805.31 MMACs = 0.05% MACs, 56.27 us = 0% latency, 28.62 TFLOPS, in_features=2048, out_features=768, bias=False)
              (down_proj): Linear(1.57 M = 0.01% Params, 805.31 MMACs = 0.05% MACs, 52.93 us = 0% latency, 30.43 TFLOPS, in_features=768, out_features=2048, bias=False)
              (act_fn): SiLUActivation(0 = 0% Params, 0 MACs = 0% MACs, 38.62 us = 0% latency, 20.36 GFLOPS)
            )
            (17-18): 2 x Qwen3MoeMLP(
              4.72 M = 0.02% Params, 0 MACs = 0% MACs, 0 s = 0% latency, 0 FLOPS
              (gate_proj): Linear(1.57 M = 0.01% Params, 0 MACs = 0% MACs, 0 s = 0% latency, 0 FLOPS, in_features=2048, out_features=768, bias=False)
              (up_proj): Linear(1.57 M = 0.01% Params, 0 MACs = 0% MACs, 0 s = 0% latency, 0 FLOPS, in_features=2048, out_features=768, bias=False)
              (down_proj): Linear(1.57 M = 0.01% Params, 0 MACs = 0% MACs, 0 s = 0% latency, 0 FLOPS, in_features=768, out_features=2048, bias=False)
              (act_fn): SiLUActivation(0 = 0% Params, 0 MACs = 0% MACs, 0 s = 0% latency, 0 FLOPS)
            )
            (19): Qwen3MoeMLP(
              4.72 M = 0.02% Params, 2.42 GMACs = 0.15% MACs, 314.95 us = 0.01% latency, 15.35 TFLOPS
              (gate_proj): Linear(1.57 M = 0.01% Params, 805.31 MMACs = 0.05% MACs, 61.75 us = 0% latency, 26.08 TFLOPS, in_features=2048, out_features=768, bias=False)
              (up_proj): Linear(1.57 M = 0.01% Params, 805.31 MMACs = 0.05% MACs, 52.93 us = 0% latency, 30.43 TFLOPS, in_features=2048, out_features=768, bias=False)
              (down_proj): Linear(1.57 M = 0.01% Params, 805.31 MMACs = 0.05% MACs, 55.31 us = 0% latency, 29.12 TFLOPS, in_features=768, out_features=2048, bias=False)
              (act_fn): SiLUActivation(0 = 0% Params, 0 MACs = 0% MACs, 36.72 us = 0% latency, 21.42 GFLOPS)
            )
            (20-42): 23 x Qwen3MoeMLP(
              4.72 M = 0.02% Params, 0 MACs = 0% MACs, 0 s = 0% latency, 0 FLOPS
              (gate_proj): Linear(1.57 M = 0.01% Params, 0 MACs = 0% MACs, 0 s = 0% latency, 0 FLOPS, in_features=2048, out_features=768, bias=False)
              (up_proj): Linear(1.57 M = 0.01% Params, 0 MACs = 0% MACs, 0 s = 0% latency, 0 FLOPS, in_features=2048, out_features=768, bias=False)
              (down_proj): Linear(1.57 M = 0.01% Params, 0 MACs = 0% MACs, 0 s = 0% latency, 0 FLOPS, in_features=768, out_features=2048, bias=False)
              (act_fn): SiLUActivation(0 = 0% Params, 0 MACs = 0% MACs, 0 s = 0% latency, 0 FLOPS)
            )
            (43): Qwen3MoeMLP(
              4.72 M = 0.02% Params, 2.42 GMACs = 0.15% MACs, 325.68 us = 0.01% latency, 14.84 TFLOPS
              (gate_proj): Linear(1.57 M = 0.01% Params, 805.31 MMACs = 0.05% MACs, 61.75 us = 0% latency, 26.08 TFLOPS, in_features=2048, out_features=768, bias=False)
              (up_proj): Linear(1.57 M = 0.01% Params, 805.31 MMACs = 0.05% MACs, 60.8 us = 0% latency, 26.49 TFLOPS, in_features=2048, out_features=768, bias=False)
              (down_proj): Linear(1.57 M = 0.01% Params, 805.31 MMACs = 0.05% MACs, 57.7 us = 0% latency, 27.91 TFLOPS, in_features=768, out_features=2048, bias=False)
              (act_fn): SiLUActivation(0 = 0% Params, 0 MACs = 0% MACs, 44.11 us = 0% latency, 17.83 GFLOPS)
            )
            (44-63): 20 x Qwen3MoeMLP(
              4.72 M = 0.02% Params, 0 MACs = 0% MACs, 0 s = 0% latency, 0 FLOPS
              (gate_proj): Linear(1.57 M = 0.01% Params, 0 MACs = 0% MACs, 0 s = 0% latency, 0 FLOPS, in_features=2048, out_features=768, bias=False)
              (up_proj): Linear(1.57 M = 0.01% Params, 0 MACs = 0% MACs, 0 s = 0% latency, 0 FLOPS, in_features=2048, out_features=768, bias=False)
              (down_proj): Linear(1.57 M = 0.01% Params, 0 MACs = 0% MACs, 0 s = 0% latency, 0 FLOPS, in_features=768, out_features=2048, bias=False)
              (act_fn): SiLUActivation(0 = 0% Params, 0 MACs = 0% MACs, 0 s = 0% latency, 0 FLOPS)
            )
            (64): Qwen3MoeMLP(
              4.72 M = 0.02% Params, 2.42 GMACs = 0.15% MACs, 307.8 us = 0.01% latency, 15.7 TFLOPS
              (gate_proj): Linear(1.57 M = 0.01% Params, 805.31 MMACs = 0.05% MACs, 60.56 us = 0% latency, 26.6 TFLOPS, in_features=2048, out_features=768, bias=False)
              (up_proj): Linear(1.57 M = 0.01% Params, 805.31 MMACs = 0.05% MACs, 54.36 us = 0% latency, 29.63 TFLOPS, in_features=2048, out_features=768, bias=False)
              (down_proj): Linear(1.57 M = 0.01% Params, 805.31 MMACs = 0.05% MACs, 52.21 us = 0% latency, 30.85 TFLOPS, in_features=768, out_features=2048, bias=False)
              (act_fn): SiLUActivation(0 = 0% Params, 0 MACs = 0% MACs, 36.72 us = 0% latency, 21.42 GFLOPS)
            )
            (65-70): 6 x Qwen3MoeMLP(
              4.72 M = 0.02% Params, 0 MACs = 0% MACs, 0 s = 0% latency, 0 FLOPS
              (gate_proj): Linear(1.57 M = 0.01% Params, 0 MACs = 0% MACs, 0 s = 0% latency, 0 FLOPS, in_features=2048, out_features=768, bias=False)
              (up_proj): Linear(1.57 M = 0.01% Params, 0 MACs = 0% MACs, 0 s = 0% latency, 0 FLOPS, in_features=2048, out_features=768, bias=False)
              (down_proj): Linear(1.57 M = 0.01% Params, 0 MACs = 0% MACs, 0 s = 0% latency, 0 FLOPS, in_features=768, out_features=2048, bias=False)
              (act_fn): SiLUActivation(0 = 0% Params, 0 MACs = 0% MACs, 0 s = 0% latency, 0 FLOPS)
            )
            (71): Qwen3MoeMLP(
              4.72 M = 0.02% Params, 2.42 GMACs = 0.15% MACs, 322.82 us = 0.01% latency, 14.97 TFLOPS
              (gate_proj): Linear(1.57 M = 0.01% Params, 805.31 MMACs = 0.05% MACs, 61.99 us = 0% latency, 25.98 TFLOPS, in_features=2048, out_features=768, bias=False)
              (up_proj): Linear(1.57 M = 0.01% Params, 805.31 MMACs = 0.05% MACs, 56.98 us = 0% latency, 28.27 TFLOPS, in_features=2048, out_features=768, bias=False)
              (down_proj): Linear(1.57 M = 0.01% Params, 805.31 MMACs = 0.05% MACs, 55.07 us = 0% latency, 29.24 TFLOPS, in_features=768, out_features=2048, bias=False)
              (act_fn): SiLUActivation(0 = 0% Params, 0 MACs = 0% MACs, 45.3 us = 0% latency, 17.36 GFLOPS)
            )
            (72-83): 12 x Qwen3MoeMLP(
              4.72 M = 0.02% Params, 0 MACs = 0% MACs, 0 s = 0% latency, 0 FLOPS
              (gate_proj): Linear(1.57 M = 0.01% Params, 0 MACs = 0% MACs, 0 s = 0% latency, 0 FLOPS, in_features=2048, out_features=768, bias=False)
              (up_proj): Linear(1.57 M = 0.01% Params, 0 MACs = 0% MACs, 0 s = 0% latency, 0 FLOPS, in_features=2048, out_features=768, bias=False)
              (down_proj): Linear(1.57 M = 0.01% Params, 0 MACs = 0% MACs, 0 s = 0% latency, 0 FLOPS, in_features=768, out_features=2048, bias=False)
              (act_fn): SiLUActivation(0 = 0% Params, 0 MACs = 0% MACs, 0 s = 0% latency, 0 FLOPS)
            )
            (84): Qwen3MoeMLP(
              4.72 M = 0.02% Params, 2.42 GMACs = 0.15% MACs, 305.18 us = 0.01% latency, 15.84 TFLOPS
              (gate_proj): Linear(1.57 M = 0.01% Params, 805.31 MMACs = 0.05% MACs, 60.32 us = 0% latency, 26.7 TFLOPS, in_features=2048, out_features=768, bias=False)
              (up_proj): Linear(1.57 M = 0.01% Params, 805.31 MMACs = 0.05% MACs, 53.17 us = 0% latency, 30.29 TFLOPS, in_features=2048, out_features=768, bias=False)
              (down_proj): Linear(1.57 M = 0.01% Params, 805.31 MMACs = 0.05% MACs, 52.69 us = 0% latency, 30.57 TFLOPS, in_features=768, out_features=2048, bias=False)
              (act_fn): SiLUActivation(0 = 0% Params, 0 MACs = 0% MACs, 36.72 us = 0% latency, 21.42 GFLOPS)
            )
            (85-125): 41 x Qwen3MoeMLP(
              4.72 M = 0.02% Params, 0 MACs = 0% MACs, 0 s = 0% latency, 0 FLOPS
              (gate_proj): Linear(1.57 M = 0.01% Params, 0 MACs = 0% MACs, 0 s = 0% latency, 0 FLOPS, in_features=2048, out_features=768, bias=False)
              (up_proj): Linear(1.57 M = 0.01% Params, 0 MACs = 0% MACs, 0 s = 0% latency, 0 FLOPS, in_features=2048, out_features=768, bias=False)
              (down_proj): Linear(1.57 M = 0.01% Params, 0 MACs = 0% MACs, 0 s = 0% latency, 0 FLOPS, in_features=768, out_features=2048, bias=False)
              (act_fn): SiLUActivation(0 = 0% Params, 0 MACs = 0% MACs, 0 s = 0% latency, 0 FLOPS)
            )
            (126): Qwen3MoeMLP(
              4.72 M = 0.02% Params, 2.42 GMACs = 0.15% MACs, 324.49 us = 0.01% latency, 14.89 TFLOPS
              (gate_proj): Linear(1.57 M = 0.01% Params, 805.31 MMACs = 0.05% MACs, 62.94 us = 0% latency, 25.59 TFLOPS, in_features=2048, out_features=768, bias=False)
              (up_proj): Linear(1.57 M = 0.01% Params, 805.31 MMACs = 0.05% MACs, 56.74 us = 0% latency, 28.38 TFLOPS, in_features=2048, out_features=768, bias=False)
              (down_proj): Linear(1.57 M = 0.01% Params, 805.31 MMACs = 0.05% MACs, 52.69 us = 0% latency, 30.57 TFLOPS, in_features=768, out_features=2048, bias=False)
              (act_fn): SiLUActivation(0 = 0% Params, 0 MACs = 0% MACs, 47.21 us = 0% latency, 16.66 GFLOPS)
            )
            (127): Qwen3MoeMLP(
              4.72 M = 0.02% Params, 0 MACs = 0% MACs, 0 s = 0% latency, 0 FLOPS
              (gate_proj): Linear(1.57 M = 0.01% Params, 0 MACs = 0% MACs, 0 s = 0% latency, 0 FLOPS, in_features=2048, out_features=768, bias=False)
              (up_proj): Linear(1.57 M = 0.01% Params, 0 MACs = 0% MACs, 0 s = 0% latency, 0 FLOPS, in_features=2048, out_features=768, bias=False)
              (down_proj): Linear(1.57 M = 0.01% Params, 0 MACs = 0% MACs, 0 s = 0% latency, 0 FLOPS, in_features=768, out_features=2048, bias=False)
              (act_fn): SiLUActivation(0 = 0% Params, 0 MACs = 0% MACs, 0 s = 0% latency, 0 FLOPS)
            )
          )
        )
        (input_layernorm): Qwen3MoeRMSNorm(2.05 K = 0% Params, 0 MACs = 0% MACs, 178.34 us = 0.01% latency, 3.02 TFLOPS, (2048,), eps=1e-06)
        (post_attention_layernorm): Qwen3MoeRMSNorm(2.05 K = 0% Params, 0 MACs = 0% MACs, 121.36 us = 0% latency, 4.43 TFLOPS, (2048,), eps=1e-06)
      )
      (5): Qwen3MoeDecoderLayer(
        623.12 M = 2.04% Params, 29.66 GMACs = 1.87% MACs, 5.57 ms = 0.17% latency, 10.86 TFLOPS
        (self_attn): Qwen3MoeAttention(
          18.87 M = 0.06% Params, 10.2 GMACs = 0.64% MACs, 888.59 us = 0.03% latency, 23.05 TFLOPS
          (q_proj): Linear(8.39 M = 0.03% Params, 4.29 GMACs = 0.27% MACs, 69.14 us = 0% latency, 124.24 TFLOPS, in_features=2048, out_features=4096, bias=False)
          (k_proj): Linear(1.05 M = 0% Params, 536.87 MMACs = 0.03% MACs, 63.66 us = 0% latency, 16.87 TFLOPS, in_features=2048, out_features=512, bias=False)
          (v_proj): Linear(1.05 M = 0% Params, 536.87 MMACs = 0.03% MACs, 61.99 us = 0% latency, 17.32 TFLOPS, in_features=2048, out_features=512, bias=False)
          (o_proj): Linear(8.39 M = 0.03% Params, 4.29 GMACs = 0.27% MACs, 67.95 us = 0% latency, 126.42 TFLOPS, in_features=4096, out_features=2048, bias=False)
          (q_norm): Qwen3MoeRMSNorm(128 = 0% Params, 0 MACs = 0% MACs, 124.93 us = 0% latency, 554.08 GFLOPS, (128,), eps=1e-06)
          (k_norm): Qwen3MoeRMSNorm(128 = 0% Params, 0 MACs = 0% MACs, 126.36 us = 0% latency, 68.48 GFLOPS, (128,), eps=1e-06)
        )
        (mlp): Qwen3MoeSparseMoeBlock(
          604.24 M = 1.98% Params, 19.46 GMACs = 1.23% MACs, 4.24 ms = 0.13% latency, 9.19 TFLOPS
          (gate): Linear(262.14 K = 0% Params, 134.22 MMACs = 0.01% MACs, 58.65 us = 0% latency, 4.58 TFLOPS, in_features=2048, out_features=128, bias=False)
          (experts): ModuleList(
            (0-7): 8 x Qwen3MoeMLP(
              4.72 M = 0.02% Params, 0 MACs = 0% MACs, 0 s = 0% latency, 0 FLOPS
              (gate_proj): Linear(1.57 M = 0.01% Params, 0 MACs = 0% MACs, 0 s = 0% latency, 0 FLOPS, in_features=2048, out_features=768, bias=False)
              (up_proj): Linear(1.57 M = 0.01% Params, 0 MACs = 0% MACs, 0 s = 0% latency, 0 FLOPS, in_features=2048, out_features=768, bias=False)
              (down_proj): Linear(1.57 M = 0.01% Params, 0 MACs = 0% MACs, 0 s = 0% latency, 0 FLOPS, in_features=768, out_features=2048, bias=False)
              (act_fn): SiLUActivation(0 = 0% Params, 0 MACs = 0% MACs, 0 s = 0% latency, 0 FLOPS)
            )
            (8): Qwen3MoeMLP(
              4.72 M = 0.02% Params, 2.42 GMACs = 0.15% MACs, 325.2 us = 0.01% latency, 14.86 TFLOPS
              (gate_proj): Linear(1.57 M = 0.01% Params, 805.31 MMACs = 0.05% MACs, 66.04 us = 0% latency, 24.39 TFLOPS, in_features=2048, out_features=768, bias=False)
              (up_proj): Linear(1.57 M = 0.01% Params, 805.31 MMACs = 0.05% MACs, 55.31 us = 0% latency, 29.12 TFLOPS, in_features=2048, out_features=768, bias=False)
              (down_proj): Linear(1.57 M = 0.01% Params, 805.31 MMACs = 0.05% MACs, 54.84 us = 0% latency, 29.37 TFLOPS, in_features=768, out_features=2048, bias=False)
              (act_fn): SiLUActivation(0 = 0% Params, 0 MACs = 0% MACs, 39.58 us = 0% latency, 19.87 GFLOPS)
            )
            (9-25): 17 x Qwen3MoeMLP(
              4.72 M = 0.02% Params, 0 MACs = 0% MACs, 0 s = 0% latency, 0 FLOPS
              (gate_proj): Linear(1.57 M = 0.01% Params, 0 MACs = 0% MACs, 0 s = 0% latency, 0 FLOPS, in_features=2048, out_features=768, bias=False)
              (up_proj): Linear(1.57 M = 0.01% Params, 0 MACs = 0% MACs, 0 s = 0% latency, 0 FLOPS, in_features=2048, out_features=768, bias=False)
              (down_proj): Linear(1.57 M = 0.01% Params, 0 MACs = 0% MACs, 0 s = 0% latency, 0 FLOPS, in_features=768, out_features=2048, bias=False)
              (act_fn): SiLUActivation(0 = 0% Params, 0 MACs = 0% MACs, 0 s = 0% latency, 0 FLOPS)
            )
            (26): Qwen3MoeMLP(
              4.72 M = 0.02% Params, 2.42 GMACs = 0.15% MACs, 311.85 us = 0.01% latency, 15.5 TFLOPS
              (gate_proj): Linear(1.57 M = 0.01% Params, 805.31 MMACs = 0.05% MACs, 62.94 us = 0% latency, 25.59 TFLOPS, in_features=2048, out_features=768, bias=False)
              (up_proj): Linear(1.57 M = 0.01% Params, 805.31 MMACs = 0.05% MACs, 54.36 us = 0% latency, 29.63 TFLOPS, in_features=2048, out_features=768, bias=False)
              (down_proj): Linear(1.57 M = 0.01% Params, 805.31 MMACs = 0.05% MACs, 51.5 us = 0% latency, 31.27 TFLOPS, in_features=768, out_features=2048, bias=False)
              (act_fn): SiLUActivation(0 = 0% Params, 0 MACs = 0% MACs, 37.91 us = 0% latency, 20.75 GFLOPS)
            )
            (27-37): 11 x Qwen3MoeMLP(
              4.72 M = 0.02% Params, 0 MACs = 0% MACs, 0 s = 0% latency, 0 FLOPS
              (gate_proj): Linear(1.57 M = 0.01% Params, 0 MACs = 0% MACs, 0 s = 0% latency, 0 FLOPS, in_features=2048, out_features=768, bias=False)
              (up_proj): Linear(1.57 M = 0.01% Params, 0 MACs = 0% MACs, 0 s = 0% latency, 0 FLOPS, in_features=2048, out_features=768, bias=False)
              (down_proj): Linear(1.57 M = 0.01% Params, 0 MACs = 0% MACs, 0 s = 0% latency, 0 FLOPS, in_features=768, out_features=2048, bias=False)
              (act_fn): SiLUActivation(0 = 0% Params, 0 MACs = 0% MACs, 0 s = 0% latency, 0 FLOPS)
            )
            (38): Qwen3MoeMLP(
              4.72 M = 0.02% Params, 2.42 GMACs = 0.15% MACs, 312.81 us = 0.01% latency, 15.45 TFLOPS
              (gate_proj): Linear(1.57 M = 0.01% Params, 805.31 MMACs = 0.05% MACs, 64.13 us = 0% latency, 25.11 TFLOPS, in_features=2048, out_features=768, bias=False)
              (up_proj): Linear(1.57 M = 0.01% Params, 805.31 MMACs = 0.05% MACs, 54.36 us = 0% latency, 29.63 TFLOPS, in_features=2048, out_features=768, bias=False)
              (down_proj): Linear(1.57 M = 0.01% Params, 805.31 MMACs = 0.05% MACs, 51.74 us = 0% latency, 31.13 TFLOPS, in_features=768, out_features=2048, bias=False)
              (act_fn): SiLUActivation(0 = 0% Params, 0 MACs = 0% MACs, 38.86 us = 0% latency, 20.24 GFLOPS)
            )
            (39-45): 7 x Qwen3MoeMLP(
              4.72 M = 0.02% Params, 0 MACs = 0% MACs, 0 s = 0% latency, 0 FLOPS
              (gate_proj): Linear(1.57 M = 0.01% Params, 0 MACs = 0% MACs, 0 s = 0% latency, 0 FLOPS, in_features=2048, out_features=768, bias=False)
              (up_proj): Linear(1.57 M = 0.01% Params, 0 MACs = 0% MACs, 0 s = 0% latency, 0 FLOPS, in_features=2048, out_features=768, bias=False)
              (down_proj): Linear(1.57 M = 0.01% Params, 0 MACs = 0% MACs, 0 s = 0% latency, 0 FLOPS, in_features=768, out_features=2048, bias=False)
              (act_fn): SiLUActivation(0 = 0% Params, 0 MACs = 0% MACs, 0 s = 0% latency, 0 FLOPS)
            )
            (46): Qwen3MoeMLP(
              4.72 M = 0.02% Params, 2.42 GMACs = 0.15% MACs, 304.46 us = 0.01% latency, 15.87 TFLOPS
              (gate_proj): Linear(1.57 M = 0.01% Params, 805.31 MMACs = 0.05% MACs, 61.04 us = 0% latency, 26.39 TFLOPS, in_features=2048, out_features=768, bias=False)
              (up_proj): Linear(1.57 M = 0.01% Params, 805.31 MMACs = 0.05% MACs, 53.64 us = 0% latency, 30.02 TFLOPS, in_features=2048, out_features=768, bias=False)
              (down_proj): Linear(1.57 M = 0.01% Params, 805.31 MMACs = 0.05% MACs, 51.02 us = 0% latency, 31.57 TFLOPS, in_features=768, out_features=2048, bias=False)
              (act_fn): SiLUActivation(0 = 0% Params, 0 MACs = 0% MACs, 36.48 us = 0% latency, 21.56 GFLOPS)
            )
            (47-80): 34 x Qwen3MoeMLP(
              4.72 M = 0.02% Params, 0 MACs = 0% MACs, 0 s = 0% latency, 0 FLOPS
              (gate_proj): Linear(1.57 M = 0.01% Params, 0 MACs = 0% MACs, 0 s = 0% latency, 0 FLOPS, in_features=2048, out_features=768, bias=False)
              (up_proj): Linear(1.57 M = 0.01% Params, 0 MACs = 0% MACs, 0 s = 0% latency, 0 FLOPS, in_features=2048, out_features=768, bias=False)
              (down_proj): Linear(1.57 M = 0.01% Params, 0 MACs = 0% MACs, 0 s = 0% latency, 0 FLOPS, in_features=768, out_features=2048, bias=False)
              (act_fn): SiLUActivation(0 = 0% Params, 0 MACs = 0% MACs, 0 s = 0% latency, 0 FLOPS)
            )
            (81): Qwen3MoeMLP(
              4.72 M = 0.02% Params, 2.42 GMACs = 0.15% MACs, 314.24 us = 0.01% latency, 15.38 TFLOPS
              (gate_proj): Linear(1.57 M = 0.01% Params, 805.31 MMACs = 0.05% MACs, 68.66 us = 0% latency, 23.46 TFLOPS, in_features=2048, out_features=768, bias=False)
              (up_proj): Linear(1.57 M = 0.01% Params, 805.31 MMACs = 0.05% MACs, 52.69 us = 0% latency, 30.57 TFLOPS, in_features=2048, out_features=768, bias=False)
              (down_proj): Linear(1.57 M = 0.01% Params, 805.31 MMACs = 0.05% MACs, 52.69 us = 0% latency, 30.57 TFLOPS, in_features=768, out_features=2048, bias=False)
              (act_fn): SiLUActivation(0 = 0% Params, 0 MACs = 0% MACs, 36.72 us = 0% latency, 21.42 GFLOPS)
            )
            (82-87): 6 x Qwen3MoeMLP(
              4.72 M = 0.02% Params, 0 MACs = 0% MACs, 0 s = 0% latency, 0 FLOPS
              (gate_proj): Linear(1.57 M = 0.01% Params, 0 MACs = 0% MACs, 0 s = 0% latency, 0 FLOPS, in_features=2048, out_features=768, bias=False)
              (up_proj): Linear(1.57 M = 0.01% Params, 0 MACs = 0% MACs, 0 s = 0% latency, 0 FLOPS, in_features=2048, out_features=768, bias=False)
              (down_proj): Linear(1.57 M = 0.01% Params, 0 MACs = 0% MACs, 0 s = 0% latency, 0 FLOPS, in_features=768, out_features=2048, bias=False)
              (act_fn): SiLUActivation(0 = 0% Params, 0 MACs = 0% MACs, 0 s = 0% latency, 0 FLOPS)
            )
            (88): Qwen3MoeMLP(
              4.72 M = 0.02% Params, 2.42 GMACs = 0.15% MACs, 305.89 us = 0.01% latency, 15.8 TFLOPS
              (gate_proj): Linear(1.57 M = 0.01% Params, 805.31 MMACs = 0.05% MACs, 59.6 us = 0% latency, 27.02 TFLOPS, in_features=2048, out_features=768, bias=False)
              (up_proj): Linear(1.57 M = 0.01% Params, 805.31 MMACs = 0.05% MACs, 52.69 us = 0% latency, 30.57 TFLOPS, in_features=2048, out_features=768, bias=False)
              (down_proj): Linear(1.57 M = 0.01% Params, 805.31 MMACs = 0.05% MACs, 56.27 us = 0% latency, 28.62 TFLOPS, in_features=768, out_features=2048, bias=False)
              (act_fn): SiLUActivation(0 = 0% Params, 0 MACs = 0% MACs, 36 us = 0% latency, 21.84 GFLOPS)
            )
            (89-97): 9 x Qwen3MoeMLP(
              4.72 M = 0.02% Params, 0 MACs = 0% MACs, 0 s = 0% latency, 0 FLOPS
              (gate_proj): Linear(1.57 M = 0.01% Params, 0 MACs = 0% MACs, 0 s = 0% latency, 0 FLOPS, in_features=2048, out_features=768, bias=False)
              (up_proj): Linear(1.57 M = 0.01% Params, 0 MACs = 0% MACs, 0 s = 0% latency, 0 FLOPS, in_features=2048, out_features=768, bias=False)
              (down_proj): Linear(1.57 M = 0.01% Params, 0 MACs = 0% MACs, 0 s = 0% latency, 0 FLOPS, in_features=768, out_features=2048, bias=False)
              (act_fn): SiLUActivation(0 = 0% Params, 0 MACs = 0% MACs, 0 s = 0% latency, 0 FLOPS)
            )
            (98): Qwen3MoeMLP(
              4.72 M = 0.02% Params, 2.42 GMACs = 0.15% MACs, 318.77 us = 0.01% latency, 15.16 TFLOPS
              (gate_proj): Linear(1.57 M = 0.01% Params, 805.31 MMACs = 0.05% MACs, 63.42 us = 0% latency, 25.4 TFLOPS, in_features=2048, out_features=768, bias=False)
              (up_proj): Linear(1.57 M = 0.01% Params, 805.31 MMACs = 0.05% MACs, 53.64 us = 0% latency, 30.02 TFLOPS, in_features=2048, out_features=768, bias=False)
              (down_proj): Linear(1.57 M = 0.01% Params, 805.31 MMACs = 0.05% MACs, 51.98 us = 0% latency, 30.99 TFLOPS, in_features=768, out_features=2048, bias=False)
              (act_fn): SiLUActivation(0 = 0% Params, 0 MACs = 0% MACs, 37.19 us = 0% latency, 21.14 GFLOPS)
            )
            (99): Qwen3MoeMLP(
              4.72 M = 0.02% Params, 0 MACs = 0% MACs, 0 s = 0% latency, 0 FLOPS
              (gate_proj): Linear(1.57 M = 0.01% Params, 0 MACs = 0% MACs, 0 s = 0% latency, 0 FLOPS, in_features=2048, out_features=768, bias=False)
              (up_proj): Linear(1.57 M = 0.01% Params, 0 MACs = 0% MACs, 0 s = 0% latency, 0 FLOPS, in_features=2048, out_features=768, bias=False)
              (down_proj): Linear(1.57 M = 0.01% Params, 0 MACs = 0% MACs, 0 s = 0% latency, 0 FLOPS, in_features=768, out_features=2048, bias=False)
              (act_fn): SiLUActivation(0 = 0% Params, 0 MACs = 0% MACs, 0 s = 0% latency, 0 FLOPS)
            )
            (100): Qwen3MoeMLP(
              4.72 M = 0.02% Params, 2.42 GMACs = 0.15% MACs, 301.6 us = 0.01% latency, 16.02 TFLOPS
              (gate_proj): Linear(1.57 M = 0.01% Params, 805.31 MMACs = 0.05% MACs, 61.27 us = 0% latency, 26.29 TFLOPS, in_features=2048, out_features=768, bias=False)
              (up_proj): Linear(1.57 M = 0.01% Params, 805.31 MMACs = 0.05% MACs, 51.74 us = 0% latency, 31.13 TFLOPS, in_features=2048, out_features=768, bias=False)
              (down_proj): Linear(1.57 M = 0.01% Params, 805.31 MMACs = 0.05% MACs, 51.02 us = 0% latency, 31.57 TFLOPS, in_features=768, out_features=2048, bias=False)
              (act_fn): SiLUActivation(0 = 0% Params, 0 MACs = 0% MACs, 36 us = 0% latency, 21.84 GFLOPS)
            )
            (101-127): 27 x Qwen3MoeMLP(
              4.72 M = 0.02% Params, 0 MACs = 0% MACs, 0 s = 0% latency, 0 FLOPS
              (gate_proj): Linear(1.57 M = 0.01% Params, 0 MACs = 0% MACs, 0 s = 0% latency, 0 FLOPS, in_features=2048, out_features=768, bias=False)
              (up_proj): Linear(1.57 M = 0.01% Params, 0 MACs = 0% MACs, 0 s = 0% latency, 0 FLOPS, in_features=2048, out_features=768, bias=False)
              (down_proj): Linear(1.57 M = 0.01% Params, 0 MACs = 0% MACs, 0 s = 0% latency, 0 FLOPS, in_features=768, out_features=2048, bias=False)
              (act_fn): SiLUActivation(0 = 0% Params, 0 MACs = 0% MACs, 0 s = 0% latency, 0 FLOPS)
            )
          )
        )
        (input_layernorm): Qwen3MoeRMSNorm(2.05 K = 0% Params, 0 MACs = 0% MACs, 130.41 us = 0% latency, 4.12 TFLOPS, (2048,), eps=1e-06)
        (post_attention_layernorm): Qwen3MoeRMSNorm(2.05 K = 0% Params, 0 MACs = 0% MACs, 118.97 us = 0% latency, 4.52 TFLOPS, (2048,), eps=1e-06)
      )
      (6): Qwen3MoeDecoderLayer(
        623.12 M = 2.04% Params, 29.66 GMACs = 1.87% MACs, 5.59 ms = 0.17% latency, 10.82 TFLOPS
        (self_attn): Qwen3MoeAttention(
          18.87 M = 0.06% Params, 10.2 GMACs = 0.64% MACs, 902.18 us = 0.03% latency, 22.71 TFLOPS
          (q_proj): Linear(8.39 M = 0.03% Params, 4.29 GMACs = 0.27% MACs, 68.9 us = 0% latency, 124.67 TFLOPS, in_features=2048, out_features=4096, bias=False)
          (k_proj): Linear(1.05 M = 0% Params, 536.87 MMACs = 0.03% MACs, 64.61 us = 0% latency, 16.62 TFLOPS, in_features=2048, out_features=512, bias=False)
          (v_proj): Linear(1.05 M = 0% Params, 536.87 MMACs = 0.03% MACs, 61.99 us = 0% latency, 17.32 TFLOPS, in_features=2048, out_features=512, bias=False)
          (o_proj): Linear(8.39 M = 0.03% Params, 4.29 GMACs = 0.27% MACs, 88.93 us = 0% latency, 96.59 TFLOPS, in_features=4096, out_features=2048, bias=False)
          (q_norm): Qwen3MoeRMSNorm(128 = 0% Params, 0 MACs = 0% MACs, 122.79 us = 0% latency, 563.77 GFLOPS, (128,), eps=1e-06)
          (k_norm): Qwen3MoeRMSNorm(128 = 0% Params, 0 MACs = 0% MACs, 117.06 us = 0% latency, 73.92 GFLOPS, (128,), eps=1e-06)
        )
        (mlp): Qwen3MoeSparseMoeBlock(
          604.24 M = 1.98% Params, 19.46 GMACs = 1.23% MACs, 4.23 ms = 0.13% latency, 9.2 TFLOPS
          (gate): Linear(262.14 K = 0% Params, 134.22 MMACs = 0.01% MACs, 59.84 us = 0% latency, 4.49 TFLOPS, in_features=2048, out_features=128, bias=False)
          (experts): ModuleList(
            (0-31): 32 x Qwen3MoeMLP(
              4.72 M = 0.02% Params, 0 MACs = 0% MACs, 0 s = 0% latency, 0 FLOPS
              (gate_proj): Linear(1.57 M = 0.01% Params, 0 MACs = 0% MACs, 0 s = 0% latency, 0 FLOPS, in_features=2048, out_features=768, bias=False)
              (up_proj): Linear(1.57 M = 0.01% Params, 0 MACs = 0% MACs, 0 s = 0% latency, 0 FLOPS, in_features=2048, out_features=768, bias=False)
              (down_proj): Linear(1.57 M = 0.01% Params, 0 MACs = 0% MACs, 0 s = 0% latency, 0 FLOPS, in_features=768, out_features=2048, bias=False)
              (act_fn): SiLUActivation(0 = 0% Params, 0 MACs = 0% MACs, 0 s = 0% latency, 0 FLOPS)
            )
            (32): Qwen3MoeMLP(
              4.72 M = 0.02% Params, 2.42 GMACs = 0.15% MACs, 325.68 us = 0.01% latency, 14.84 TFLOPS
              (gate_proj): Linear(1.57 M = 0.01% Params, 805.31 MMACs = 0.05% MACs, 66.04 us = 0% latency, 24.39 TFLOPS, in_features=2048, out_features=768, bias=False)
              (up_proj): Linear(1.57 M = 0.01% Params, 805.31 MMACs = 0.05% MACs, 55.79 us = 0% latency, 28.87 TFLOPS, in_features=2048, out_features=768, bias=False)
              (down_proj): Linear(1.57 M = 0.01% Params, 805.31 MMACs = 0.05% MACs, 54.12 us = 0% latency, 29.76 TFLOPS, in_features=768, out_features=2048, bias=False)
              (act_fn): SiLUActivation(0 = 0% Params, 0 MACs = 0% MACs, 40.53 us = 0% latency, 19.4 GFLOPS)
            )
            (33-49): 17 x Qwen3MoeMLP(
              4.72 M = 0.02% Params, 0 MACs = 0% MACs, 0 s = 0% latency, 0 FLOPS
              (gate_proj): Linear(1.57 M = 0.01% Params, 0 MACs = 0% MACs, 0 s = 0% latency, 0 FLOPS, in_features=2048, out_features=768, bias=False)
              (up_proj): Linear(1.57 M = 0.01% Params, 0 MACs = 0% MACs, 0 s = 0% latency, 0 FLOPS, in_features=2048, out_features=768, bias=False)
              (down_proj): Linear(1.57 M = 0.01% Params, 0 MACs = 0% MACs, 0 s = 0% latency, 0 FLOPS, in_features=768, out_features=2048, bias=False)
              (act_fn): SiLUActivation(0 = 0% Params, 0 MACs = 0% MACs, 0 s = 0% latency, 0 FLOPS)
            )
            (50): Qwen3MoeMLP(
              4.72 M = 0.02% Params, 2.42 GMACs = 0.15% MACs, 311.14 us = 0.01% latency, 15.53 TFLOPS
              (gate_proj): Linear(1.57 M = 0.01% Params, 805.31 MMACs = 0.05% MACs, 64.37 us = 0% latency, 25.02 TFLOPS, in_features=2048, out_features=768, bias=False)
              (up_proj): Linear(1.57 M = 0.01% Params, 805.31 MMACs = 0.05% MACs, 53.17 us = 0% latency, 30.29 TFLOPS, in_features=2048, out_features=768, bias=False)
              (down_proj): Linear(1.57 M = 0.01% Params, 805.31 MMACs = 0.05% MACs, 51.98 us = 0% latency, 30.99 TFLOPS, in_features=768, out_features=2048, bias=False)
              (act_fn): SiLUActivation(0 = 0% Params, 0 MACs = 0% MACs, 37.67 us = 0% latency, 20.88 GFLOPS)
            )
            (51-68): 18 x Qwen3MoeMLP(
              4.72 M = 0.02% Params, 0 MACs = 0% MACs, 0 s = 0% latency, 0 FLOPS
              (gate_proj): Linear(1.57 M = 0.01% Params, 0 MACs = 0% MACs, 0 s = 0% latency, 0 FLOPS, in_features=2048, out_features=768, bias=False)
              (up_proj): Linear(1.57 M = 0.01% Params, 0 MACs = 0% MACs, 0 s = 0% latency, 0 FLOPS, in_features=2048, out_features=768, bias=False)
              (down_proj): Linear(1.57 M = 0.01% Params, 0 MACs = 0% MACs, 0 s = 0% latency, 0 FLOPS, in_features=768, out_features=2048, bias=False)
              (act_fn): SiLUActivation(0 = 0% Params, 0 MACs = 0% MACs, 0 s = 0% latency, 0 FLOPS)
            )
            (69): Qwen3MoeMLP(
              4.72 M = 0.02% Params, 2.42 GMACs = 0.15% MACs, 308.75 us = 0.01% latency, 15.65 TFLOPS
              (gate_proj): Linear(1.57 M = 0.01% Params, 805.31 MMACs = 0.05% MACs, 60.08 us = 0% latency, 26.81 TFLOPS, in_features=2048, out_features=768, bias=False)
              (up_proj): Linear(1.57 M = 0.01% Params, 805.31 MMACs = 0.05% MACs, 54.12 us = 0% latency, 29.76 TFLOPS, in_features=2048, out_features=768, bias=False)
              (down_proj): Linear(1.57 M = 0.01% Params, 805.31 MMACs = 0.05% MACs, 51.02 us = 0% latency, 31.57 TFLOPS, in_features=768, out_features=2048, bias=False)
              (act_fn): SiLUActivation(0 = 0% Params, 0 MACs = 0% MACs, 37.19 us = 0% latency, 21.14 GFLOPS)
            )
            (70): Qwen3MoeMLP(
              4.72 M = 0.02% Params, 0 MACs = 0% MACs, 0 s = 0% latency, 0 FLOPS
              (gate_proj): Linear(1.57 M = 0.01% Params, 0 MACs = 0% MACs, 0 s = 0% latency, 0 FLOPS, in_features=2048, out_features=768, bias=False)
              (up_proj): Linear(1.57 M = 0.01% Params, 0 MACs = 0% MACs, 0 s = 0% latency, 0 FLOPS, in_features=2048, out_features=768, bias=False)
              (down_proj): Linear(1.57 M = 0.01% Params, 0 MACs = 0% MACs, 0 s = 0% latency, 0 FLOPS, in_features=768, out_features=2048, bias=False)
              (act_fn): SiLUActivation(0 = 0% Params, 0 MACs = 0% MACs, 0 s = 0% latency, 0 FLOPS)
            )
            (71): Qwen3MoeMLP(
              4.72 M = 0.02% Params, 2.42 GMACs = 0.15% MACs, 298.02 us = 0.01% latency, 16.22 TFLOPS
              (gate_proj): Linear(1.57 M = 0.01% Params, 805.31 MMACs = 0.05% MACs, 61.27 us = 0% latency, 26.29 TFLOPS, in_features=2048, out_features=768, bias=False)
              (up_proj): Linear(1.57 M = 0.01% Params, 805.31 MMACs = 0.05% MACs, 51.98 us = 0% latency, 30.99 TFLOPS, in_features=2048, out_features=768, bias=False)
              (down_proj): Linear(1.57 M = 0.01% Params, 805.31 MMACs = 0.05% MACs, 50.78 us = 0% latency, 31.72 TFLOPS, in_features=768, out_features=2048, bias=False)
              (act_fn): SiLUActivation(0 = 0% Params, 0 MACs = 0% MACs, 35.52 us = 0% latency, 22.14 GFLOPS)
            )
            (72-73): 2 x Qwen3MoeMLP(
              4.72 M = 0.02% Params, 0 MACs = 0% MACs, 0 s = 0% latency, 0 FLOPS
              (gate_proj): Linear(1.57 M = 0.01% Params, 0 MACs = 0% MACs, 0 s = 0% latency, 0 FLOPS, in_features=2048, out_features=768, bias=False)
              (up_proj): Linear(1.57 M = 0.01% Params, 0 MACs = 0% MACs, 0 s = 0% latency, 0 FLOPS, in_features=2048, out_features=768, bias=False)
              (down_proj): Linear(1.57 M = 0.01% Params, 0 MACs = 0% MACs, 0 s = 0% latency, 0 FLOPS, in_features=768, out_features=2048, bias=False)
              (act_fn): SiLUActivation(0 = 0% Params, 0 MACs = 0% MACs, 0 s = 0% latency, 0 FLOPS)
            )
            (74): Qwen3MoeMLP(
              4.72 M = 0.02% Params, 2.42 GMACs = 0.15% MACs, 305.65 us = 0.01% latency, 15.81 TFLOPS
              (gate_proj): Linear(1.57 M = 0.01% Params, 805.31 MMACs = 0.05% MACs, 59.6 us = 0% latency, 27.02 TFLOPS, in_features=2048, out_features=768, bias=False)
              (up_proj): Linear(1.57 M = 0.01% Params, 805.31 MMACs = 0.05% MACs, 59.37 us = 0% latency, 27.13 TFLOPS, in_features=2048, out_features=768, bias=False)
              (down_proj): Linear(1.57 M = 0.01% Params, 805.31 MMACs = 0.05% MACs, 51.02 us = 0% latency, 31.57 TFLOPS, in_features=768, out_features=2048, bias=False)
              (act_fn): SiLUActivation(0 = 0% Params, 0 MACs = 0% MACs, 36 us = 0% latency, 21.84 GFLOPS)
            )
            (75-90): 16 x Qwen3MoeMLP(
              4.72 M = 0.02% Params, 0 MACs = 0% MACs, 0 s = 0% latency, 0 FLOPS
              (gate_proj): Linear(1.57 M = 0.01% Params, 0 MACs = 0% MACs, 0 s = 0% latency, 0 FLOPS, in_features=2048, out_features=768, bias=False)
              (up_proj): Linear(1.57 M = 0.01% Params, 0 MACs = 0% MACs, 0 s = 0% latency, 0 FLOPS, in_features=2048, out_features=768, bias=False)
              (down_proj): Linear(1.57 M = 0.01% Params, 0 MACs = 0% MACs, 0 s = 0% latency, 0 FLOPS, in_features=768, out_features=2048, bias=False)
              (act_fn): SiLUActivation(0 = 0% Params, 0 MACs = 0% MACs, 0 s = 0% latency, 0 FLOPS)
            )
            (91): Qwen3MoeMLP(
              4.72 M = 0.02% Params, 2.42 GMACs = 0.15% MACs, 302.08 us = 0.01% latency, 16 TFLOPS
              (gate_proj): Linear(1.57 M = 0.01% Params, 805.31 MMACs = 0.05% MACs, 60.56 us = 0% latency, 26.6 TFLOPS, in_features=2048, out_features=768, bias=False)
              (up_proj): Linear(1.57 M = 0.01% Params, 805.31 MMACs = 0.05% MACs, 51.74 us = 0% latency, 31.13 TFLOPS, in_features=2048, out_features=768, bias=False)
              (down_proj): Linear(1.57 M = 0.01% Params, 805.31 MMACs = 0.05% MACs, 51.98 us = 0% latency, 30.99 TFLOPS, in_features=768, out_features=2048, bias=False)
              (act_fn): SiLUActivation(0 = 0% Params, 0 MACs = 0% MACs, 36.48 us = 0% latency, 21.56 GFLOPS)
            )
            (92-102): 11 x Qwen3MoeMLP(
              4.72 M = 0.02% Params, 0 MACs = 0% MACs, 0 s = 0% latency, 0 FLOPS
              (gate_proj): Linear(1.57 M = 0.01% Params, 0 MACs = 0% MACs, 0 s = 0% latency, 0 FLOPS, in_features=2048, out_features=768, bias=False)
              (up_proj): Linear(1.57 M = 0.01% Params, 0 MACs = 0% MACs, 0 s = 0% latency, 0 FLOPS, in_features=2048, out_features=768, bias=False)
              (down_proj): Linear(1.57 M = 0.01% Params, 0 MACs = 0% MACs, 0 s = 0% latency, 0 FLOPS, in_features=768, out_features=2048, bias=False)
              (act_fn): SiLUActivation(0 = 0% Params, 0 MACs = 0% MACs, 0 s = 0% latency, 0 FLOPS)
            )
            (103): Qwen3MoeMLP(
              4.72 M = 0.02% Params, 2.42 GMACs = 0.15% MACs, 293.97 us = 0.01% latency, 16.44 TFLOPS
              (gate_proj): Linear(1.57 M = 0.01% Params, 805.31 MMACs = 0.05% MACs, 60.08 us = 0% latency, 26.81 TFLOPS, in_features=2048, out_features=768, bias=False)
              (up_proj): Linear(1.57 M = 0.01% Params, 805.31 MMACs = 0.05% MACs, 51.74 us = 0% latency, 31.13 TFLOPS, in_features=2048, out_features=768, bias=False)
              (down_proj): Linear(1.57 M = 0.01% Params, 805.31 MMACs = 0.05% MACs, 50.54 us = 0% latency, 31.87 TFLOPS, in_features=768, out_features=2048, bias=False)
              (act_fn): SiLUActivation(0 = 0% Params, 0 MACs = 0% MACs, 34.33 us = 0% latency, 22.91 GFLOPS)
            )
            (104-107): 4 x Qwen3MoeMLP(
              4.72 M = 0.02% Params, 0 MACs = 0% MACs, 0 s = 0% latency, 0 FLOPS
              (gate_proj): Linear(1.57 M = 0.01% Params, 0 MACs = 0% MACs, 0 s = 0% latency, 0 FLOPS, in_features=2048, out_features=768, bias=False)
              (up_proj): Linear(1.57 M = 0.01% Params, 0 MACs = 0% MACs, 0 s = 0% latency, 0 FLOPS, in_features=2048, out_features=768, bias=False)
              (down_proj): Linear(1.57 M = 0.01% Params, 0 MACs = 0% MACs, 0 s = 0% latency, 0 FLOPS, in_features=768, out_features=2048, bias=False)
              (act_fn): SiLUActivation(0 = 0% Params, 0 MACs = 0% MACs, 0 s = 0% latency, 0 FLOPS)
            )
            (108): Qwen3MoeMLP(
              4.72 M = 0.02% Params, 2.42 GMACs = 0.15% MACs, 317.81 us = 0.01% latency, 15.21 TFLOPS
              (gate_proj): Linear(1.57 M = 0.01% Params, 805.31 MMACs = 0.05% MACs, 65.57 us = 0% latency, 24.57 TFLOPS, in_features=2048, out_features=768, bias=False)
              (up_proj): Linear(1.57 M = 0.01% Params, 805.31 MMACs = 0.05% MACs, 59.84 us = 0% latency, 26.91 TFLOPS, in_features=2048, out_features=768, bias=False)
              (down_proj): Linear(1.57 M = 0.01% Params, 805.31 MMACs = 0.05% MACs, 51.98 us = 0% latency, 30.99 TFLOPS, in_features=768, out_features=2048, bias=False)
              (act_fn): SiLUActivation(0 = 0% Params, 0 MACs = 0% MACs, 36.48 us = 0% latency, 21.56 GFLOPS)
            )
            (109-127): 19 x Qwen3MoeMLP(
              4.72 M = 0.02% Params, 0 MACs = 0% MACs, 0 s = 0% latency, 0 FLOPS
              (gate_proj): Linear(1.57 M = 0.01% Params, 0 MACs = 0% MACs, 0 s = 0% latency, 0 FLOPS, in_features=2048, out_features=768, bias=False)
              (up_proj): Linear(1.57 M = 0.01% Params, 0 MACs = 0% MACs, 0 s = 0% latency, 0 FLOPS, in_features=2048, out_features=768, bias=False)
              (down_proj): Linear(1.57 M = 0.01% Params, 0 MACs = 0% MACs, 0 s = 0% latency, 0 FLOPS, in_features=768, out_features=2048, bias=False)
              (act_fn): SiLUActivation(0 = 0% Params, 0 MACs = 0% MACs, 0 s = 0% latency, 0 FLOPS)
            )
          )
        )
        (input_layernorm): Qwen3MoeRMSNorm(2.05 K = 0% Params, 0 MACs = 0% MACs, 124.93 us = 0% latency, 4.31 TFLOPS, (2048,), eps=1e-06)
        (post_attention_layernorm): Qwen3MoeRMSNorm(2.05 K = 0% Params, 0 MACs = 0% MACs, 122.31 us = 0% latency, 4.4 TFLOPS, (2048,), eps=1e-06)
      )
      (7): Qwen3MoeDecoderLayer(
        623.12 M = 2.04% Params, 29.66 GMACs = 1.87% MACs, 5.6 ms = 0.17% latency, 10.8 TFLOPS
        (self_attn): Qwen3MoeAttention(
          18.87 M = 0.06% Params, 10.2 GMACs = 0.64% MACs, 901.7 us = 0.03% latency, 22.72 TFLOPS
          (q_proj): Linear(8.39 M = 0.03% Params, 4.29 GMACs = 0.27% MACs, 70.1 us = 0% latency, 122.55 TFLOPS, in_features=2048, out_features=4096, bias=False)
          (k_proj): Linear(1.05 M = 0% Params, 536.87 MMACs = 0.03% MACs, 66.28 us = 0% latency, 16.2 TFLOPS, in_features=2048, out_features=512, bias=False)
          (v_proj): Linear(1.05 M = 0% Params, 536.87 MMACs = 0.03% MACs, 62.23 us = 0% latency, 17.26 TFLOPS, in_features=2048, out_features=512, bias=False)
          (o_proj): Linear(8.39 M = 0.03% Params, 4.29 GMACs = 0.27% MACs, 74.86 us = 0% latency, 114.74 TFLOPS, in_features=4096, out_features=2048, bias=False)
          (q_norm): Qwen3MoeRMSNorm(128 = 0% Params, 0 MACs = 0% MACs, 132.32 us = 0% latency, 523.13 GFLOPS, (128,), eps=1e-06)
          (k_norm): Qwen3MoeRMSNorm(128 = 0% Params, 0 MACs = 0% MACs, 118.02 us = 0% latency, 73.32 GFLOPS, (128,), eps=1e-06)
        )
        (mlp): Qwen3MoeSparseMoeBlock(
          604.24 M = 1.98% Params, 19.46 GMACs = 1.23% MACs, 4.25 ms = 0.13% latency, 9.16 TFLOPS
          (gate): Linear(262.14 K = 0% Params, 134.22 MMACs = 0.01% MACs, 65.57 us = 0% latency, 4.09 TFLOPS, in_features=2048, out_features=128, bias=False)
          (experts): ModuleList(
            (0): Qwen3MoeMLP(
              4.72 M = 0.02% Params, 2.42 GMACs = 0.15% MACs, 318.77 us = 0.01% latency, 15.16 TFLOPS
              (gate_proj): Linear(1.57 M = 0.01% Params, 805.31 MMACs = 0.05% MACs, 66.04 us = 0% latency, 24.39 TFLOPS, in_features=2048, out_features=768, bias=False)
              (up_proj): Linear(1.57 M = 0.01% Params, 805.31 MMACs = 0.05% MACs, 54.84 us = 0% latency, 29.37 TFLOPS, in_features=2048, out_features=768, bias=False)
              (down_proj): Linear(1.57 M = 0.01% Params, 805.31 MMACs = 0.05% MACs, 52.21 us = 0% latency, 30.85 TFLOPS, in_features=768, out_features=2048, bias=False)
              (act_fn): SiLUActivation(0 = 0% Params, 0 MACs = 0% MACs, 39.1 us = 0% latency, 20.11 GFLOPS)
            )
            (1-20): 20 x Qwen3MoeMLP(
              4.72 M = 0.02% Params, 0 MACs = 0% MACs, 0 s = 0% latency, 0 FLOPS
              (gate_proj): Linear(1.57 M = 0.01% Params, 0 MACs = 0% MACs, 0 s = 0% latency, 0 FLOPS, in_features=2048, out_features=768, bias=False)
              (up_proj): Linear(1.57 M = 0.01% Params, 0 MACs = 0% MACs, 0 s = 0% latency, 0 FLOPS, in_features=2048, out_features=768, bias=False)
              (down_proj): Linear(1.57 M = 0.01% Params, 0 MACs = 0% MACs, 0 s = 0% latency, 0 FLOPS, in_features=768, out_features=2048, bias=False)
              (act_fn): SiLUActivation(0 = 0% Params, 0 MACs = 0% MACs, 0 s = 0% latency, 0 FLOPS)
            )
            (21): Qwen3MoeMLP(
              4.72 M = 0.02% Params, 2.42 GMACs = 0.15% MACs, 320.67 us = 0.01% latency, 15.07 TFLOPS
              (gate_proj): Linear(1.57 M = 0.01% Params, 805.31 MMACs = 0.05% MACs, 61.27 us = 0% latency, 26.29 TFLOPS, in_features=2048, out_features=768, bias=False)
              (up_proj): Linear(1.57 M = 0.01% Params, 805.31 MMACs = 0.05% MACs, 53.88 us = 0% latency, 29.89 TFLOPS, in_features=2048, out_features=768, bias=False)
              (down_proj): Linear(1.57 M = 0.01% Params, 805.31 MMACs = 0.05% MACs, 56.03 us = 0% latency, 28.75 TFLOPS, in_features=768, out_features=2048, bias=False)
              (act_fn): SiLUActivation(0 = 0% Params, 0 MACs = 0% MACs, 36.48 us = 0% latency, 21.56 GFLOPS)
            )
            (22-27): 6 x Qwen3MoeMLP(
              4.72 M = 0.02% Params, 0 MACs = 0% MACs, 0 s = 0% latency, 0 FLOPS
              (gate_proj): Linear(1.57 M = 0.01% Params, 0 MACs = 0% MACs, 0 s = 0% latency, 0 FLOPS, in_features=2048, out_features=768, bias=False)
              (up_proj): Linear(1.57 M = 0.01% Params, 0 MACs = 0% MACs, 0 s = 0% latency, 0 FLOPS, in_features=2048, out_features=768, bias=False)
              (down_proj): Linear(1.57 M = 0.01% Params, 0 MACs = 0% MACs, 0 s = 0% latency, 0 FLOPS, in_features=768, out_features=2048, bias=False)
              (act_fn): SiLUActivation(0 = 0% Params, 0 MACs = 0% MACs, 0 s = 0% latency, 0 FLOPS)
            )
            (28): Qwen3MoeMLP(
              4.72 M = 0.02% Params, 2.42 GMACs = 0.15% MACs, 298.74 us = 0.01% latency, 16.18 TFLOPS
              (gate_proj): Linear(1.57 M = 0.01% Params, 805.31 MMACs = 0.05% MACs, 60.8 us = 0% latency, 26.49 TFLOPS, in_features=2048, out_features=768, bias=False)
              (up_proj): Linear(1.57 M = 0.01% Params, 805.31 MMACs = 0.05% MACs, 51.74 us = 0% latency, 31.13 TFLOPS, in_features=2048, out_features=768, bias=False)
              (down_proj): Linear(1.57 M = 0.01% Params, 805.31 MMACs = 0.05% MACs, 49.11 us = 0% latency, 32.79 TFLOPS, in_features=768, out_features=2048, bias=False)
              (act_fn): SiLUActivation(0 = 0% Params, 0 MACs = 0% MACs, 36.48 us = 0% latency, 21.56 GFLOPS)
            )
            (29-37): 9 x Qwen3MoeMLP(
              4.72 M = 0.02% Params, 0 MACs = 0% MACs, 0 s = 0% latency, 0 FLOPS
              (gate_proj): Linear(1.57 M = 0.01% Params, 0 MACs = 0% MACs, 0 s = 0% latency, 0 FLOPS, in_features=2048, out_features=768, bias=False)
              (up_proj): Linear(1.57 M = 0.01% Params, 0 MACs = 0% MACs, 0 s = 0% latency, 0 FLOPS, in_features=2048, out_features=768, bias=False)
              (down_proj): Linear(1.57 M = 0.01% Params, 0 MACs = 0% MACs, 0 s = 0% latency, 0 FLOPS, in_features=768, out_features=2048, bias=False)
              (act_fn): SiLUActivation(0 = 0% Params, 0 MACs = 0% MACs, 0 s = 0% latency, 0 FLOPS)
            )
            (38): Qwen3MoeMLP(
              4.72 M = 0.02% Params, 2.42 GMACs = 0.15% MACs, 316.62 us = 0.01% latency, 15.26 TFLOPS
              (gate_proj): Linear(1.57 M = 0.01% Params, 805.31 MMACs = 0.05% MACs, 60.56 us = 0% latency, 26.6 TFLOPS, in_features=2048, out_features=768, bias=False)
              (up_proj): Linear(1.57 M = 0.01% Params, 805.31 MMACs = 0.05% MACs, 53.64 us = 0% latency, 30.02 TFLOPS, in_features=2048, out_features=768, bias=False)
              (down_proj): Linear(1.57 M = 0.01% Params, 805.31 MMACs = 0.05% MACs, 62.47 us = 0% latency, 25.78 TFLOPS, in_features=768, out_features=2048, bias=False)
              (act_fn): SiLUActivation(0 = 0% Params, 0 MACs = 0% MACs, 36 us = 0% latency, 21.84 GFLOPS)
            )
            (39-62): 24 x Qwen3MoeMLP(
              4.72 M = 0.02% Params, 0 MACs = 0% MACs, 0 s = 0% latency, 0 FLOPS
              (gate_proj): Linear(1.57 M = 0.01% Params, 0 MACs = 0% MACs, 0 s = 0% latency, 0 FLOPS, in_features=2048, out_features=768, bias=False)
              (up_proj): Linear(1.57 M = 0.01% Params, 0 MACs = 0% MACs, 0 s = 0% latency, 0 FLOPS, in_features=2048, out_features=768, bias=False)
              (down_proj): Linear(1.57 M = 0.01% Params, 0 MACs = 0% MACs, 0 s = 0% latency, 0 FLOPS, in_features=768, out_features=2048, bias=False)
              (act_fn): SiLUActivation(0 = 0% Params, 0 MACs = 0% MACs, 0 s = 0% latency, 0 FLOPS)
            )
            (63): Qwen3MoeMLP(
              4.72 M = 0.02% Params, 2.42 GMACs = 0.15% MACs, 312.33 us = 0.01% latency, 15.47 TFLOPS
              (gate_proj): Linear(1.57 M = 0.01% Params, 805.31 MMACs = 0.05% MACs, 60.8 us = 0% latency, 26.49 TFLOPS, in_features=2048, out_features=768, bias=False)
              (up_proj): Linear(1.57 M = 0.01% Params, 805.31 MMACs = 0.05% MACs, 61.04 us = 0% latency, 26.39 TFLOPS, in_features=2048, out_features=768, bias=False)
              (down_proj): Linear(1.57 M = 0.01% Params, 805.31 MMACs = 0.05% MACs, 51.5 us = 0% latency, 31.27 TFLOPS, in_features=768, out_features=2048, bias=False)
              (act_fn): SiLUActivation(0 = 0% Params, 0 MACs = 0% MACs, 35.05 us = 0% latency, 22.44 GFLOPS)
            )
            (64-92): 29 x Qwen3MoeMLP(
              4.72 M = 0.02% Params, 0 MACs = 0% MACs, 0 s = 0% latency, 0 FLOPS
              (gate_proj): Linear(1.57 M = 0.01% Params, 0 MACs = 0% MACs, 0 s = 0% latency, 0 FLOPS, in_features=2048, out_features=768, bias=False)
              (up_proj): Linear(1.57 M = 0.01% Params, 0 MACs = 0% MACs, 0 s = 0% latency, 0 FLOPS, in_features=2048, out_features=768, bias=False)
              (down_proj): Linear(1.57 M = 0.01% Params, 0 MACs = 0% MACs, 0 s = 0% latency, 0 FLOPS, in_features=768, out_features=2048, bias=False)
              (act_fn): SiLUActivation(0 = 0% Params, 0 MACs = 0% MACs, 0 s = 0% latency, 0 FLOPS)
            )
            (93): Qwen3MoeMLP(
              4.72 M = 0.02% Params, 2.42 GMACs = 0.15% MACs, 324.73 us = 0.01% latency, 14.88 TFLOPS
              (gate_proj): Linear(1.57 M = 0.01% Params, 805.31 MMACs = 0.05% MACs, 61.04 us = 0% latency, 26.39 TFLOPS, in_features=2048, out_features=768, bias=False)
              (up_proj): Linear(1.57 M = 0.01% Params, 805.31 MMACs = 0.05% MACs, 57.94 us = 0% latency, 27.8 TFLOPS, in_features=2048, out_features=768, bias=False)
              (down_proj): Linear(1.57 M = 0.01% Params, 805.31 MMACs = 0.05% MACs, 62.94 us = 0% latency, 25.59 TFLOPS, in_features=768, out_features=2048, bias=False)
              (act_fn): SiLUActivation(0 = 0% Params, 0 MACs = 0% MACs, 37.43 us = 0% latency, 21.01 GFLOPS)
            )
            (94-114): 21 x Qwen3MoeMLP(
              4.72 M = 0.02% Params, 0 MACs = 0% MACs, 0 s = 0% latency, 0 FLOPS
              (gate_proj): Linear(1.57 M = 0.01% Params, 0 MACs = 0% MACs, 0 s = 0% latency, 0 FLOPS, in_features=2048, out_features=768, bias=False)
              (up_proj): Linear(1.57 M = 0.01% Params, 0 MACs = 0% MACs, 0 s = 0% latency, 0 FLOPS, in_features=2048, out_features=768, bias=False)
              (down_proj): Linear(1.57 M = 0.01% Params, 0 MACs = 0% MACs, 0 s = 0% latency, 0 FLOPS, in_features=768, out_features=2048, bias=False)
              (act_fn): SiLUActivation(0 = 0% Params, 0 MACs = 0% MACs, 0 s = 0% latency, 0 FLOPS)
            )
            (115): Qwen3MoeMLP(
              4.72 M = 0.02% Params, 2.42 GMACs = 0.15% MACs, 300.65 us = 0.01% latency, 16.08 TFLOPS
              (gate_proj): Linear(1.57 M = 0.01% Params, 805.31 MMACs = 0.05% MACs, 58.89 us = 0% latency, 27.35 TFLOPS, in_features=2048, out_features=768, bias=False)
              (up_proj): Linear(1.57 M = 0.01% Params, 805.31 MMACs = 0.05% MACs, 52.93 us = 0% latency, 30.43 TFLOPS, in_features=2048, out_features=768, bias=False)
              (down_proj): Linear(1.57 M = 0.01% Params, 805.31 MMACs = 0.05% MACs, 51.5 us = 0% latency, 31.27 TFLOPS, in_features=768, out_features=2048, bias=False)
              (act_fn): SiLUActivation(0 = 0% Params, 0 MACs = 0% MACs, 35.52 us = 0% latency, 22.14 GFLOPS)
            )
            (116-117): 2 x Qwen3MoeMLP(
              4.72 M = 0.02% Params, 0 MACs = 0% MACs, 0 s = 0% latency, 0 FLOPS
              (gate_proj): Linear(1.57 M = 0.01% Params, 0 MACs = 0% MACs, 0 s = 0% latency, 0 FLOPS, in_features=2048, out_features=768, bias=False)
              (up_proj): Linear(1.57 M = 0.01% Params, 0 MACs = 0% MACs, 0 s = 0% latency, 0 FLOPS, in_features=2048, out_features=768, bias=False)
              (down_proj): Linear(1.57 M = 0.01% Params, 0 MACs = 0% MACs, 0 s = 0% latency, 0 FLOPS, in_features=768, out_features=2048, bias=False)
              (act_fn): SiLUActivation(0 = 0% Params, 0 MACs = 0% MACs, 0 s = 0% latency, 0 FLOPS)
            )
            (118): Qwen3MoeMLP(
              4.72 M = 0.02% Params, 2.42 GMACs = 0.15% MACs, 298.74 us = 0.01% latency, 16.18 TFLOPS
              (gate_proj): Linear(1.57 M = 0.01% Params, 805.31 MMACs = 0.05% MACs, 59.13 us = 0% latency, 27.24 TFLOPS, in_features=2048, out_features=768, bias=False)
              (up_proj): Linear(1.57 M = 0.01% Params, 805.31 MMACs = 0.05% MACs, 52.21 us = 0% latency, 30.85 TFLOPS, in_features=2048, out_features=768, bias=False)
              (down_proj): Linear(1.57 M = 0.01% Params, 805.31 MMACs = 0.05% MACs, 51.02 us = 0% latency, 31.57 TFLOPS, in_features=768, out_features=2048, bias=False)
              (act_fn): SiLUActivation(0 = 0% Params, 0 MACs = 0% MACs, 35.76 us = 0% latency, 21.99 GFLOPS)
            )
            (119-127): 9 x Qwen3MoeMLP(
              4.72 M = 0.02% Params, 0 MACs = 0% MACs, 0 s = 0% latency, 0 FLOPS
              (gate_proj): Linear(1.57 M = 0.01% Params, 0 MACs = 0% MACs, 0 s = 0% latency, 0 FLOPS, in_features=2048, out_features=768, bias=False)
              (up_proj): Linear(1.57 M = 0.01% Params, 0 MACs = 0% MACs, 0 s = 0% latency, 0 FLOPS, in_features=2048, out_features=768, bias=False)
              (down_proj): Linear(1.57 M = 0.01% Params, 0 MACs = 0% MACs, 0 s = 0% latency, 0 FLOPS, in_features=768, out_features=2048, bias=False)
              (act_fn): SiLUActivation(0 = 0% Params, 0 MACs = 0% MACs, 0 s = 0% latency, 0 FLOPS)
            )
          )
        )
        (input_layernorm): Qwen3MoeRMSNorm(2.05 K = 0% Params, 0 MACs = 0% MACs, 124.93 us = 0% latency, 4.31 TFLOPS, (2048,), eps=1e-06)
        (post_attention_layernorm): Qwen3MoeRMSNorm(2.05 K = 0% Params, 0 MACs = 0% MACs, 122.07 us = 0% latency, 4.41 TFLOPS, (2048,), eps=1e-06)
      )
      (8): Qwen3MoeDecoderLayer(
        623.12 M = 2.04% Params, 29.66 GMACs = 1.87% MACs, 106.66 ms = 3.19% latency, 567.26 GFLOPS
        (self_attn): Qwen3MoeAttention(
          18.87 M = 0.06% Params, 10.2 GMACs = 0.64% MACs, 1.73 ms = 0.05% latency, 11.87 TFLOPS
          (q_proj): Linear(8.39 M = 0.03% Params, 4.29 GMACs = 0.27% MACs, 71.05 us = 0% latency, 120.9 TFLOPS, in_features=2048, out_features=4096, bias=False)
          (k_proj): Linear(1.05 M = 0% Params, 536.87 MMACs = 0.03% MACs, 65.8 us = 0% latency, 16.32 TFLOPS, in_features=2048, out_features=512, bias=False)
          (v_proj): Linear(1.05 M = 0% Params, 536.87 MMACs = 0.03% MACs, 286.82 us = 0.01% latency, 3.74 TFLOPS, in_features=2048, out_features=512, bias=False)
          (o_proj): Linear(8.39 M = 0.03% Params, 4.29 GMACs = 0.27% MACs, 323.3 us = 0.01% latency, 26.57 TFLOPS, in_features=4096, out_features=2048, bias=False)
          (q_norm): Qwen3MoeRMSNorm(128 = 0% Params, 0 MACs = 0% MACs, 127.32 us = 0% latency, 543.71 GFLOPS, (128,), eps=1e-06)
          (k_norm): Qwen3MoeRMSNorm(128 = 0% Params, 0 MACs = 0% MACs, 308.75 us = 0.01% latency, 28.03 GFLOPS, (128,), eps=1e-06)
        )
        (mlp): Qwen3MoeSparseMoeBlock(
          604.24 M = 1.98% Params, 19.46 GMACs = 1.23% MACs, 101.6 ms = 3.04% latency, 383.27 GFLOPS
          (gate): Linear(262.14 K = 0% Params, 134.22 MMACs = 0.01% MACs, 62.23 us = 0% latency, 4.31 TFLOPS, in_features=2048, out_features=128, bias=False)
          (experts): ModuleList(
            (0-2): 3 x Qwen3MoeMLP(
              4.72 M = 0.02% Params, 0 MACs = 0% MACs, 0 s = 0% latency, 0 FLOPS
              (gate_proj): Linear(1.57 M = 0.01% Params, 0 MACs = 0% MACs, 0 s = 0% latency, 0 FLOPS, in_features=2048, out_features=768, bias=False)
              (up_proj): Linear(1.57 M = 0.01% Params, 0 MACs = 0% MACs, 0 s = 0% latency, 0 FLOPS, in_features=2048, out_features=768, bias=False)
              (down_proj): Linear(1.57 M = 0.01% Params, 0 MACs = 0% MACs, 0 s = 0% latency, 0 FLOPS, in_features=768, out_features=2048, bias=False)
              (act_fn): SiLUActivation(0 = 0% Params, 0 MACs = 0% MACs, 0 s = 0% latency, 0 FLOPS)
            )
            (3): Qwen3MoeMLP(
              4.72 M = 0.02% Params, 2.42 GMACs = 0.15% MACs, 334.02 us = 0.01% latency, 14.47 TFLOPS
              (gate_proj): Linear(1.57 M = 0.01% Params, 805.31 MMACs = 0.05% MACs, 67.71 us = 0% latency, 23.79 TFLOPS, in_features=2048, out_features=768, bias=False)
              (up_proj): Linear(1.57 M = 0.01% Params, 805.31 MMACs = 0.05% MACs, 57.7 us = 0% latency, 27.91 TFLOPS, in_features=2048, out_features=768, bias=False)
              (down_proj): Linear(1.57 M = 0.01% Params, 805.31 MMACs = 0.05% MACs, 54.6 us = 0% latency, 29.5 TFLOPS, in_features=768, out_features=2048, bias=False)
              (act_fn): SiLUActivation(0 = 0% Params, 0 MACs = 0% MACs, 42.44 us = 0% latency, 18.53 GFLOPS)
            )
            (4-37): 34 x Qwen3MoeMLP(
              4.72 M = 0.02% Params, 0 MACs = 0% MACs, 0 s = 0% latency, 0 FLOPS
              (gate_proj): Linear(1.57 M = 0.01% Params, 0 MACs = 0% MACs, 0 s = 0% latency, 0 FLOPS, in_features=2048, out_features=768, bias=False)
              (up_proj): Linear(1.57 M = 0.01% Params, 0 MACs = 0% MACs, 0 s = 0% latency, 0 FLOPS, in_features=2048, out_features=768, bias=False)
              (down_proj): Linear(1.57 M = 0.01% Params, 0 MACs = 0% MACs, 0 s = 0% latency, 0 FLOPS, in_features=768, out_features=2048, bias=False)
              (act_fn): SiLUActivation(0 = 0% Params, 0 MACs = 0% MACs, 0 s = 0% latency, 0 FLOPS)
            )
            (38): Qwen3MoeMLP(
              4.72 M = 0.02% Params, 2.42 GMACs = 0.15% MACs, 314.95 us = 0.01% latency, 15.35 TFLOPS
              (gate_proj): Linear(1.57 M = 0.01% Params, 805.31 MMACs = 0.05% MACs, 65.09 us = 0% latency, 24.75 TFLOPS, in_features=2048, out_features=768, bias=False)
              (up_proj): Linear(1.57 M = 0.01% Params, 805.31 MMACs = 0.05% MACs, 53.64 us = 0% latency, 30.02 TFLOPS, in_features=2048, out_features=768, bias=False)
              (down_proj): Linear(1.57 M = 0.01% Params, 805.31 MMACs = 0.05% MACs, 52.69 us = 0% latency, 30.57 TFLOPS, in_features=768, out_features=2048, bias=False)
              (act_fn): SiLUActivation(0 = 0% Params, 0 MACs = 0% MACs, 38.15 us = 0% latency, 20.62 GFLOPS)
            )
            (39-49): 11 x Qwen3MoeMLP(
              4.72 M = 0.02% Params, 0 MACs = 0% MACs, 0 s = 0% latency, 0 FLOPS
              (gate_proj): Linear(1.57 M = 0.01% Params, 0 MACs = 0% MACs, 0 s = 0% latency, 0 FLOPS, in_features=2048, out_features=768, bias=False)
              (up_proj): Linear(1.57 M = 0.01% Params, 0 MACs = 0% MACs, 0 s = 0% latency, 0 FLOPS, in_features=2048, out_features=768, bias=False)
              (down_proj): Linear(1.57 M = 0.01% Params, 0 MACs = 0% MACs, 0 s = 0% latency, 0 FLOPS, in_features=768, out_features=2048, bias=False)
              (act_fn): SiLUActivation(0 = 0% Params, 0 MACs = 0% MACs, 0 s = 0% latency, 0 FLOPS)
            )
            (50): Qwen3MoeMLP(
              4.72 M = 0.02% Params, 2.42 GMACs = 0.15% MACs, 4.66 ms = 0.14% latency, 1.04 TFLOPS
              (gate_proj): Linear(1.57 M = 0.01% Params, 805.31 MMACs = 0.05% MACs, 337.84 us = 0.01% latency, 4.77 TFLOPS, in_features=2048, out_features=768, bias=False)
              (up_proj): Linear(1.57 M = 0.01% Params, 805.31 MMACs = 0.05% MACs, 295.16 us = 0.01% latency, 5.46 TFLOPS, in_features=2048, out_features=768, bias=False)
              (down_proj): Linear(1.57 M = 0.01% Params, 805.31 MMACs = 0.05% MACs, 2.51 ms = 0.08% latency, 640.99 GFLOPS, in_features=768, out_features=2048, bias=False)
              (act_fn): SiLUActivation(0 = 0% Params, 0 MACs = 0% MACs, 1.09 ms = 0.03% latency, 720.52 MFLOPS)
            )
            (51-59): 9 x Qwen3MoeMLP(
              4.72 M = 0.02% Params, 0 MACs = 0% MACs, 0 s = 0% latency, 0 FLOPS
              (gate_proj): Linear(1.57 M = 0.01% Params, 0 MACs = 0% MACs, 0 s = 0% latency, 0 FLOPS, in_features=2048, out_features=768, bias=False)
              (up_proj): Linear(1.57 M = 0.01% Params, 0 MACs = 0% MACs, 0 s = 0% latency, 0 FLOPS, in_features=2048, out_features=768, bias=False)
              (down_proj): Linear(1.57 M = 0.01% Params, 0 MACs = 0% MACs, 0 s = 0% latency, 0 FLOPS, in_features=768, out_features=2048, bias=False)
              (act_fn): SiLUActivation(0 = 0% Params, 0 MACs = 0% MACs, 0 s = 0% latency, 0 FLOPS)
            )
            (60): Qwen3MoeMLP(
              4.72 M = 0.02% Params, 2.42 GMACs = 0.15% MACs, 12.19 ms = 0.36% latency, 396.52 GFLOPS
              (gate_proj): Linear(1.57 M = 0.01% Params, 805.31 MMACs = 0.05% MACs, 2.41 ms = 0.07% latency, 667.46 GFLOPS, in_features=2048, out_features=768, bias=False)
              (up_proj): Linear(1.57 M = 0.01% Params, 805.31 MMACs = 0.05% MACs, 2.43 ms = 0.07% latency, 663.53 GFLOPS, in_features=2048, out_features=768, bias=False)
              (down_proj): Linear(1.57 M = 0.01% Params, 805.31 MMACs = 0.05% MACs, 2.41 ms = 0.07% latency, 667.4 GFLOPS, in_features=768, out_features=2048, bias=False)
              (act_fn): SiLUActivation(0 = 0% Params, 0 MACs = 0% MACs, 2.39 ms = 0.07% latency, 329.2 MFLOPS)
            )
            (61-75): 15 x Qwen3MoeMLP(
              4.72 M = 0.02% Params, 0 MACs = 0% MACs, 0 s = 0% latency, 0 FLOPS
              (gate_proj): Linear(1.57 M = 0.01% Params, 0 MACs = 0% MACs, 0 s = 0% latency, 0 FLOPS, in_features=2048, out_features=768, bias=False)
              (up_proj): Linear(1.57 M = 0.01% Params, 0 MACs = 0% MACs, 0 s = 0% latency, 0 FLOPS, in_features=2048, out_features=768, bias=False)
              (down_proj): Linear(1.57 M = 0.01% Params, 0 MACs = 0% MACs, 0 s = 0% latency, 0 FLOPS, in_features=768, out_features=2048, bias=False)
              (act_fn): SiLUActivation(0 = 0% Params, 0 MACs = 0% MACs, 0 s = 0% latency, 0 FLOPS)
            )
            (76): Qwen3MoeMLP(
              4.72 M = 0.02% Params, 2.42 GMACs = 0.15% MACs, 12.28 ms = 0.37% latency, 393.71 GFLOPS
              (gate_proj): Linear(1.57 M = 0.01% Params, 805.31 MMACs = 0.05% MACs, 2.41 ms = 0.07% latency, 667.86 GFLOPS, in_features=2048, out_features=768, bias=False)
              (up_proj): Linear(1.57 M = 0.01% Params, 805.31 MMACs = 0.05% MACs, 2.44 ms = 0.07% latency, 660.61 GFLOPS, in_features=2048, out_features=768, bias=False)
              (down_proj): Linear(1.57 M = 0.01% Params, 805.31 MMACs = 0.05% MACs, 2.45 ms = 0.07% latency, 657.2 GFLOPS, in_features=768, out_features=2048, bias=False)
              (act_fn): SiLUActivation(0 = 0% Params, 0 MACs = 0% MACs, 2.44 ms = 0.07% latency, 322.94 MFLOPS)
            )
            (77-82): 6 x Qwen3MoeMLP(
              4.72 M = 0.02% Params, 0 MACs = 0% MACs, 0 s = 0% latency, 0 FLOPS
              (gate_proj): Linear(1.57 M = 0.01% Params, 0 MACs = 0% MACs, 0 s = 0% latency, 0 FLOPS, in_features=2048, out_features=768, bias=False)
              (up_proj): Linear(1.57 M = 0.01% Params, 0 MACs = 0% MACs, 0 s = 0% latency, 0 FLOPS, in_features=2048, out_features=768, bias=False)
              (down_proj): Linear(1.57 M = 0.01% Params, 0 MACs = 0% MACs, 0 s = 0% latency, 0 FLOPS, in_features=768, out_features=2048, bias=False)
              (act_fn): SiLUActivation(0 = 0% Params, 0 MACs = 0% MACs, 0 s = 0% latency, 0 FLOPS)
            )
            (83): Qwen3MoeMLP(
              4.72 M = 0.02% Params, 2.42 GMACs = 0.15% MACs, 12.31 ms = 0.37% latency, 392.59 GFLOPS
              (gate_proj): Linear(1.57 M = 0.01% Params, 805.31 MMACs = 0.05% MACs, 2.43 ms = 0.07% latency, 662.75 GFLOPS, in_features=2048, out_features=768, bias=False)
              (up_proj): Linear(1.57 M = 0.01% Params, 805.31 MMACs = 0.05% MACs, 2.44 ms = 0.07% latency, 659.45 GFLOPS, in_features=2048, out_features=768, bias=False)
              (down_proj): Linear(1.57 M = 0.01% Params, 805.31 MMACs = 0.05% MACs, 2.46 ms = 0.07% latency, 653.45 GFLOPS, in_features=768, out_features=2048, bias=False)
              (act_fn): SiLUActivation(0 = 0% Params, 0 MACs = 0% MACs, 2.42 ms = 0.07% latency, 324.75 MFLOPS)
            )
            (84-87): 4 x Qwen3MoeMLP(
              4.72 M = 0.02% Params, 0 MACs = 0% MACs, 0 s = 0% latency, 0 FLOPS
              (gate_proj): Linear(1.57 M = 0.01% Params, 0 MACs = 0% MACs, 0 s = 0% latency, 0 FLOPS, in_features=2048, out_features=768, bias=False)
              (up_proj): Linear(1.57 M = 0.01% Params, 0 MACs = 0% MACs, 0 s = 0% latency, 0 FLOPS, in_features=2048, out_features=768, bias=False)
              (down_proj): Linear(1.57 M = 0.01% Params, 0 MACs = 0% MACs, 0 s = 0% latency, 0 FLOPS, in_features=768, out_features=2048, bias=False)
              (act_fn): SiLUActivation(0 = 0% Params, 0 MACs = 0% MACs, 0 s = 0% latency, 0 FLOPS)
            )
            (88): Qwen3MoeMLP(
              4.72 M = 0.02% Params, 2.42 GMACs = 0.15% MACs, 12.45 ms = 0.37% latency, 388.26 GFLOPS
              (gate_proj): Linear(1.57 M = 0.01% Params, 805.31 MMACs = 0.05% MACs, 2.45 ms = 0.07% latency, 656.44 GFLOPS, in_features=2048, out_features=768, bias=False)
              (up_proj): Linear(1.57 M = 0.01% Params, 805.31 MMACs = 0.05% MACs, 2.44 ms = 0.07% latency, 659.71 GFLOPS, in_features=2048, out_features=768, bias=False)
              (down_proj): Linear(1.57 M = 0.01% Params, 805.31 MMACs = 0.05% MACs, 2.49 ms = 0.07% latency, 646.51 GFLOPS, in_features=768, out_features=2048, bias=False)
              (act_fn): SiLUActivation(0 = 0% Params, 0 MACs = 0% MACs, 2.47 ms = 0.07% latency, 318.08 MFLOPS)
            )
            (89-95): 7 x Qwen3MoeMLP(
              4.72 M = 0.02% Params, 0 MACs = 0% MACs, 0 s = 0% latency, 0 FLOPS
              (gate_proj): Linear(1.57 M = 0.01% Params, 0 MACs = 0% MACs, 0 s = 0% latency, 0 FLOPS, in_features=2048, out_features=768, bias=False)
              (up_proj): Linear(1.57 M = 0.01% Params, 0 MACs = 0% MACs, 0 s = 0% latency, 0 FLOPS, in_features=2048, out_features=768, bias=False)
              (down_proj): Linear(1.57 M = 0.01% Params, 0 MACs = 0% MACs, 0 s = 0% latency, 0 FLOPS, in_features=768, out_features=2048, bias=False)
              (act_fn): SiLUActivation(0 = 0% Params, 0 MACs = 0% MACs, 0 s = 0% latency, 0 FLOPS)
            )
            (96): Qwen3MoeMLP(
              4.72 M = 0.02% Params, 2.42 GMACs = 0.15% MACs, 5.69 ms = 0.17% latency, 849.62 GFLOPS
              (gate_proj): Linear(1.57 M = 0.01% Params, 805.31 MMACs = 0.05% MACs, 2.45 ms = 0.07% latency, 656.12 GFLOPS, in_features=2048, out_features=768, bias=False)
              (up_proj): Linear(1.57 M = 0.01% Params, 805.31 MMACs = 0.05% MACs, 409.6 us = 0.01% latency, 3.93 TFLOPS, in_features=2048, out_features=768, bias=False)
              (down_proj): Linear(1.57 M = 0.01% Params, 805.31 MMACs = 0.05% MACs, 422.95 us = 0.01% latency, 3.81 TFLOPS, in_features=768, out_features=2048, bias=False)
              (act_fn): SiLUActivation(0 = 0% Params, 0 MACs = 0% MACs, 1.94 ms = 0.06% latency, 405.87 MFLOPS)
            )
            (97-127): 31 x Qwen3MoeMLP(
              4.72 M = 0.02% Params, 0 MACs = 0% MACs, 0 s = 0% latency, 0 FLOPS
              (gate_proj): Linear(1.57 M = 0.01% Params, 0 MACs = 0% MACs, 0 s = 0% latency, 0 FLOPS, in_features=2048, out_features=768, bias=False)
              (up_proj): Linear(1.57 M = 0.01% Params, 0 MACs = 0% MACs, 0 s = 0% latency, 0 FLOPS, in_features=2048, out_features=768, bias=False)
              (down_proj): Linear(1.57 M = 0.01% Params, 0 MACs = 0% MACs, 0 s = 0% latency, 0 FLOPS, in_features=768, out_features=2048, bias=False)
              (act_fn): SiLUActivation(0 = 0% Params, 0 MACs = 0% MACs, 0 s = 0% latency, 0 FLOPS)
            )
          )
        )
        (input_layernorm): Qwen3MoeRMSNorm(2.05 K = 0% Params, 0 MACs = 0% MACs, 124.22 us = 0% latency, 4.33 TFLOPS, (2048,), eps=1e-06)
        (post_attention_layernorm): Qwen3MoeRMSNorm(2.05 K = 0% Params, 0 MACs = 0% MACs, 339.98 us = 0.01% latency, 1.58 TFLOPS, (2048,), eps=1e-06)
      )
      (9): Qwen3MoeDecoderLayer(
        623.12 M = 2.04% Params, 29.66 GMACs = 1.87% MACs, 200.9 ms = 6.02% latency, 301.17 GFLOPS
        (self_attn): Qwen3MoeAttention(
          18.87 M = 0.06% Params, 10.2 GMACs = 0.64% MACs, 17.62 ms = 0.53% latency, 1.16 TFLOPS
          (q_proj): Linear(8.39 M = 0.03% Params, 4.29 GMACs = 0.27% MACs, 2.43 ms = 0.07% latency, 3.54 TFLOPS, in_features=2048, out_features=4096, bias=False)
          (k_proj): Linear(1.05 M = 0% Params, 536.87 MMACs = 0.03% MACs, 2.45 ms = 0.07% latency, 438.65 GFLOPS, in_features=2048, out_features=512, bias=False)
          (v_proj): Linear(1.05 M = 0% Params, 536.87 MMACs = 0.03% MACs, 2.47 ms = 0.07% latency, 434.54 GFLOPS, in_features=2048, out_features=512, bias=False)
          (o_proj): Linear(8.39 M = 0.03% Params, 4.29 GMACs = 0.27% MACs, 2.51 ms = 0.08% latency, 3.42 TFLOPS, in_features=4096, out_features=2048, bias=False)
          (q_norm): Qwen3MoeRMSNorm(128 = 0% Params, 0 MACs = 0% MACs, 2.51 ms = 0.08% latency, 27.59 GFLOPS, (128,), eps=1e-06)
          (k_norm): Qwen3MoeRMSNorm(128 = 0% Params, 0 MACs = 0% MACs, 2.48 ms = 0.07% latency, 3.49 GFLOPS, (128,), eps=1e-06)
        )
        (mlp): Qwen3MoeSparseMoeBlock(
          604.24 M = 1.98% Params, 19.46 GMACs = 1.23% MACs, 168.21 ms = 5.04% latency, 231.5 GFLOPS
          (gate): Linear(262.14 K = 0% Params, 134.22 MMACs = 0.01% MACs, 2.45 ms = 0.07% latency, 109.54 GFLOPS, in_features=2048, out_features=128, bias=False)
          (experts): ModuleList(
            (0-9): 10 x Qwen3MoeMLP(
              4.72 M = 0.02% Params, 0 MACs = 0% MACs, 0 s = 0% latency, 0 FLOPS
              (gate_proj): Linear(1.57 M = 0.01% Params, 0 MACs = 0% MACs, 0 s = 0% latency, 0 FLOPS, in_features=2048, out_features=768, bias=False)
              (up_proj): Linear(1.57 M = 0.01% Params, 0 MACs = 0% MACs, 0 s = 0% latency, 0 FLOPS, in_features=2048, out_features=768, bias=False)
              (down_proj): Linear(1.57 M = 0.01% Params, 0 MACs = 0% MACs, 0 s = 0% latency, 0 FLOPS, in_features=768, out_features=2048, bias=False)
              (act_fn): SiLUActivation(0 = 0% Params, 0 MACs = 0% MACs, 0 s = 0% latency, 0 FLOPS)
            )
            (10): Qwen3MoeMLP(
              4.72 M = 0.02% Params, 2.42 GMACs = 0.15% MACs, 12.46 ms = 0.37% latency, 387.86 GFLOPS
              (gate_proj): Linear(1.57 M = 0.01% Params, 805.31 MMACs = 0.05% MACs, 2.45 ms = 0.07% latency, 656.5 GFLOPS, in_features=2048, out_features=768, bias=False)
              (up_proj): Linear(1.57 M = 0.01% Params, 805.31 MMACs = 0.05% MACs, 2.48 ms = 0.07% latency, 650.62 GFLOPS, in_features=2048, out_features=768, bias=False)
              (down_proj): Linear(1.57 M = 0.01% Params, 805.31 MMACs = 0.05% MACs, 2.48 ms = 0.07% latency, 649 GFLOPS, in_features=768, out_features=2048, bias=False)
              (act_fn): SiLUActivation(0 = 0% Params, 0 MACs = 0% MACs, 2.46 ms = 0.07% latency, 319.59 MFLOPS)
            )
            (11-38): 28 x Qwen3MoeMLP(
              4.72 M = 0.02% Params, 0 MACs = 0% MACs, 0 s = 0% latency, 0 FLOPS
              (gate_proj): Linear(1.57 M = 0.01% Params, 0 MACs = 0% MACs, 0 s = 0% latency, 0 FLOPS, in_features=2048, out_features=768, bias=False)
              (up_proj): Linear(1.57 M = 0.01% Params, 0 MACs = 0% MACs, 0 s = 0% latency, 0 FLOPS, in_features=2048, out_features=768, bias=False)
              (down_proj): Linear(1.57 M = 0.01% Params, 0 MACs = 0% MACs, 0 s = 0% latency, 0 FLOPS, in_features=768, out_features=2048, bias=False)
              (act_fn): SiLUActivation(0 = 0% Params, 0 MACs = 0% MACs, 0 s = 0% latency, 0 FLOPS)
            )
            (39): Qwen3MoeMLP(
              4.72 M = 0.02% Params, 2.42 GMACs = 0.15% MACs, 12.58 ms = 0.38% latency, 384.16 GFLOPS
              (gate_proj): Linear(1.57 M = 0.01% Params, 805.31 MMACs = 0.05% MACs, 2.47 ms = 0.07% latency, 652.44 GFLOPS, in_features=2048, out_features=768, bias=False)
              (up_proj): Linear(1.57 M = 0.01% Params, 805.31 MMACs = 0.05% MACs, 2.49 ms = 0.07% latency, 647.69 GFLOPS, in_features=2048, out_features=768, bias=False)
              (down_proj): Linear(1.57 M = 0.01% Params, 805.31 MMACs = 0.05% MACs, 2.52 ms = 0.08% latency, 638.75 GFLOPS, in_features=768, out_features=2048, bias=False)
              (act_fn): SiLUActivation(0 = 0% Params, 0 MACs = 0% MACs, 2.5 ms = 0.07% latency, 314.96 MFLOPS)
            )
            (40-63): 24 x Qwen3MoeMLP(
              4.72 M = 0.02% Params, 0 MACs = 0% MACs, 0 s = 0% latency, 0 FLOPS
              (gate_proj): Linear(1.57 M = 0.01% Params, 0 MACs = 0% MACs, 0 s = 0% latency, 0 FLOPS, in_features=2048, out_features=768, bias=False)
              (up_proj): Linear(1.57 M = 0.01% Params, 0 MACs = 0% MACs, 0 s = 0% latency, 0 FLOPS, in_features=2048, out_features=768, bias=False)
              (down_proj): Linear(1.57 M = 0.01% Params, 0 MACs = 0% MACs, 0 s = 0% latency, 0 FLOPS, in_features=768, out_features=2048, bias=False)
              (act_fn): SiLUActivation(0 = 0% Params, 0 MACs = 0% MACs, 0 s = 0% latency, 0 FLOPS)
            )
            (64): Qwen3MoeMLP(
              4.72 M = 0.02% Params, 2.42 GMACs = 0.15% MACs, 12.57 ms = 0.38% latency, 384.4 GFLOPS
              (gate_proj): Linear(1.57 M = 0.01% Params, 805.31 MMACs = 0.05% MACs, 2.47 ms = 0.07% latency, 653.14 GFLOPS, in_features=2048, out_features=768, bias=False)
              (up_proj): Linear(1.57 M = 0.01% Params, 805.31 MMACs = 0.05% MACs, 2.49 ms = 0.07% latency, 645.96 GFLOPS, in_features=2048, out_features=768, bias=False)
              (down_proj): Linear(1.57 M = 0.01% Params, 805.31 MMACs = 0.05% MACs, 2.52 ms = 0.08% latency, 638.87 GFLOPS, in_features=768, out_features=2048, bias=False)
              (act_fn): SiLUActivation(0 = 0% Params, 0 MACs = 0% MACs, 2.49 ms = 0.07% latency, 316.07 MFLOPS)
            )
            (65-68): 4 x Qwen3MoeMLP(
              4.72 M = 0.02% Params, 0 MACs = 0% MACs, 0 s = 0% latency, 0 FLOPS
              (gate_proj): Linear(1.57 M = 0.01% Params, 0 MACs = 0% MACs, 0 s = 0% latency, 0 FLOPS, in_features=2048, out_features=768, bias=False)
              (up_proj): Linear(1.57 M = 0.01% Params, 0 MACs = 0% MACs, 0 s = 0% latency, 0 FLOPS, in_features=2048, out_features=768, bias=False)
              (down_proj): Linear(1.57 M = 0.01% Params, 0 MACs = 0% MACs, 0 s = 0% latency, 0 FLOPS, in_features=768, out_features=2048, bias=False)
              (act_fn): SiLUActivation(0 = 0% Params, 0 MACs = 0% MACs, 0 s = 0% latency, 0 FLOPS)
            )
            (69): Qwen3MoeMLP(
              4.72 M = 0.02% Params, 2.42 GMACs = 0.15% MACs, 12.53 ms = 0.38% latency, 385.66 GFLOPS
              (gate_proj): Linear(1.57 M = 0.01% Params, 805.31 MMACs = 0.05% MACs, 2.47 ms = 0.07% latency, 652.82 GFLOPS, in_features=2048, out_features=768, bias=False)
              (up_proj): Linear(1.57 M = 0.01% Params, 805.31 MMACs = 0.05% MACs, 2.48 ms = 0.07% latency, 648.19 GFLOPS, in_features=2048, out_features=768, bias=False)
              (down_proj): Linear(1.57 M = 0.01% Params, 805.31 MMACs = 0.05% MACs, 2.5 ms = 0.07% latency, 645.21 GFLOPS, in_features=768, out_features=2048, bias=False)
              (act_fn): SiLUActivation(0 = 0% Params, 0 MACs = 0% MACs, 2.48 ms = 0.07% latency, 316.92 MFLOPS)
            )
            (70-74): 5 x Qwen3MoeMLP(
              4.72 M = 0.02% Params, 0 MACs = 0% MACs, 0 s = 0% latency, 0 FLOPS
              (gate_proj): Linear(1.57 M = 0.01% Params, 0 MACs = 0% MACs, 0 s = 0% latency, 0 FLOPS, in_features=2048, out_features=768, bias=False)
              (up_proj): Linear(1.57 M = 0.01% Params, 0 MACs = 0% MACs, 0 s = 0% latency, 0 FLOPS, in_features=2048, out_features=768, bias=False)
              (down_proj): Linear(1.57 M = 0.01% Params, 0 MACs = 0% MACs, 0 s = 0% latency, 0 FLOPS, in_features=768, out_features=2048, bias=False)
              (act_fn): SiLUActivation(0 = 0% Params, 0 MACs = 0% MACs, 0 s = 0% latency, 0 FLOPS)
            )
            (75): Qwen3MoeMLP(
              4.72 M = 0.02% Params, 2.42 GMACs = 0.15% MACs, 12.62 ms = 0.38% latency, 382.94 GFLOPS
              (gate_proj): Linear(1.57 M = 0.01% Params, 805.31 MMACs = 0.05% MACs, 2.48 ms = 0.07% latency, 648.31 GFLOPS, in_features=2048, out_features=768, bias=False)
              (up_proj): Linear(1.57 M = 0.01% Params, 805.31 MMACs = 0.05% MACs, 2.51 ms = 0.08% latency, 641.66 GFLOPS, in_features=2048, out_features=768, bias=False)
              (down_proj): Linear(1.57 M = 0.01% Params, 805.31 MMACs = 0.05% MACs, 2.52 ms = 0.08% latency, 639.23 GFLOPS, in_features=768, out_features=2048, bias=False)
              (act_fn): SiLUActivation(0 = 0% Params, 0 MACs = 0% MACs, 2.49 ms = 0.07% latency, 315.89 MFLOPS)
            )
            (76): Qwen3MoeMLP(
              4.72 M = 0.02% Params, 0 MACs = 0% MACs, 0 s = 0% latency, 0 FLOPS
              (gate_proj): Linear(1.57 M = 0.01% Params, 0 MACs = 0% MACs, 0 s = 0% latency, 0 FLOPS, in_features=2048, out_features=768, bias=False)
              (up_proj): Linear(1.57 M = 0.01% Params, 0 MACs = 0% MACs, 0 s = 0% latency, 0 FLOPS, in_features=2048, out_features=768, bias=False)
              (down_proj): Linear(1.57 M = 0.01% Params, 0 MACs = 0% MACs, 0 s = 0% latency, 0 FLOPS, in_features=768, out_features=2048, bias=False)
              (act_fn): SiLUActivation(0 = 0% Params, 0 MACs = 0% MACs, 0 s = 0% latency, 0 FLOPS)
            )
            (77): Qwen3MoeMLP(
              4.72 M = 0.02% Params, 2.42 GMACs = 0.15% MACs, 12.6 ms = 0.38% latency, 383.49 GFLOPS
              (gate_proj): Linear(1.57 M = 0.01% Params, 805.31 MMACs = 0.05% MACs, 2.47 ms = 0.07% latency, 651.81 GFLOPS, in_features=2048, out_features=768, bias=False)
              (up_proj): Linear(1.57 M = 0.01% Params, 805.31 MMACs = 0.05% MACs, 2.48 ms = 0.07% latency, 648.25 GFLOPS, in_features=2048, out_features=768, bias=False)
              (down_proj): Linear(1.57 M = 0.01% Params, 805.31 MMACs = 0.05% MACs, 2.52 ms = 0.08% latency, 637.9 GFLOPS, in_features=768, out_features=2048, bias=False)
              (act_fn): SiLUActivation(0 = 0% Params, 0 MACs = 0% MACs, 2.5 ms = 0.07% latency, 314.33 MFLOPS)
            )
            (78-84): 7 x Qwen3MoeMLP(
              4.72 M = 0.02% Params, 0 MACs = 0% MACs, 0 s = 0% latency, 0 FLOPS
              (gate_proj): Linear(1.57 M = 0.01% Params, 0 MACs = 0% MACs, 0 s = 0% latency, 0 FLOPS, in_features=2048, out_features=768, bias=False)
              (up_proj): Linear(1.57 M = 0.01% Params, 0 MACs = 0% MACs, 0 s = 0% latency, 0 FLOPS, in_features=2048, out_features=768, bias=False)
              (down_proj): Linear(1.57 M = 0.01% Params, 0 MACs = 0% MACs, 0 s = 0% latency, 0 FLOPS, in_features=768, out_features=2048, bias=False)
              (act_fn): SiLUActivation(0 = 0% Params, 0 MACs = 0% MACs, 0 s = 0% latency, 0 FLOPS)
            )
            (85): Qwen3MoeMLP(
              4.72 M = 0.02% Params, 2.42 GMACs = 0.15% MACs, 12.49 ms = 0.37% latency, 386.86 GFLOPS
              (gate_proj): Linear(1.57 M = 0.01% Params, 805.31 MMACs = 0.05% MACs, 2.46 ms = 0.07% latency, 654.21 GFLOPS, in_features=2048, out_features=768, bias=False)
              (up_proj): Linear(1.57 M = 0.01% Params, 805.31 MMACs = 0.05% MACs, 2.47 ms = 0.07% latency, 651.5 GFLOPS, in_features=2048, out_features=768, bias=False)
              (down_proj): Linear(1.57 M = 0.01% Params, 805.31 MMACs = 0.05% MACs, 2.49 ms = 0.07% latency, 646.51 GFLOPS, in_features=768, out_features=2048, bias=False)
              (act_fn): SiLUActivation(0 = 0% Params, 0 MACs = 0% MACs, 2.47 ms = 0.07% latency, 318.85 MFLOPS)
            )
            (86-122): 37 x Qwen3MoeMLP(
              4.72 M = 0.02% Params, 0 MACs = 0% MACs, 0 s = 0% latency, 0 FLOPS
              (gate_proj): Linear(1.57 M = 0.01% Params, 0 MACs = 0% MACs, 0 s = 0% latency, 0 FLOPS, in_features=2048, out_features=768, bias=False)
              (up_proj): Linear(1.57 M = 0.01% Params, 0 MACs = 0% MACs, 0 s = 0% latency, 0 FLOPS, in_features=2048, out_features=768, bias=False)
              (down_proj): Linear(1.57 M = 0.01% Params, 0 MACs = 0% MACs, 0 s = 0% latency, 0 FLOPS, in_features=768, out_features=2048, bias=False)
              (act_fn): SiLUActivation(0 = 0% Params, 0 MACs = 0% MACs, 0 s = 0% latency, 0 FLOPS)
            )
            (123): Qwen3MoeMLP(
              4.72 M = 0.02% Params, 2.42 GMACs = 0.15% MACs, 12.59 ms = 0.38% latency, 383.74 GFLOPS
              (gate_proj): Linear(1.57 M = 0.01% Params, 805.31 MMACs = 0.05% MACs, 2.49 ms = 0.07% latency, 647.07 GFLOPS, in_features=2048, out_features=768, bias=False)
              (up_proj): Linear(1.57 M = 0.01% Params, 805.31 MMACs = 0.05% MACs, 2.5 ms = 0.07% latency, 645.34 GFLOPS, in_features=2048, out_features=768, bias=False)
              (down_proj): Linear(1.57 M = 0.01% Params, 805.31 MMACs = 0.05% MACs, 2.52 ms = 0.08% latency, 639.66 GFLOPS, in_features=768, out_features=2048, bias=False)
              (act_fn): SiLUActivation(0 = 0% Params, 0 MACs = 0% MACs, 2.48 ms = 0.07% latency, 317.01 MFLOPS)
            )
            (124-127): 4 x Qwen3MoeMLP(
              4.72 M = 0.02% Params, 0 MACs = 0% MACs, 0 s = 0% latency, 0 FLOPS
              (gate_proj): Linear(1.57 M = 0.01% Params, 0 MACs = 0% MACs, 0 s = 0% latency, 0 FLOPS, in_features=2048, out_features=768, bias=False)
              (up_proj): Linear(1.57 M = 0.01% Params, 0 MACs = 0% MACs, 0 s = 0% latency, 0 FLOPS, in_features=2048, out_features=768, bias=False)
              (down_proj): Linear(1.57 M = 0.01% Params, 0 MACs = 0% MACs, 0 s = 0% latency, 0 FLOPS, in_features=768, out_features=2048, bias=False)
              (act_fn): SiLUActivation(0 = 0% Params, 0 MACs = 0% MACs, 0 s = 0% latency, 0 FLOPS)
            )
          )
        )
        (input_layernorm): Qwen3MoeRMSNorm(2.05 K = 0% Params, 0 MACs = 0% MACs, 2.52 ms = 0.08% latency, 213.17 GFLOPS, (2048,), eps=1e-06)
        (post_attention_layernorm): Qwen3MoeRMSNorm(2.05 K = 0% Params, 0 MACs = 0% MACs, 2.55 ms = 0.08% latency, 211.1 GFLOPS, (2048,), eps=1e-06)
      )
      (10): Qwen3MoeDecoderLayer(
        623.12 M = 2.04% Params, 29.66 GMACs = 1.87% MACs, 201.41 ms = 6.03% latency, 300.4 GFLOPS
        (self_attn): Qwen3MoeAttention(
          18.87 M = 0.06% Params, 10.2 GMACs = 0.64% MACs, 17.8 ms = 0.53% latency, 1.15 TFLOPS
          (q_proj): Linear(8.39 M = 0.03% Params, 4.29 GMACs = 0.27% MACs, 2.45 ms = 0.07% latency, 3.51 TFLOPS, in_features=2048, out_features=4096, bias=False)
          (k_proj): Linear(1.05 M = 0% Params, 536.87 MMACs = 0.03% MACs, 2.48 ms = 0.07% latency, 432.25 GFLOPS, in_features=2048, out_features=512, bias=False)
          (v_proj): Linear(1.05 M = 0% Params, 536.87 MMACs = 0.03% MACs, 2.5 ms = 0.07% latency, 430.31 GFLOPS, in_features=2048, out_features=512, bias=False)
          (o_proj): Linear(8.39 M = 0.03% Params, 4.29 GMACs = 0.27% MACs, 2.51 ms = 0.08% latency, 3.42 TFLOPS, in_features=4096, out_features=2048, bias=False)
          (q_norm): Qwen3MoeRMSNorm(128 = 0% Params, 0 MACs = 0% MACs, 2.54 ms = 0.08% latency, 27.22 GFLOPS, (128,), eps=1e-06)
          (k_norm): Qwen3MoeRMSNorm(128 = 0% Params, 0 MACs = 0% MACs, 2.51 ms = 0.08% latency, 3.45 GFLOPS, (128,), eps=1e-06)
        )
        (mlp): Qwen3MoeSparseMoeBlock(
          604.24 M = 1.98% Params, 19.46 GMACs = 1.23% MACs, 168.51 ms = 5.05% latency, 231.09 GFLOPS
          (gate): Linear(262.14 K = 0% Params, 134.22 MMACs = 0.01% MACs, 2.42 ms = 0.07% latency, 110.81 GFLOPS, in_features=2048, out_features=128, bias=False)
          (experts): ModuleList(
            (0): Qwen3MoeMLP(
              4.72 M = 0.02% Params, 2.42 GMACs = 0.15% MACs, 12.67 ms = 0.38% latency, 381.49 GFLOPS
              (gate_proj): Linear(1.57 M = 0.01% Params, 805.31 MMACs = 0.05% MACs, 2.46 ms = 0.07% latency, 654.78 GFLOPS, in_features=2048, out_features=768, bias=False)
              (up_proj): Linear(1.57 M = 0.01% Params, 805.31 MMACs = 0.05% MACs, 2.5 ms = 0.07% latency, 643.86 GFLOPS, in_features=2048, out_features=768, bias=False)
              (down_proj): Linear(1.57 M = 0.01% Params, 805.31 MMACs = 0.05% MACs, 2.53 ms = 0.08% latency, 637.18 GFLOPS, in_features=768, out_features=2048, bias=False)
              (act_fn): SiLUActivation(0 = 0% Params, 0 MACs = 0% MACs, 2.53 ms = 0.08% latency, 311.33 MFLOPS)
            )
            (1-37): 37 x Qwen3MoeMLP(
              4.72 M = 0.02% Params, 0 MACs = 0% MACs, 0 s = 0% latency, 0 FLOPS
              (gate_proj): Linear(1.57 M = 0.01% Params, 0 MACs = 0% MACs, 0 s = 0% latency, 0 FLOPS, in_features=2048, out_features=768, bias=False)
              (up_proj): Linear(1.57 M = 0.01% Params, 0 MACs = 0% MACs, 0 s = 0% latency, 0 FLOPS, in_features=2048, out_features=768, bias=False)
              (down_proj): Linear(1.57 M = 0.01% Params, 0 MACs = 0% MACs, 0 s = 0% latency, 0 FLOPS, in_features=768, out_features=2048, bias=False)
              (act_fn): SiLUActivation(0 = 0% Params, 0 MACs = 0% MACs, 0 s = 0% latency, 0 FLOPS)
            )
            (38): Qwen3MoeMLP(
              4.72 M = 0.02% Params, 2.42 GMACs = 0.15% MACs, 12.56 ms = 0.38% latency, 384.86 GFLOPS
              (gate_proj): Linear(1.57 M = 0.01% Params, 805.31 MMACs = 0.05% MACs, 2.46 ms = 0.07% latency, 654.97 GFLOPS, in_features=2048, out_features=768, bias=False)
              (up_proj): Linear(1.57 M = 0.01% Params, 805.31 MMACs = 0.05% MACs, 2.51 ms = 0.08% latency, 642.7 GFLOPS, in_features=2048, out_features=768, bias=False)
              (down_proj): Linear(1.57 M = 0.01% Params, 805.31 MMACs = 0.05% MACs, 2.51 ms = 0.08% latency, 642.39 GFLOPS, in_features=768, out_features=2048, bias=False)
              (act_fn): SiLUActivation(0 = 0% Params, 0 MACs = 0% MACs, 2.49 ms = 0.07% latency, 316.44 MFLOPS)
            )
            (39-50): 12 x Qwen3MoeMLP(
              4.72 M = 0.02% Params, 0 MACs = 0% MACs, 0 s = 0% latency, 0 FLOPS
              (gate_proj): Linear(1.57 M = 0.01% Params, 0 MACs = 0% MACs, 0 s = 0% latency, 0 FLOPS, in_features=2048, out_features=768, bias=False)
              (up_proj): Linear(1.57 M = 0.01% Params, 0 MACs = 0% MACs, 0 s = 0% latency, 0 FLOPS, in_features=2048, out_features=768, bias=False)
              (down_proj): Linear(1.57 M = 0.01% Params, 0 MACs = 0% MACs, 0 s = 0% latency, 0 FLOPS, in_features=768, out_features=2048, bias=False)
              (act_fn): SiLUActivation(0 = 0% Params, 0 MACs = 0% MACs, 0 s = 0% latency, 0 FLOPS)
            )
            (51): Qwen3MoeMLP(
              4.72 M = 0.02% Params, 2.42 GMACs = 0.15% MACs, 12.51 ms = 0.37% latency, 386.21 GFLOPS
              (gate_proj): Linear(1.57 M = 0.01% Params, 805.31 MMACs = 0.05% MACs, 2.46 ms = 0.07% latency, 655.04 GFLOPS, in_features=2048, out_features=768, bias=False)
              (up_proj): Linear(1.57 M = 0.01% Params, 805.31 MMACs = 0.05% MACs, 2.48 ms = 0.07% latency, 649.5 GFLOPS, in_features=2048, out_features=768, bias=False)
              (down_proj): Linear(1.57 M = 0.01% Params, 805.31 MMACs = 0.05% MACs, 2.5 ms = 0.07% latency, 644.91 GFLOPS, in_features=768, out_features=2048, bias=False)
              (act_fn): SiLUActivation(0 = 0% Params, 0 MACs = 0% MACs, 2.48 ms = 0.07% latency, 317.2 MFLOPS)
            )
            (52-68): 17 x Qwen3MoeMLP(
              4.72 M = 0.02% Params, 0 MACs = 0% MACs, 0 s = 0% latency, 0 FLOPS
              (gate_proj): Linear(1.57 M = 0.01% Params, 0 MACs = 0% MACs, 0 s = 0% latency, 0 FLOPS, in_features=2048, out_features=768, bias=False)
              (up_proj): Linear(1.57 M = 0.01% Params, 0 MACs = 0% MACs, 0 s = 0% latency, 0 FLOPS, in_features=2048, out_features=768, bias=False)
              (down_proj): Linear(1.57 M = 0.01% Params, 0 MACs = 0% MACs, 0 s = 0% latency, 0 FLOPS, in_features=768, out_features=2048, bias=False)
              (act_fn): SiLUActivation(0 = 0% Params, 0 MACs = 0% MACs, 0 s = 0% latency, 0 FLOPS)
            )
            (69): Qwen3MoeMLP(
              4.72 M = 0.02% Params, 2.42 GMACs = 0.15% MACs, 12.62 ms = 0.38% latency, 383.11 GFLOPS
              (gate_proj): Linear(1.57 M = 0.01% Params, 805.31 MMACs = 0.05% MACs, 2.48 ms = 0.07% latency, 650.43 GFLOPS, in_features=2048, out_features=768, bias=False)
              (up_proj): Linear(1.57 M = 0.01% Params, 805.31 MMACs = 0.05% MACs, 2.5 ms = 0.07% latency, 645.46 GFLOPS, in_features=2048, out_features=768, bias=False)
              (down_proj): Linear(1.57 M = 0.01% Params, 805.31 MMACs = 0.05% MACs, 2.52 ms = 0.08% latency, 639.23 GFLOPS, in_features=768, out_features=2048, bias=False)
              (act_fn): SiLUActivation(0 = 0% Params, 0 MACs = 0% MACs, 2.5 ms = 0.07% latency, 314.87 MFLOPS)
            )
            (70): Qwen3MoeMLP(
              4.72 M = 0.02% Params, 2.42 GMACs = 0.15% MACs, 12.53 ms = 0.38% latency, 385.59 GFLOPS
              (gate_proj): Linear(1.57 M = 0.01% Params, 805.31 MMACs = 0.05% MACs, 2.48 ms = 0.07% latency, 650.56 GFLOPS, in_features=2048, out_features=768, bias=False)
              (up_proj): Linear(1.57 M = 0.01% Params, 805.31 MMACs = 0.05% MACs, 2.47 ms = 0.07% latency, 651.75 GFLOPS, in_features=2048, out_features=768, bias=False)
              (down_proj): Linear(1.57 M = 0.01% Params, 805.31 MMACs = 0.05% MACs, 2.52 ms = 0.08% latency, 639.96 GFLOPS, in_features=768, out_features=2048, bias=False)
              (act_fn): SiLUActivation(0 = 0% Params, 0 MACs = 0% MACs, 2.48 ms = 0.07% latency, 317.17 MFLOPS)
            )
            (71-83): 13 x Qwen3MoeMLP(
              4.72 M = 0.02% Params, 0 MACs = 0% MACs, 0 s = 0% latency, 0 FLOPS
              (gate_proj): Linear(1.57 M = 0.01% Params, 0 MACs = 0% MACs, 0 s = 0% latency, 0 FLOPS, in_features=2048, out_features=768, bias=False)
              (up_proj): Linear(1.57 M = 0.01% Params, 0 MACs = 0% MACs, 0 s = 0% latency, 0 FLOPS, in_features=2048, out_features=768, bias=False)
              (down_proj): Linear(1.57 M = 0.01% Params, 0 MACs = 0% MACs, 0 s = 0% latency, 0 FLOPS, in_features=768, out_features=2048, bias=False)
              (act_fn): SiLUActivation(0 = 0% Params, 0 MACs = 0% MACs, 0 s = 0% latency, 0 FLOPS)
            )
            (84): Qwen3MoeMLP(
              4.72 M = 0.02% Params, 2.42 GMACs = 0.15% MACs, 12.49 ms = 0.37% latency, 386.88 GFLOPS
              (gate_proj): Linear(1.57 M = 0.01% Params, 805.31 MMACs = 0.05% MACs, 2.45 ms = 0.07% latency, 656.57 GFLOPS, in_features=2048, out_features=768, bias=False)
              (up_proj): Linear(1.57 M = 0.01% Params, 805.31 MMACs = 0.05% MACs, 2.47 ms = 0.07% latency, 652.25 GFLOPS, in_features=2048, out_features=768, bias=False)
              (down_proj): Linear(1.57 M = 0.01% Params, 805.31 MMACs = 0.05% MACs, 2.51 ms = 0.08% latency, 641.78 GFLOPS, in_features=768, out_features=2048, bias=False)
              (act_fn): SiLUActivation(0 = 0% Params, 0 MACs = 0% MACs, 2.47 ms = 0.07% latency, 318.85 MFLOPS)
            )
            (85-96): 12 x Qwen3MoeMLP(
              4.72 M = 0.02% Params, 0 MACs = 0% MACs, 0 s = 0% latency, 0 FLOPS
              (gate_proj): Linear(1.57 M = 0.01% Params, 0 MACs = 0% MACs, 0 s = 0% latency, 0 FLOPS, in_features=2048, out_features=768, bias=False)
              (up_proj): Linear(1.57 M = 0.01% Params, 0 MACs = 0% MACs, 0 s = 0% latency, 0 FLOPS, in_features=2048, out_features=768, bias=False)
              (down_proj): Linear(1.57 M = 0.01% Params, 0 MACs = 0% MACs, 0 s = 0% latency, 0 FLOPS, in_features=768, out_features=2048, bias=False)
              (act_fn): SiLUActivation(0 = 0% Params, 0 MACs = 0% MACs, 0 s = 0% latency, 0 FLOPS)
            )
            (97): Qwen3MoeMLP(
              4.72 M = 0.02% Params, 2.42 GMACs = 0.15% MACs, 12.62 ms = 0.38% latency, 382.84 GFLOPS
              (gate_proj): Linear(1.57 M = 0.01% Params, 805.31 MMACs = 0.05% MACs, 2.48 ms = 0.07% latency, 648.37 GFLOPS, in_features=2048, out_features=768, bias=False)
              (up_proj): Linear(1.57 M = 0.01% Params, 805.31 MMACs = 0.05% MACs, 2.5 ms = 0.07% latency, 644.6 GFLOPS, in_features=2048, out_features=768, bias=False)
              (down_proj): Linear(1.57 M = 0.01% Params, 805.31 MMACs = 0.05% MACs, 2.51 ms = 0.08% latency, 640.93 GFLOPS, in_features=768, out_features=2048, bias=False)
              (act_fn): SiLUActivation(0 = 0% Params, 0 MACs = 0% MACs, 2.5 ms = 0.07% latency, 314.6 MFLOPS)
            )
            (98-103): 6 x Qwen3MoeMLP(
              4.72 M = 0.02% Params, 0 MACs = 0% MACs, 0 s = 0% latency, 0 FLOPS
              (gate_proj): Linear(1.57 M = 0.01% Params, 0 MACs = 0% MACs, 0 s = 0% latency, 0 FLOPS, in_features=2048, out_features=768, bias=False)
              (up_proj): Linear(1.57 M = 0.01% Params, 0 MACs = 0% MACs, 0 s = 0% latency, 0 FLOPS, in_features=2048, out_features=768, bias=False)
              (down_proj): Linear(1.57 M = 0.01% Params, 0 MACs = 0% MACs, 0 s = 0% latency, 0 FLOPS, in_features=768, out_features=2048, bias=False)
…
              (gate_proj): Linear(1.57 M = 0.01% Params, 805.31 MMACs = 0.05% MACs, 71.05 us = 0% latency, 22.67 TFLOPS, in_features=2048, out_features=768, bias=False)
              (up_proj): Linear(1.57 M = 0.01% Params, 805.31 MMACs = 0.05% MACs, 54.6 us = 0% latency, 29.5 TFLOPS, in_features=2048, out_features=768, bias=False)
              (down_proj): Linear(1.57 M = 0.01% Params, 805.31 MMACs = 0.05% MACs, 54.12 us = 0% latency, 29.76 TFLOPS, in_features=768, out_features=2048, bias=False)
              (act_fn): SiLUActivation(0 = 0% Params, 0 MACs = 0% MACs, 40.29 us = 0% latency, 19.52 GFLOPS)
            )
            (41-81): 41 x Qwen3MoeMLP(
              4.72 M = 0.02% Params, 0 MACs = 0% MACs, 0 s = 0% latency, 0 FLOPS
              (gate_proj): Linear(1.57 M = 0.01% Params, 0 MACs = 0% MACs, 0 s = 0% latency, 0 FLOPS, in_features=2048, out_features=768, bias=False)
              (up_proj): Linear(1.57 M = 0.01% Params, 0 MACs = 0% MACs, 0 s = 0% latency, 0 FLOPS, in_features=2048, out_features=768, bias=False)
              (down_proj): Linear(1.57 M = 0.01% Params, 0 MACs = 0% MACs, 0 s = 0% latency, 0 FLOPS, in_features=768, out_features=2048, bias=False)
              (act_fn): SiLUActivation(0 = 0% Params, 0 MACs = 0% MACs, 0 s = 0% latency, 0 FLOPS)
            )
            (82): Qwen3MoeMLP(
              4.72 M = 0.02% Params, 2.42 GMACs = 0.15% MACs, 324.25 us = 0.01% latency, 14.91 TFLOPS
              (gate_proj): Linear(1.57 M = 0.01% Params, 805.31 MMACs = 0.05% MACs, 68.9 us = 0% latency, 23.38 TFLOPS, in_features=2048, out_features=768, bias=False)
              (up_proj): Linear(1.57 M = 0.01% Params, 805.31 MMACs = 0.05% MACs, 53.88 us = 0% latency, 29.89 TFLOPS, in_features=2048, out_features=768, bias=False)
              (down_proj): Linear(1.57 M = 0.01% Params, 805.31 MMACs = 0.05% MACs, 52.69 us = 0% latency, 30.57 TFLOPS, in_features=768, out_features=2048, bias=False)
              (act_fn): SiLUActivation(0 = 0% Params, 0 MACs = 0% MACs, 40.29 us = 0% latency, 19.52 GFLOPS)
            )
            (83-91): 9 x Qwen3MoeMLP(
              4.72 M = 0.02% Params, 0 MACs = 0% MACs, 0 s = 0% latency, 0 FLOPS
              (gate_proj): Linear(1.57 M = 0.01% Params, 0 MACs = 0% MACs, 0 s = 0% latency, 0 FLOPS, in_features=2048, out_features=768, bias=False)
              (up_proj): Linear(1.57 M = 0.01% Params, 0 MACs = 0% MACs, 0 s = 0% latency, 0 FLOPS, in_features=2048, out_features=768, bias=False)
              (down_proj): Linear(1.57 M = 0.01% Params, 0 MACs = 0% MACs, 0 s = 0% latency, 0 FLOPS, in_features=768, out_features=2048, bias=False)
              (act_fn): SiLUActivation(0 = 0% Params, 0 MACs = 0% MACs, 0 s = 0% latency, 0 FLOPS)
            )
            (92): Qwen3MoeMLP(
              4.72 M = 0.02% Params, 2.42 GMACs = 0.15% MACs, 329.49 us = 0.01% latency, 14.67 TFLOPS
              (gate_proj): Linear(1.57 M = 0.01% Params, 805.31 MMACs = 0.05% MACs, 70.1 us = 0% latency, 22.98 TFLOPS, in_features=2048, out_features=768, bias=False)
              (up_proj): Linear(1.57 M = 0.01% Params, 805.31 MMACs = 0.05% MACs, 55.55 us = 0% latency, 28.99 TFLOPS, in_features=2048, out_features=768, bias=False)
              (down_proj): Linear(1.57 M = 0.01% Params, 805.31 MMACs = 0.05% MACs, 55.07 us = 0% latency, 29.24 TFLOPS, in_features=768, out_features=2048, bias=False)
              (act_fn): SiLUActivation(0 = 0% Params, 0 MACs = 0% MACs, 39.58 us = 0% latency, 19.87 GFLOPS)
            )
            (93-95): 3 x Qwen3MoeMLP(
              4.72 M = 0.02% Params, 0 MACs = 0% MACs, 0 s = 0% latency, 0 FLOPS
              (gate_proj): Linear(1.57 M = 0.01% Params, 0 MACs = 0% MACs, 0 s = 0% latency, 0 FLOPS, in_features=2048, out_features=768, bias=False)
              (up_proj): Linear(1.57 M = 0.01% Params, 0 MACs = 0% MACs, 0 s = 0% latency, 0 FLOPS, in_features=2048, out_features=768, bias=False)
              (down_proj): Linear(1.57 M = 0.01% Params, 0 MACs = 0% MACs, 0 s = 0% latency, 0 FLOPS, in_features=768, out_features=2048, bias=False)
              (act_fn): SiLUActivation(0 = 0% Params, 0 MACs = 0% MACs, 0 s = 0% latency, 0 FLOPS)
            )
            (96): Qwen3MoeMLP(
              4.72 M = 0.02% Params, 2.42 GMACs = 0.15% MACs, 338.79 us = 0.01% latency, 14.27 TFLOPS
              (gate_proj): Linear(1.57 M = 0.01% Params, 805.31 MMACs = 0.05% MACs, 80.11 us = 0% latency, 20.11 TFLOPS, in_features=2048, out_features=768, bias=False)
              (up_proj): Linear(1.57 M = 0.01% Params, 805.31 MMACs = 0.05% MACs, 56.51 us = 0% latency, 28.5 TFLOPS, in_features=2048, out_features=768, bias=False)
              (down_proj): Linear(1.57 M = 0.01% Params, 805.31 MMACs = 0.05% MACs, 55.07 us = 0% latency, 29.24 TFLOPS, in_features=768, out_features=2048, bias=False)
              (act_fn): SiLUActivation(0 = 0% Params, 0 MACs = 0% MACs, 39.58 us = 0% latency, 19.87 GFLOPS)
            )
            (97-103): 7 x Qwen3MoeMLP(
              4.72 M = 0.02% Params, 0 MACs = 0% MACs, 0 s = 0% latency, 0 FLOPS
              (gate_proj): Linear(1.57 M = 0.01% Params, 0 MACs = 0% MACs, 0 s = 0% latency, 0 FLOPS, in_features=2048, out_features=768, bias=False)
              (up_proj): Linear(1.57 M = 0.01% Params, 0 MACs = 0% MACs, 0 s = 0% latency, 0 FLOPS, in_features=2048, out_features=768, bias=False)
              (down_proj): Linear(1.57 M = 0.01% Params, 0 MACs = 0% MACs, 0 s = 0% latency, 0 FLOPS, in_features=768, out_features=2048, bias=False)
              (act_fn): SiLUActivation(0 = 0% Params, 0 MACs = 0% MACs, 0 s = 0% latency, 0 FLOPS)
            )
            (104): Qwen3MoeMLP(
              4.72 M = 0.02% Params, 2.42 GMACs = 0.15% MACs, 335.45 us = 0.01% latency, 14.41 TFLOPS
              (gate_proj): Linear(1.57 M = 0.01% Params, 805.31 MMACs = 0.05% MACs, 71.29 us = 0% latency, 22.59 TFLOPS, in_features=2048, out_features=768, bias=False)
              (up_proj): Linear(1.57 M = 0.01% Params, 805.31 MMACs = 0.05% MACs, 56.03 us = 0% latency, 28.75 TFLOPS, in_features=2048, out_features=768, bias=False)
              (down_proj): Linear(1.57 M = 0.01% Params, 805.31 MMACs = 0.05% MACs, 59.84 us = 0% latency, 26.91 TFLOPS, in_features=768, out_features=2048, bias=False)
              (act_fn): SiLUActivation(0 = 0% Params, 0 MACs = 0% MACs, 39.58 us = 0% latency, 19.87 GFLOPS)
            )
            (105-118): 14 x Qwen3MoeMLP(
              4.72 M = 0.02% Params, 0 MACs = 0% MACs, 0 s = 0% latency, 0 FLOPS
              (gate_proj): Linear(1.57 M = 0.01% Params, 0 MACs = 0% MACs, 0 s = 0% latency, 0 FLOPS, in_features=2048, out_features=768, bias=False)
              (up_proj): Linear(1.57 M = 0.01% Params, 0 MACs = 0% MACs, 0 s = 0% latency, 0 FLOPS, in_features=2048, out_features=768, bias=False)
              (down_proj): Linear(1.57 M = 0.01% Params, 0 MACs = 0% MACs, 0 s = 0% latency, 0 FLOPS, in_features=768, out_features=2048, bias=False)
              (act_fn): SiLUActivation(0 = 0% Params, 0 MACs = 0% MACs, 0 s = 0% latency, 0 FLOPS)
            )
            (119): Qwen3MoeMLP(
              4.72 M = 0.02% Params, 2.42 GMACs = 0.15% MACs, 342.61 us = 0.01% latency, 14.11 TFLOPS
              (gate_proj): Linear(1.57 M = 0.01% Params, 805.31 MMACs = 0.05% MACs, 72.24 us = 0% latency, 22.3 TFLOPS, in_features=2048, out_features=768, bias=False)
              (up_proj): Linear(1.57 M = 0.01% Params, 805.31 MMACs = 0.05% MACs, 57.94 us = 0% latency, 27.8 TFLOPS, in_features=2048, out_features=768, bias=False)
              (down_proj): Linear(1.57 M = 0.01% Params, 805.31 MMACs = 0.05% MACs, 53.88 us = 0% latency, 29.89 TFLOPS, in_features=768, out_features=2048, bias=False)
              (act_fn): SiLUActivation(0 = 0% Params, 0 MACs = 0% MACs, 48.16 us = 0% latency, 16.33 GFLOPS)
            )
            (120-127): 8 x Qwen3MoeMLP(
              4.72 M = 0.02% Params, 0 MACs = 0% MACs, 0 s = 0% latency, 0 FLOPS
              (gate_proj): Linear(1.57 M = 0.01% Params, 0 MACs = 0% MACs, 0 s = 0% latency, 0 FLOPS, in_features=2048, out_features=768, bias=False)
              (up_proj): Linear(1.57 M = 0.01% Params, 0 MACs = 0% MACs, 0 s = 0% latency, 0 FLOPS, in_features=2048, out_features=768, bias=False)
              (down_proj): Linear(1.57 M = 0.01% Params, 0 MACs = 0% MACs, 0 s = 0% latency, 0 FLOPS, in_features=768, out_features=2048, bias=False)
              (act_fn): SiLUActivation(0 = 0% Params, 0 MACs = 0% MACs, 0 s = 0% latency, 0 FLOPS)
            )
          )
        )
        (input_layernorm): Qwen3MoeRMSNorm(2.05 K = 0% Params, 0 MACs = 0% MACs, 184.3 us = 0.01% latency, 2.92 TFLOPS, (2048,), eps=1e-06)
        (post_attention_layernorm): Qwen3MoeRMSNorm(2.05 K = 0% Params, 0 MACs = 0% MACs, 126.6 us = 0% latency, 4.25 TFLOPS, (2048,), eps=1e-06)
      )
      (45): Qwen3MoeDecoderLayer(
        623.12 M = 2.04% Params, 29.66 GMACs = 1.87% MACs, 48.68 ms = 1.46% latency, 1.24 TFLOPS
        (self_attn): Qwen3MoeAttention(
          18.87 M = 0.06% Params, 10.2 GMACs = 0.64% MACs, 993.01 us = 0.03% latency, 20.63 TFLOPS
          (q_proj): Linear(8.39 M = 0.03% Params, 4.29 GMACs = 0.27% MACs, 82.73 us = 0% latency, 103.83 TFLOPS, in_features=2048, out_features=4096, bias=False)
          (k_proj): Linear(1.05 M = 0% Params, 536.87 MMACs = 0.03% MACs, 69.38 us = 0% latency, 15.48 TFLOPS, in_features=2048, out_features=512, bias=False)
          (v_proj): Linear(1.05 M = 0% Params, 536.87 MMACs = 0.03% MACs, 64.61 us = 0% latency, 16.62 TFLOPS, in_features=2048, out_features=512, bias=False)
          (o_proj): Linear(8.39 M = 0.03% Params, 4.29 GMACs = 0.27% MACs, 72.96 us = 0% latency, 117.74 TFLOPS, in_features=4096, out_features=2048, bias=False)
          (q_norm): Qwen3MoeRMSNorm(128 = 0% Params, 0 MACs = 0% MACs, 134.94 us = 0% latency, 512.97 GFLOPS, (128,), eps=1e-06)
          (k_norm): Qwen3MoeRMSNorm(128 = 0% Params, 0 MACs = 0% MACs, 128.03 us = 0% latency, 67.58 GFLOPS, (128,), eps=1e-06)
        )
        (mlp): Qwen3MoeSparseMoeBlock(
          604.24 M = 1.98% Params, 19.46 GMACs = 1.23% MACs, 42.67 ms = 1.28% latency, 912.55 GFLOPS
          (gate): Linear(262.14 K = 0% Params, 134.22 MMACs = 0.01% MACs, 66.52 us = 0% latency, 4.04 TFLOPS, in_features=2048, out_features=128, bias=False)
          (experts): ModuleList(
            (0-25): 26 x Qwen3MoeMLP(
              4.72 M = 0.02% Params, 0 MACs = 0% MACs, 0 s = 0% latency, 0 FLOPS
              (gate_proj): Linear(1.57 M = 0.01% Params, 0 MACs = 0% MACs, 0 s = 0% latency, 0 FLOPS, in_features=2048, out_features=768, bias=False)
              (up_proj): Linear(1.57 M = 0.01% Params, 0 MACs = 0% MACs, 0 s = 0% latency, 0 FLOPS, in_features=2048, out_features=768, bias=False)
              (down_proj): Linear(1.57 M = 0.01% Params, 0 MACs = 0% MACs, 0 s = 0% latency, 0 FLOPS, in_features=768, out_features=2048, bias=False)
              (act_fn): SiLUActivation(0 = 0% Params, 0 MACs = 0% MACs, 0 s = 0% latency, 0 FLOPS)
            )
            (26): Qwen3MoeMLP(
              4.72 M = 0.02% Params, 2.42 GMACs = 0.15% MACs, 348.57 us = 0.01% latency, 13.87 TFLOPS
              (gate_proj): Linear(1.57 M = 0.01% Params, 805.31 MMACs = 0.05% MACs, 75.1 us = 0% latency, 21.45 TFLOPS, in_features=2048, out_features=768, bias=False)
              (up_proj): Linear(1.57 M = 0.01% Params, 805.31 MMACs = 0.05% MACs, 57.94 us = 0% latency, 27.8 TFLOPS, in_features=2048, out_features=768, bias=False)
              (down_proj): Linear(1.57 M = 0.01% Params, 805.31 MMACs = 0.05% MACs, 56.51 us = 0% latency, 28.5 TFLOPS, in_features=768, out_features=2048, bias=False)
              (act_fn): SiLUActivation(0 = 0% Params, 0 MACs = 0% MACs, 43.63 us = 0% latency, 18.02 GFLOPS)
            )
            (27-37): 11 x Qwen3MoeMLP(
              4.72 M = 0.02% Params, 0 MACs = 0% MACs, 0 s = 0% latency, 0 FLOPS
              (gate_proj): Linear(1.57 M = 0.01% Params, 0 MACs = 0% MACs, 0 s = 0% latency, 0 FLOPS, in_features=2048, out_features=768, bias=False)
              (up_proj): Linear(1.57 M = 0.01% Params, 0 MACs = 0% MACs, 0 s = 0% latency, 0 FLOPS, in_features=2048, out_features=768, bias=False)
              (down_proj): Linear(1.57 M = 0.01% Params, 0 MACs = 0% MACs, 0 s = 0% latency, 0 FLOPS, in_features=768, out_features=2048, bias=False)
              (act_fn): SiLUActivation(0 = 0% Params, 0 MACs = 0% MACs, 0 s = 0% latency, 0 FLOPS)
            )
            (38): Qwen3MoeMLP(
              4.72 M = 0.02% Params, 2.42 GMACs = 0.15% MACs, 334.26 us = 0.01% latency, 14.46 TFLOPS
              (gate_proj): Linear(1.57 M = 0.01% Params, 805.31 MMACs = 0.05% MACs, 72.96 us = 0% latency, 22.08 TFLOPS, in_features=2048, out_features=768, bias=False)
              (up_proj): Linear(1.57 M = 0.01% Params, 805.31 MMACs = 0.05% MACs, 56.03 us = 0% latency, 28.75 TFLOPS, in_features=2048, out_features=768, bias=False)
              (down_proj): Linear(1.57 M = 0.01% Params, 805.31 MMACs = 0.05% MACs, 55.79 us = 0% latency, 28.87 TFLOPS, in_features=768, out_features=2048, bias=False)
              (act_fn): SiLUActivation(0 = 0% Params, 0 MACs = 0% MACs, 41.25 us = 0% latency, 19.07 GFLOPS)
            )
            (39-62): 24 x Qwen3MoeMLP(
              4.72 M = 0.02% Params, 0 MACs = 0% MACs, 0 s = 0% latency, 0 FLOPS
              (gate_proj): Linear(1.57 M = 0.01% Params, 0 MACs = 0% MACs, 0 s = 0% latency, 0 FLOPS, in_features=2048, out_features=768, bias=False)
              (up_proj): Linear(1.57 M = 0.01% Params, 0 MACs = 0% MACs, 0 s = 0% latency, 0 FLOPS, in_features=2048, out_features=768, bias=False)
              (down_proj): Linear(1.57 M = 0.01% Params, 0 MACs = 0% MACs, 0 s = 0% latency, 0 FLOPS, in_features=768, out_features=2048, bias=False)
              (act_fn): SiLUActivation(0 = 0% Params, 0 MACs = 0% MACs, 0 s = 0% latency, 0 FLOPS)
            )
            (63): Qwen3MoeMLP(
              4.72 M = 0.02% Params, 2.42 GMACs = 0.15% MACs, 333.07 us = 0.01% latency, 14.51 TFLOPS
              (gate_proj): Linear(1.57 M = 0.01% Params, 805.31 MMACs = 0.05% MACs, 71.29 us = 0% latency, 22.59 TFLOPS, in_features=2048, out_features=768, bias=False)
              (up_proj): Linear(1.57 M = 0.01% Params, 805.31 MMACs = 0.05% MACs, 56.51 us = 0% latency, 28.5 TFLOPS, in_features=2048, out_features=768, bias=False)
              (down_proj): Linear(1.57 M = 0.01% Params, 805.31 MMACs = 0.05% MACs, 53.41 us = 0% latency, 30.16 TFLOPS, in_features=768, out_features=2048, bias=False)
              (act_fn): SiLUActivation(0 = 0% Params, 0 MACs = 0% MACs, 41.25 us = 0% latency, 19.07 GFLOPS)
            )
            (64): Qwen3MoeMLP(
              4.72 M = 0.02% Params, 2.42 GMACs = 0.15% MACs, 341.65 us = 0.01% latency, 14.15 TFLOPS
              (gate_proj): Linear(1.57 M = 0.01% Params, 805.31 MMACs = 0.05% MACs, 69.62 us = 0% latency, 23.13 TFLOPS, in_features=2048, out_features=768, bias=False)
              (up_proj): Linear(1.57 M = 0.01% Params, 805.31 MMACs = 0.05% MACs, 68.43 us = 0% latency, 23.54 TFLOPS, in_features=2048, out_features=768, bias=False)
              (down_proj): Linear(1.57 M = 0.01% Params, 805.31 MMACs = 0.05% MACs, 53.88 us = 0% latency, 29.89 TFLOPS, in_features=768, out_features=2048, bias=False)
              (act_fn): SiLUActivation(0 = 0% Params, 0 MACs = 0% MACs, 40.05 us = 0% latency, 19.63 GFLOPS)
            )
            (65-68): 4 x Qwen3MoeMLP(
              4.72 M = 0.02% Params, 0 MACs = 0% MACs, 0 s = 0% latency, 0 FLOPS
              (gate_proj): Linear(1.57 M = 0.01% Params, 0 MACs = 0% MACs, 0 s = 0% latency, 0 FLOPS, in_features=2048, out_features=768, bias=False)
              (up_proj): Linear(1.57 M = 0.01% Params, 0 MACs = 0% MACs, 0 s = 0% latency, 0 FLOPS, in_features=2048, out_features=768, bias=False)
              (down_proj): Linear(1.57 M = 0.01% Params, 0 MACs = 0% MACs, 0 s = 0% latency, 0 FLOPS, in_features=768, out_features=2048, bias=False)
              (act_fn): SiLUActivation(0 = 0% Params, 0 MACs = 0% MACs, 0 s = 0% latency, 0 FLOPS)
            )
            (69): Qwen3MoeMLP(
              4.72 M = 0.02% Params, 2.42 GMACs = 0.15% MACs, 329.02 us = 0.01% latency, 14.69 TFLOPS
              (gate_proj): Linear(1.57 M = 0.01% Params, 805.31 MMACs = 0.05% MACs, 71.05 us = 0% latency, 22.67 TFLOPS, in_features=2048, out_features=768, bias=False)
              (up_proj): Linear(1.57 M = 0.01% Params, 805.31 MMACs = 0.05% MACs, 56.51 us = 0% latency, 28.5 TFLOPS, in_features=2048, out_features=768, bias=False)
              (down_proj): Linear(1.57 M = 0.01% Params, 805.31 MMACs = 0.05% MACs, 53.88 us = 0% latency, 29.89 TFLOPS, in_features=768, out_features=2048, bias=False)
              (act_fn): SiLUActivation(0 = 0% Params, 0 MACs = 0% MACs, 38.86 us = 0% latency, 20.24 GFLOPS)
            )
            (70-85): 16 x Qwen3MoeMLP(
              4.72 M = 0.02% Params, 0 MACs = 0% MACs, 0 s = 0% latency, 0 FLOPS
              (gate_proj): Linear(1.57 M = 0.01% Params, 0 MACs = 0% MACs, 0 s = 0% latency, 0 FLOPS, in_features=2048, out_features=768, bias=False)
              (up_proj): Linear(1.57 M = 0.01% Params, 0 MACs = 0% MACs, 0 s = 0% latency, 0 FLOPS, in_features=2048, out_features=768, bias=False)
              (down_proj): Linear(1.57 M = 0.01% Params, 0 MACs = 0% MACs, 0 s = 0% latency, 0 FLOPS, in_features=768, out_features=2048, bias=False)
              (act_fn): SiLUActivation(0 = 0% Params, 0 MACs = 0% MACs, 0 s = 0% latency, 0 FLOPS)
            )
            (86): Qwen3MoeMLP(
              4.72 M = 0.02% Params, 2.42 GMACs = 0.15% MACs, 326.16 us = 0.01% latency, 14.82 TFLOPS
              (gate_proj): Linear(1.57 M = 0.01% Params, 805.31 MMACs = 0.05% MACs, 67.47 us = 0% latency, 23.87 TFLOPS, in_features=2048, out_features=768, bias=False)
              (up_proj): Linear(1.57 M = 0.01% Params, 805.31 MMACs = 0.05% MACs, 56.51 us = 0% latency, 28.5 TFLOPS, in_features=2048, out_features=768, bias=False)
              (down_proj): Linear(1.57 M = 0.01% Params, 805.31 MMACs = 0.05% MACs, 55.31 us = 0% latency, 29.12 TFLOPS, in_features=768, out_features=2048, bias=False)
              (act_fn): SiLUActivation(0 = 0% Params, 0 MACs = 0% MACs, 40.53 us = 0% latency, 19.4 GFLOPS)
            )
            (87-88): 2 x Qwen3MoeMLP(
              4.72 M = 0.02% Params, 0 MACs = 0% MACs, 0 s = 0% latency, 0 FLOPS
              (gate_proj): Linear(1.57 M = 0.01% Params, 0 MACs = 0% MACs, 0 s = 0% latency, 0 FLOPS, in_features=2048, out_features=768, bias=False)
              (up_proj): Linear(1.57 M = 0.01% Params, 0 MACs = 0% MACs, 0 s = 0% latency, 0 FLOPS, in_features=2048, out_features=768, bias=False)
              (down_proj): Linear(1.57 M = 0.01% Params, 0 MACs = 0% MACs, 0 s = 0% latency, 0 FLOPS, in_features=768, out_features=2048, bias=False)
              (act_fn): SiLUActivation(0 = 0% Params, 0 MACs = 0% MACs, 0 s = 0% latency, 0 FLOPS)
            )
            (89): Qwen3MoeMLP(
              4.72 M = 0.02% Params, 2.42 GMACs = 0.15% MACs, 333.07 us = 0.01% latency, 14.51 TFLOPS
              (gate_proj): Linear(1.57 M = 0.01% Params, 805.31 MMACs = 0.05% MACs, 72.48 us = 0% latency, 22.22 TFLOPS, in_features=2048, out_features=768, bias=False)
              (up_proj): Linear(1.57 M = 0.01% Params, 805.31 MMACs = 0.05% MACs, 55.79 us = 0% latency, 28.87 TFLOPS, in_features=2048, out_features=768, bias=False)
              (down_proj): Linear(1.57 M = 0.01% Params, 805.31 MMACs = 0.05% MACs, 56.03 us = 0% latency, 28.75 TFLOPS, in_features=768, out_features=2048, bias=False)
              (act_fn): SiLUActivation(0 = 0% Params, 0 MACs = 0% MACs, 40.05 us = 0% latency, 19.63 GFLOPS)
            )
            (90-117): 28 x Qwen3MoeMLP(
              4.72 M = 0.02% Params, 0 MACs = 0% MACs, 0 s = 0% latency, 0 FLOPS
              (gate_proj): Linear(1.57 M = 0.01% Params, 0 MACs = 0% MACs, 0 s = 0% latency, 0 FLOPS, in_features=2048, out_features=768, bias=False)
              (up_proj): Linear(1.57 M = 0.01% Params, 0 MACs = 0% MACs, 0 s = 0% latency, 0 FLOPS, in_features=2048, out_features=768, bias=False)
              (down_proj): Linear(1.57 M = 0.01% Params, 0 MACs = 0% MACs, 0 s = 0% latency, 0 FLOPS, in_features=768, out_features=2048, bias=False)
              (act_fn): SiLUActivation(0 = 0% Params, 0 MACs = 0% MACs, 0 s = 0% latency, 0 FLOPS)
            )
            (118): Qwen3MoeMLP(
              4.72 M = 0.02% Params, 2.42 GMACs = 0.15% MACs, 329.49 us = 0.01% latency, 14.67 TFLOPS
              (gate_proj): Linear(1.57 M = 0.01% Params, 805.31 MMACs = 0.05% MACs, 68.9 us = 0% latency, 23.38 TFLOPS, in_features=2048, out_features=768, bias=False)
              (up_proj): Linear(1.57 M = 0.01% Params, 805.31 MMACs = 0.05% MACs, 56.98 us = 0% latency, 28.27 TFLOPS, in_features=2048, out_features=768, bias=False)
              (down_proj): Linear(1.57 M = 0.01% Params, 805.31 MMACs = 0.05% MACs, 54.84 us = 0% latency, 29.37 TFLOPS, in_features=768, out_features=2048, bias=False)
              (act_fn): SiLUActivation(0 = 0% Params, 0 MACs = 0% MACs, 37.91 us = 0% latency, 20.75 GFLOPS)
            )
            (119-127): 9 x Qwen3MoeMLP(
              4.72 M = 0.02% Params, 0 MACs = 0% MACs, 0 s = 0% latency, 0 FLOPS
              (gate_proj): Linear(1.57 M = 0.01% Params, 0 MACs = 0% MACs, 0 s = 0% latency, 0 FLOPS, in_features=2048, out_features=768, bias=False)
              (up_proj): Linear(1.57 M = 0.01% Params, 0 MACs = 0% MACs, 0 s = 0% latency, 0 FLOPS, in_features=2048, out_features=768, bias=False)
              (down_proj): Linear(1.57 M = 0.01% Params, 0 MACs = 0% MACs, 0 s = 0% latency, 0 FLOPS, in_features=768, out_features=2048, bias=False)
              (act_fn): SiLUActivation(0 = 0% Params, 0 MACs = 0% MACs, 0 s = 0% latency, 0 FLOPS)
            )
          )
        )
        (input_layernorm): Qwen3MoeRMSNorm(2.05 K = 0% Params, 0 MACs = 0% MACs, 189.54 us = 0.01% latency, 2.84 TFLOPS, (2048,), eps=1e-06)
        (post_attention_layernorm): Qwen3MoeRMSNorm(2.05 K = 0% Params, 0 MACs = 0% MACs, 124.69 us = 0% latency, 4.31 TFLOPS, (2048,), eps=1e-06)
      )
      (46): Qwen3MoeDecoderLayer(
        623.12 M = 2.04% Params, 29.66 GMACs = 1.87% MACs, 47.89 ms = 1.43% latency, 1.26 TFLOPS
        (self_attn): Qwen3MoeAttention(
          18.87 M = 0.06% Params, 10.2 GMACs = 0.64% MACs, 987.53 us = 0.03% latency, 20.74 TFLOPS
          (q_proj): Linear(8.39 M = 0.03% Params, 4.29 GMACs = 0.27% MACs, 80.35 us = 0% latency, 106.91 TFLOPS, in_features=2048, out_features=4096, bias=False)
          (k_proj): Linear(1.05 M = 0% Params, 536.87 MMACs = 0.03% MACs, 68.19 us = 0% latency, 15.75 TFLOPS, in_features=2048, out_features=512, bias=False)
          (v_proj): Linear(1.05 M = 0% Params, 536.87 MMACs = 0.03% MACs, 63.9 us = 0% latency, 16.8 TFLOPS, in_features=2048, out_features=512, bias=False)
          (o_proj): Linear(8.39 M = 0.03% Params, 4.29 GMACs = 0.27% MACs, 70.57 us = 0% latency, 121.72 TFLOPS, in_features=4096, out_features=2048, bias=False)
          (q_norm): Qwen3MoeRMSNorm(128 = 0% Params, 0 MACs = 0% MACs, 130.41 us = 0% latency, 530.79 GFLOPS, (128,), eps=1e-06)
          (k_norm): Qwen3MoeRMSNorm(128 = 0% Params, 0 MACs = 0% MACs, 124.93 us = 0% latency, 69.26 GFLOPS, (128,), eps=1e-06)
        )
        (mlp): Qwen3MoeSparseMoeBlock(
          604.24 M = 1.98% Params, 19.46 GMACs = 1.23% MACs, 42.02 ms = 1.26% latency, 926.67 GFLOPS
          (gate): Linear(262.14 K = 0% Params, 134.22 MMACs = 0.01% MACs, 63.42 us = 0% latency, 4.23 TFLOPS, in_features=2048, out_features=128, bias=False)
          (experts): ModuleList(
            (0-24): 25 x Qwen3MoeMLP(
              4.72 M = 0.02% Params, 0 MACs = 0% MACs, 0 s = 0% latency, 0 FLOPS
              (gate_proj): Linear(1.57 M = 0.01% Params, 0 MACs = 0% MACs, 0 s = 0% latency, 0 FLOPS, in_features=2048, out_features=768, bias=False)
              (up_proj): Linear(1.57 M = 0.01% Params, 0 MACs = 0% MACs, 0 s = 0% latency, 0 FLOPS, in_features=2048, out_features=768, bias=False)
              (down_proj): Linear(1.57 M = 0.01% Params, 0 MACs = 0% MACs, 0 s = 0% latency, 0 FLOPS, in_features=768, out_features=2048, bias=False)
              (act_fn): SiLUActivation(0 = 0% Params, 0 MACs = 0% MACs, 0 s = 0% latency, 0 FLOPS)
            )
            (25): Qwen3MoeMLP(
              4.72 M = 0.02% Params, 2.42 GMACs = 0.15% MACs, 353.81 us = 0.01% latency, 13.66 TFLOPS
              (gate_proj): Linear(1.57 M = 0.01% Params, 805.31 MMACs = 0.05% MACs, 77.72 us = 0% latency, 20.72 TFLOPS, in_features=2048, out_features=768, bias=False)
              (up_proj): Linear(1.57 M = 0.01% Params, 805.31 MMACs = 0.05% MACs, 57.94 us = 0% latency, 27.8 TFLOPS, in_features=2048, out_features=768, bias=False)
              (down_proj): Linear(1.57 M = 0.01% Params, 805.31 MMACs = 0.05% MACs, 56.51 us = 0% latency, 28.5 TFLOPS, in_features=768, out_features=2048, bias=False)
              (act_fn): SiLUActivation(0 = 0% Params, 0 MACs = 0% MACs, 45.3 us = 0% latency, 17.36 GFLOPS)
            )
            (26-33): 8 x Qwen3MoeMLP(
              4.72 M = 0.02% Params, 0 MACs = 0% MACs, 0 s = 0% latency, 0 FLOPS
              (gate_proj): Linear(1.57 M = 0.01% Params, 0 MACs = 0% MACs, 0 s = 0% latency, 0 FLOPS, in_features=2048, out_features=768, bias=False)
              (up_proj): Linear(1.57 M = 0.01% Params, 0 MACs = 0% MACs, 0 s = 0% latency, 0 FLOPS, in_features=2048, out_features=768, bias=False)
              (down_proj): Linear(1.57 M = 0.01% Params, 0 MACs = 0% MACs, 0 s = 0% latency, 0 FLOPS, in_features=768, out_features=2048, bias=False)
              (act_fn): SiLUActivation(0 = 0% Params, 0 MACs = 0% MACs, 0 s = 0% latency, 0 FLOPS)
            )
            (34): Qwen3MoeMLP(
              4.72 M = 0.02% Params, 2.42 GMACs = 0.15% MACs, 351.43 us = 0.01% latency, 13.75 TFLOPS
              (gate_proj): Linear(1.57 M = 0.01% Params, 805.31 MMACs = 0.05% MACs, 69.14 us = 0% latency, 23.29 TFLOPS, in_features=2048, out_features=768, bias=False)
              (up_proj): Linear(1.57 M = 0.01% Params, 805.31 MMACs = 0.05% MACs, 58.41 us = 0% latency, 27.57 TFLOPS, in_features=2048, out_features=768, bias=False)
              (down_proj): Linear(1.57 M = 0.01% Params, 805.31 MMACs = 0.05% MACs, 61.27 us = 0% latency, 26.29 TFLOPS, in_features=768, out_features=2048, bias=False)
              (act_fn): SiLUActivation(0 = 0% Params, 0 MACs = 0% MACs, 40.29 us = 0% latency, 19.52 GFLOPS)
            )
            (35-37): 3 x Qwen3MoeMLP(
              4.72 M = 0.02% Params, 0 MACs = 0% MACs, 0 s = 0% latency, 0 FLOPS
              (gate_proj): Linear(1.57 M = 0.01% Params, 0 MACs = 0% MACs, 0 s = 0% latency, 0 FLOPS, in_features=2048, out_features=768, bias=False)
              (up_proj): Linear(1.57 M = 0.01% Params, 0 MACs = 0% MACs, 0 s = 0% latency, 0 FLOPS, in_features=2048, out_features=768, bias=False)
              (down_proj): Linear(1.57 M = 0.01% Params, 0 MACs = 0% MACs, 0 s = 0% latency, 0 FLOPS, in_features=768, out_features=2048, bias=False)
              (act_fn): SiLUActivation(0 = 0% Params, 0 MACs = 0% MACs, 0 s = 0% latency, 0 FLOPS)
            )
            (38): Qwen3MoeMLP(
              4.72 M = 0.02% Params, 2.42 GMACs = 0.15% MACs, 328.06 us = 0.01% latency, 14.73 TFLOPS
              (gate_proj): Linear(1.57 M = 0.01% Params, 805.31 MMACs = 0.05% MACs, 71.53 us = 0% latency, 22.52 TFLOPS, in_features=2048, out_features=768, bias=False)
              (up_proj): Linear(1.57 M = 0.01% Params, 805.31 MMACs = 0.05% MACs, 53.64 us = 0% latency, 30.02 TFLOPS, in_features=2048, out_features=768, bias=False)
              (down_proj): Linear(1.57 M = 0.01% Params, 805.31 MMACs = 0.05% MACs, 53.64 us = 0% latency, 30.02 TFLOPS, in_features=768, out_features=2048, bias=False)
              (act_fn): SiLUActivation(0 = 0% Params, 0 MACs = 0% MACs, 39.34 us = 0% latency, 19.99 GFLOPS)
            )
            (39-73): 35 x Qwen3MoeMLP(
              4.72 M = 0.02% Params, 0 MACs = 0% MACs, 0 s = 0% latency, 0 FLOPS
              (gate_proj): Linear(1.57 M = 0.01% Params, 0 MACs = 0% MACs, 0 s = 0% latency, 0 FLOPS, in_features=2048, out_features=768, bias=False)
              (up_proj): Linear(1.57 M = 0.01% Params, 0 MACs = 0% MACs, 0 s = 0% latency, 0 FLOPS, in_features=2048, out_features=768, bias=False)
              (down_proj): Linear(1.57 M = 0.01% Params, 0 MACs = 0% MACs, 0 s = 0% latency, 0 FLOPS, in_features=768, out_features=2048, bias=False)
              (act_fn): SiLUActivation(0 = 0% Params, 0 MACs = 0% MACs, 0 s = 0% latency, 0 FLOPS)
            )
            (74): Qwen3MoeMLP(
              4.72 M = 0.02% Params, 2.42 GMACs = 0.15% MACs, 326.16 us = 0.01% latency, 14.82 TFLOPS
              (gate_proj): Linear(1.57 M = 0.01% Params, 805.31 MMACs = 0.05% MACs, 68.9 us = 0% latency, 23.38 TFLOPS, in_features=2048, out_features=768, bias=False)
              (up_proj): Linear(1.57 M = 0.01% Params, 805.31 MMACs = 0.05% MACs, 56.51 us = 0% latency, 28.5 TFLOPS, in_features=2048, out_features=768, bias=False)
              (down_proj): Linear(1.57 M = 0.01% Params, 805.31 MMACs = 0.05% MACs, 54.84 us = 0% latency, 29.37 TFLOPS, in_features=768, out_features=2048, bias=False)
              (act_fn): SiLUActivation(0 = 0% Params, 0 MACs = 0% MACs, 38.86 us = 0% latency, 20.24 GFLOPS)
            )
            (75): Qwen3MoeMLP(
              4.72 M = 0.02% Params, 2.42 GMACs = 0.15% MACs, 329.97 us = 0.01% latency, 14.65 TFLOPS
              (gate_proj): Linear(1.57 M = 0.01% Params, 805.31 MMACs = 0.05% MACs, 70.1 us = 0% latency, 22.98 TFLOPS, in_features=2048, out_features=768, bias=False)
              (up_proj): Linear(1.57 M = 0.01% Params, 805.31 MMACs = 0.05% MACs, 55.79 us = 0% latency, 28.87 TFLOPS, in_features=2048, out_features=768, bias=False)
              (down_proj): Linear(1.57 M = 0.01% Params, 805.31 MMACs = 0.05% MACs, 54.12 us = 0% latency, 29.76 TFLOPS, in_features=768, out_features=2048, bias=False)
              (act_fn): SiLUActivation(0 = 0% Params, 0 MACs = 0% MACs, 40.77 us = 0% latency, 19.29 GFLOPS)
            )
            (76-95): 20 x Qwen3MoeMLP(
              4.72 M = 0.02% Params, 0 MACs = 0% MACs, 0 s = 0% latency, 0 FLOPS
              (gate_proj): Linear(1.57 M = 0.01% Params, 0 MACs = 0% MACs, 0 s = 0% latency, 0 FLOPS, in_features=2048, out_features=768, bias=False)
              (up_proj): Linear(1.57 M = 0.01% Params, 0 MACs = 0% MACs, 0 s = 0% latency, 0 FLOPS, in_features=2048, out_features=768, bias=False)
              (down_proj): Linear(1.57 M = 0.01% Params, 0 MACs = 0% MACs, 0 s = 0% latency, 0 FLOPS, in_features=768, out_features=2048, bias=False)
              (act_fn): SiLUActivation(0 = 0% Params, 0 MACs = 0% MACs, 0 s = 0% latency, 0 FLOPS)
            )
            (96): Qwen3MoeMLP(
              4.72 M = 0.02% Params, 2.42 GMACs = 0.15% MACs, 324.96 us = 0.01% latency, 14.87 TFLOPS
              (gate_proj): Linear(1.57 M = 0.01% Params, 805.31 MMACs = 0.05% MACs, 69.14 us = 0% latency, 23.29 TFLOPS, in_features=2048, out_features=768, bias=False)
              (up_proj): Linear(1.57 M = 0.01% Params, 805.31 MMACs = 0.05% MACs, 55.07 us = 0% latency, 29.24 TFLOPS, in_features=2048, out_features=768, bias=False)
              (down_proj): Linear(1.57 M = 0.01% Params, 805.31 MMACs = 0.05% MACs, 52.21 us = 0% latency, 30.85 TFLOPS, in_features=768, out_features=2048, bias=False)
              (act_fn): SiLUActivation(0 = 0% Params, 0 MACs = 0% MACs, 40.77 us = 0% latency, 19.29 GFLOPS)
            )
            (97-103): 7 x Qwen3MoeMLP(
              4.72 M = 0.02% Params, 0 MACs = 0% MACs, 0 s = 0% latency, 0 FLOPS
              (gate_proj): Linear(1.57 M = 0.01% Params, 0 MACs = 0% MACs, 0 s = 0% latency, 0 FLOPS, in_features=2048, out_features=768, bias=False)
              (up_proj): Linear(1.57 M = 0.01% Params, 0 MACs = 0% MACs, 0 s = 0% latency, 0 FLOPS, in_features=2048, out_features=768, bias=False)
              (down_proj): Linear(1.57 M = 0.01% Params, 0 MACs = 0% MACs, 0 s = 0% latency, 0 FLOPS, in_features=768, out_features=2048, bias=False)
              (act_fn): SiLUActivation(0 = 0% Params, 0 MACs = 0% MACs, 0 s = 0% latency, 0 FLOPS)
            )
            (104): Qwen3MoeMLP(
              4.72 M = 0.02% Params, 2.42 GMACs = 0.15% MACs, 319.96 us = 0.01% latency, 15.11 TFLOPS
              (gate_proj): Linear(1.57 M = 0.01% Params, 805.31 MMACs = 0.05% MACs, 67 us = 0% latency, 24.04 TFLOPS, in_features=2048, out_features=768, bias=False)
              (up_proj): Linear(1.57 M = 0.01% Params, 805.31 MMACs = 0.05% MACs, 54.6 us = 0% latency, 29.5 TFLOPS, in_features=2048, out_features=768, bias=False)
              (down_proj): Linear(1.57 M = 0.01% Params, 805.31 MMACs = 0.05% MACs, 54.84 us = 0% latency, 29.37 TFLOPS, in_features=768, out_features=2048, bias=False)
              (act_fn): SiLUActivation(0 = 0% Params, 0 MACs = 0% MACs, 38.15 us = 0% latency, 20.62 GFLOPS)
            )
            (105-117): 13 x Qwen3MoeMLP(
              4.72 M = 0.02% Params, 0 MACs = 0% MACs, 0 s = 0% latency, 0 FLOPS
              (gate_proj): Linear(1.57 M = 0.01% Params, 0 MACs = 0% MACs, 0 s = 0% latency, 0 FLOPS, in_features=2048, out_features=768, bias=False)
              (up_proj): Linear(1.57 M = 0.01% Params, 0 MACs = 0% MACs, 0 s = 0% latency, 0 FLOPS, in_features=2048, out_features=768, bias=False)
              (down_proj): Linear(1.57 M = 0.01% Params, 0 MACs = 0% MACs, 0 s = 0% latency, 0 FLOPS, in_features=768, out_features=2048, bias=False)
              (act_fn): SiLUActivation(0 = 0% Params, 0 MACs = 0% MACs, 0 s = 0% latency, 0 FLOPS)
            )
            (118): Qwen3MoeMLP(
              4.72 M = 0.02% Params, 2.42 GMACs = 0.15% MACs, 326.16 us = 0.01% latency, 14.82 TFLOPS
              (gate_proj): Linear(1.57 M = 0.01% Params, 805.31 MMACs = 0.05% MACs, 69.38 us = 0% latency, 23.21 TFLOPS, in_features=2048, out_features=768, bias=False)
              (up_proj): Linear(1.57 M = 0.01% Params, 805.31 MMACs = 0.05% MACs, 55.79 us = 0% latency, 28.87 TFLOPS, in_features=2048, out_features=768, bias=False)
              (down_proj): Linear(1.57 M = 0.01% Params, 805.31 MMACs = 0.05% MACs, 55.07 us = 0% latency, 29.24 TFLOPS, in_features=768, out_features=2048, bias=False)
              (act_fn): SiLUActivation(0 = 0% Params, 0 MACs = 0% MACs, 39.34 us = 0% latency, 19.99 GFLOPS)
            )
            (119-127): 9 x Qwen3MoeMLP(
              4.72 M = 0.02% Params, 0 MACs = 0% MACs, 0 s = 0% latency, 0 FLOPS
              (gate_proj): Linear(1.57 M = 0.01% Params, 0 MACs = 0% MACs, 0 s = 0% latency, 0 FLOPS, in_features=2048, out_features=768, bias=False)
              (up_proj): Linear(1.57 M = 0.01% Params, 0 MACs = 0% MACs, 0 s = 0% latency, 0 FLOPS, in_features=2048, out_features=768, bias=False)
              (down_proj): Linear(1.57 M = 0.01% Params, 0 MACs = 0% MACs, 0 s = 0% latency, 0 FLOPS, in_features=768, out_features=2048, bias=False)
              (act_fn): SiLUActivation(0 = 0% Params, 0 MACs = 0% MACs, 0 s = 0% latency, 0 FLOPS)
            )
          )
        )
        (input_layernorm): Qwen3MoeRMSNorm(2.05 K = 0% Params, 0 MACs = 0% MACs, 175.24 us = 0.01% latency, 3.07 TFLOPS, (2048,), eps=1e-06)
        (post_attention_layernorm): Qwen3MoeRMSNorm(2.05 K = 0% Params, 0 MACs = 0% MACs, 126.36 us = 0% latency, 4.26 TFLOPS, (2048,), eps=1e-06)
      )
      (47): Qwen3MoeDecoderLayer(
        623.12 M = 2.04% Params, 29.66 GMACs = 1.87% MACs, 47.57 ms = 1.42% latency, 1.27 TFLOPS
        (self_attn): Qwen3MoeAttention(
          18.87 M = 0.06% Params, 10.2 GMACs = 0.64% MACs, 987.53 us = 0.03% latency, 20.74 TFLOPS
          (q_proj): Linear(8.39 M = 0.03% Params, 4.29 GMACs = 0.27% MACs, 86.07 us = 0% latency, 99.8 TFLOPS, in_features=2048, out_features=4096, bias=False)
          (k_proj): Linear(1.05 M = 0% Params, 536.87 MMACs = 0.03% MACs, 74.63 us = 0% latency, 14.39 TFLOPS, in_features=2048, out_features=512, bias=False)
          (v_proj): Linear(1.05 M = 0% Params, 536.87 MMACs = 0.03% MACs, 72.96 us = 0% latency, 14.72 TFLOPS, in_features=2048, out_features=512, bias=False)
          (o_proj): Linear(8.39 M = 0.03% Params, 4.29 GMACs = 0.27% MACs, 70.81 us = 0% latency, 121.31 TFLOPS, in_features=4096, out_features=2048, bias=False)
          (q_norm): Qwen3MoeRMSNorm(128 = 0% Params, 0 MACs = 0% MACs, 129.94 us = 0% latency, 532.73 GFLOPS, (128,), eps=1e-06)
          (k_norm): Qwen3MoeRMSNorm(128 = 0% Params, 0 MACs = 0% MACs, 124.22 us = 0% latency, 69.66 GFLOPS, (128,), eps=1e-06)
        )
        (mlp): Qwen3MoeSparseMoeBlock(
          604.24 M = 1.98% Params, 19.46 GMACs = 1.23% MACs, 41.72 ms = 1.25% latency, 933.3 GFLOPS
          (gate): Linear(262.14 K = 0% Params, 134.22 MMACs = 0.01% MACs, 60.32 us = 0% latency, 4.45 TFLOPS, in_features=2048, out_features=128, bias=False)
          (experts): ModuleList(
            (0-1): 2 x Qwen3MoeMLP(
              4.72 M = 0.02% Params, 0 MACs = 0% MACs, 0 s = 0% latency, 0 FLOPS
              (gate_proj): Linear(1.57 M = 0.01% Params, 0 MACs = 0% MACs, 0 s = 0% latency, 0 FLOPS, in_features=2048, out_features=768, bias=False)
              (up_proj): Linear(1.57 M = 0.01% Params, 0 MACs = 0% MACs, 0 s = 0% latency, 0 FLOPS, in_features=2048, out_features=768, bias=False)
              (down_proj): Linear(1.57 M = 0.01% Params, 0 MACs = 0% MACs, 0 s = 0% latency, 0 FLOPS, in_features=768, out_features=2048, bias=False)
              (act_fn): SiLUActivation(0 = 0% Params, 0 MACs = 0% MACs, 0 s = 0% latency, 0 FLOPS)
            )
            (2): Qwen3MoeMLP(
              4.72 M = 0.02% Params, 2.42 GMACs = 0.15% MACs, 364.07 us = 0.01% latency, 13.28 TFLOPS
              (gate_proj): Linear(1.57 M = 0.01% Params, 805.31 MMACs = 0.05% MACs, 87.98 us = 0% latency, 18.31 TFLOPS, in_features=2048, out_features=768, bias=False)
              (up_proj): Linear(1.57 M = 0.01% Params, 805.31 MMACs = 0.05% MACs, 60.08 us = 0% latency, 26.81 TFLOPS, in_features=2048, out_features=768, bias=False)
              (down_proj): Linear(1.57 M = 0.01% Params, 805.31 MMACs = 0.05% MACs, 55.79 us = 0% latency, 28.87 TFLOPS, in_features=768, out_features=2048, bias=False)
              (act_fn): SiLUActivation(0 = 0% Params, 0 MACs = 0% MACs, 43.87 us = 0% latency, 17.93 GFLOPS)
            )
            (3-57): 55 x Qwen3MoeMLP(
              4.72 M = 0.02% Params, 0 MACs = 0% MACs, 0 s = 0% latency, 0 FLOPS
              (gate_proj): Linear(1.57 M = 0.01% Params, 0 MACs = 0% MACs, 0 s = 0% latency, 0 FLOPS, in_features=2048, out_features=768, bias=False)
              (up_proj): Linear(1.57 M = 0.01% Params, 0 MACs = 0% MACs, 0 s = 0% latency, 0 FLOPS, in_features=2048, out_features=768, bias=False)
              (down_proj): Linear(1.57 M = 0.01% Params, 0 MACs = 0% MACs, 0 s = 0% latency, 0 FLOPS, in_features=768, out_features=2048, bias=False)
              (act_fn): SiLUActivation(0 = 0% Params, 0 MACs = 0% MACs, 0 s = 0% latency, 0 FLOPS)
            )
            (58): Qwen3MoeMLP(
              4.72 M = 0.02% Params, 2.42 GMACs = 0.15% MACs, 345.71 us = 0.01% latency, 13.98 TFLOPS
              (gate_proj): Linear(1.57 M = 0.01% Params, 805.31 MMACs = 0.05% MACs, 84.4 us = 0% latency, 19.08 TFLOPS, in_features=2048, out_features=768, bias=False)
              (up_proj): Linear(1.57 M = 0.01% Params, 805.31 MMACs = 0.05% MACs, 56.98 us = 0% latency, 28.27 TFLOPS, in_features=2048, out_features=768, bias=False)
              (down_proj): Linear(1.57 M = 0.01% Params, 805.31 MMACs = 0.05% MACs, 53.41 us = 0% latency, 30.16 TFLOPS, in_features=768, out_features=2048, bias=False)
              (act_fn): SiLUActivation(0 = 0% Params, 0 MACs = 0% MACs, 39.82 us = 0% latency, 19.75 GFLOPS)
            )
            (59-60): 2 x Qwen3MoeMLP(
              4.72 M = 0.02% Params, 0 MACs = 0% MACs, 0 s = 0% latency, 0 FLOPS
              (gate_proj): Linear(1.57 M = 0.01% Params, 0 MACs = 0% MACs, 0 s = 0% latency, 0 FLOPS, in_features=2048, out_features=768, bias=False)
              (up_proj): Linear(1.57 M = 0.01% Params, 0 MACs = 0% MACs, 0 s = 0% latency, 0 FLOPS, in_features=2048, out_features=768, bias=False)
              (down_proj): Linear(1.57 M = 0.01% Params, 0 MACs = 0% MACs, 0 s = 0% latency, 0 FLOPS, in_features=768, out_features=2048, bias=False)
              (act_fn): SiLUActivation(0 = 0% Params, 0 MACs = 0% MACs, 0 s = 0% latency, 0 FLOPS)
            )
            (61): Qwen3MoeMLP(
              4.72 M = 0.02% Params, 2.42 GMACs = 0.15% MACs, 326.87 us = 0.01% latency, 14.79 TFLOPS
              (gate_proj): Linear(1.57 M = 0.01% Params, 805.31 MMACs = 0.05% MACs, 70.33 us = 0% latency, 22.9 TFLOPS, in_features=2048, out_features=768, bias=False)
              (up_proj): Linear(1.57 M = 0.01% Params, 805.31 MMACs = 0.05% MACs, 54.36 us = 0% latency, 29.63 TFLOPS, in_features=2048, out_features=768, bias=False)
              (down_proj): Linear(1.57 M = 0.01% Params, 805.31 MMACs = 0.05% MACs, 51.98 us = 0% latency, 30.99 TFLOPS, in_features=768, out_features=2048, bias=False)
              (act_fn): SiLUActivation(0 = 0% Params, 0 MACs = 0% MACs, 40.53 us = 0% latency, 19.4 GFLOPS)
            )
            (62-76): 15 x Qwen3MoeMLP(
              4.72 M = 0.02% Params, 0 MACs = 0% MACs, 0 s = 0% latency, 0 FLOPS
              (gate_proj): Linear(1.57 M = 0.01% Params, 0 MACs = 0% MACs, 0 s = 0% latency, 0 FLOPS, in_features=2048, out_features=768, bias=False)
              (up_proj): Linear(1.57 M = 0.01% Params, 0 MACs = 0% MACs, 0 s = 0% latency, 0 FLOPS, in_features=2048, out_features=768, bias=False)
              (down_proj): Linear(1.57 M = 0.01% Params, 0 MACs = 0% MACs, 0 s = 0% latency, 0 FLOPS, in_features=768, out_features=2048, bias=False)
              (act_fn): SiLUActivation(0 = 0% Params, 0 MACs = 0% MACs, 0 s = 0% latency, 0 FLOPS)
            )
            (77): Qwen3MoeMLP(
              4.72 M = 0.02% Params, 2.42 GMACs = 0.15% MACs, 324.49 us = 0.01% latency, 14.89 TFLOPS
              (gate_proj): Linear(1.57 M = 0.01% Params, 805.31 MMACs = 0.05% MACs, 68.43 us = 0% latency, 23.54 TFLOPS, in_features=2048, out_features=768, bias=False)
              (up_proj): Linear(1.57 M = 0.01% Params, 805.31 MMACs = 0.05% MACs, 55.55 us = 0% latency, 28.99 TFLOPS, in_features=2048, out_features=768, bias=False)
              (down_proj): Linear(1.57 M = 0.01% Params, 805.31 MMACs = 0.05% MACs, 53.41 us = 0% latency, 30.16 TFLOPS, in_features=768, out_features=2048, bias=False)
              (act_fn): SiLUActivation(0 = 0% Params, 0 MACs = 0% MACs, 39.58 us = 0% latency, 19.87 GFLOPS)
            )
            (78-100): 23 x Qwen3MoeMLP(
              4.72 M = 0.02% Params, 0 MACs = 0% MACs, 0 s = 0% latency, 0 FLOPS
              (gate_proj): Linear(1.57 M = 0.01% Params, 0 MACs = 0% MACs, 0 s = 0% latency, 0 FLOPS, in_features=2048, out_features=768, bias=False)
              (up_proj): Linear(1.57 M = 0.01% Params, 0 MACs = 0% MACs, 0 s = 0% latency, 0 FLOPS, in_features=2048, out_features=768, bias=False)
              (down_proj): Linear(1.57 M = 0.01% Params, 0 MACs = 0% MACs, 0 s = 0% latency, 0 FLOPS, in_features=768, out_features=2048, bias=False)
              (act_fn): SiLUActivation(0 = 0% Params, 0 MACs = 0% MACs, 0 s = 0% latency, 0 FLOPS)
            )
            (101): Qwen3MoeMLP(
              4.72 M = 0.02% Params, 2.42 GMACs = 0.15% MACs, 334.74 us = 0.01% latency, 14.44 TFLOPS
              (gate_proj): Linear(1.57 M = 0.01% Params, 805.31 MMACs = 0.05% MACs, 70.81 us = 0% latency, 22.75 TFLOPS, in_features=2048, out_features=768, bias=False)
              (up_proj): Linear(1.57 M = 0.01% Params, 805.31 MMACs = 0.05% MACs, 55.07 us = 0% latency, 29.24 TFLOPS, in_features=2048, out_features=768, bias=False)
              (down_proj): Linear(1.57 M = 0.01% Params, 805.31 MMACs = 0.05% MACs, 62.94 us = 0% latency, 25.59 TFLOPS, in_features=768, out_features=2048, bias=False)
              (act_fn): SiLUActivation(0 = 0% Params, 0 MACs = 0% MACs, 38.39 us = 0% latency, 20.49 GFLOPS)
            )
            (102-111): 10 x Qwen3MoeMLP(
              4.72 M = 0.02% Params, 0 MACs = 0% MACs, 0 s = 0% latency, 0 FLOPS
              (gate_proj): Linear(1.57 M = 0.01% Params, 0 MACs = 0% MACs, 0 s = 0% latency, 0 FLOPS, in_features=2048, out_features=768, bias=False)
              (up_proj): Linear(1.57 M = 0.01% Params, 0 MACs = 0% MACs, 0 s = 0% latency, 0 FLOPS, in_features=2048, out_features=768, bias=False)
              (down_proj): Linear(1.57 M = 0.01% Params, 0 MACs = 0% MACs, 0 s = 0% latency, 0 FLOPS, in_features=768, out_features=2048, bias=False)
              (act_fn): SiLUActivation(0 = 0% Params, 0 MACs = 0% MACs, 0 s = 0% latency, 0 FLOPS)
            )
            (112): Qwen3MoeMLP(
              4.72 M = 0.02% Params, 2.42 GMACs = 0.15% MACs, 326.16 us = 0.01% latency, 14.82 TFLOPS
              (gate_proj): Linear(1.57 M = 0.01% Params, 805.31 MMACs = 0.05% MACs, 69.86 us = 0% latency, 23.06 TFLOPS, in_features=2048, out_features=768, bias=False)
              (up_proj): Linear(1.57 M = 0.01% Params, 805.31 MMACs = 0.05% MACs, 54.6 us = 0% latency, 29.5 TFLOPS, in_features=2048, out_features=768, bias=False)
              (down_proj): Linear(1.57 M = 0.01% Params, 805.31 MMACs = 0.05% MACs, 53.41 us = 0% latency, 30.16 TFLOPS, in_features=768, out_features=2048, bias=False)
              (act_fn): SiLUActivation(0 = 0% Params, 0 MACs = 0% MACs, 39.82 us = 0% latency, 19.75 GFLOPS)
            )
            (113-115): 3 x Qwen3MoeMLP(
              4.72 M = 0.02% Params, 0 MACs = 0% MACs, 0 s = 0% latency, 0 FLOPS
              (gate_proj): Linear(1.57 M = 0.01% Params, 0 MACs = 0% MACs, 0 s = 0% latency, 0 FLOPS, in_features=2048, out_features=768, bias=False)
              (up_proj): Linear(1.57 M = 0.01% Params, 0 MACs = 0% MACs, 0 s = 0% latency, 0 FLOPS, in_features=2048, out_features=768, bias=False)
              (down_proj): Linear(1.57 M = 0.01% Params, 0 MACs = 0% MACs, 0 s = 0% latency, 0 FLOPS, in_features=768, out_features=2048, bias=False)
              (act_fn): SiLUActivation(0 = 0% Params, 0 MACs = 0% MACs, 0 s = 0% latency, 0 FLOPS)
            )
            (116): Qwen3MoeMLP(
              4.72 M = 0.02% Params, 2.42 GMACs = 0.15% MACs, 337.6 us = 0.01% latency, 14.32 TFLOPS
              (gate_proj): Linear(1.57 M = 0.01% Params, 805.31 MMACs = 0.05% MACs, 72 us = 0% latency, 22.37 TFLOPS, in_features=2048, out_features=768, bias=False)
              (up_proj): Linear(1.57 M = 0.01% Params, 805.31 MMACs = 0.05% MACs, 56.27 us = 0% latency, 28.62 TFLOPS, in_features=2048, out_features=768, bias=False)
              (down_proj): Linear(1.57 M = 0.01% Params, 805.31 MMACs = 0.05% MACs, 60.56 us = 0% latency, 26.6 TFLOPS, in_features=768, out_features=2048, bias=False)
              (act_fn): SiLUActivation(0 = 0% Params, 0 MACs = 0% MACs, 40.05 us = 0% latency, 19.63 GFLOPS)
            )
            (117-124): 8 x Qwen3MoeMLP(
              4.72 M = 0.02% Params, 0 MACs = 0% MACs, 0 s = 0% latency, 0 FLOPS
              (gate_proj): Linear(1.57 M = 0.01% Params, 0 MACs = 0% MACs, 0 s = 0% latency, 0 FLOPS, in_features=2048, out_features=768, bias=False)
              (up_proj): Linear(1.57 M = 0.01% Params, 0 MACs = 0% MACs, 0 s = 0% latency, 0 FLOPS, in_features=2048, out_features=768, bias=False)
              (down_proj): Linear(1.57 M = 0.01% Params, 0 MACs = 0% MACs, 0 s = 0% latency, 0 FLOPS, in_features=768, out_features=2048, bias=False)
              (act_fn): SiLUActivation(0 = 0% Params, 0 MACs = 0% MACs, 0 s = 0% latency, 0 FLOPS)
            )
            (125): Qwen3MoeMLP(
              4.72 M = 0.02% Params, 2.42 GMACs = 0.15% MACs, 334.5 us = 0.01% latency, 14.45 TFLOPS
              (gate_proj): Linear(1.57 M = 0.01% Params, 805.31 MMACs = 0.05% MACs, 70.57 us = 0% latency, 22.82 TFLOPS, in_features=2048, out_features=768, bias=False)
              (up_proj): Linear(1.57 M = 0.01% Params, 805.31 MMACs = 0.05% MACs, 54.84 us = 0% latency, 29.37 TFLOPS, in_features=2048, out_features=768, bias=False)
              (down_proj): Linear(1.57 M = 0.01% Params, 805.31 MMACs = 0.05% MACs, 64.85 us = 0% latency, 24.84 TFLOPS, in_features=768, out_features=2048, bias=False)
              (act_fn): SiLUActivation(0 = 0% Params, 0 MACs = 0% MACs, 39.82 us = 0% latency, 19.75 GFLOPS)
            )
            (126-127): 2 x Qwen3MoeMLP(
              4.72 M = 0.02% Params, 0 MACs = 0% MACs, 0 s = 0% latency, 0 FLOPS
              (gate_proj): Linear(1.57 M = 0.01% Params, 0 MACs = 0% MACs, 0 s = 0% latency, 0 FLOPS, in_features=2048, out_features=768, bias=False)
              (up_proj): Linear(1.57 M = 0.01% Params, 0 MACs = 0% MACs, 0 s = 0% latency, 0 FLOPS, in_features=2048, out_features=768, bias=False)
              (down_proj): Linear(1.57 M = 0.01% Params, 0 MACs = 0% MACs, 0 s = 0% latency, 0 FLOPS, in_features=768, out_features=2048, bias=False)
              (act_fn): SiLUActivation(0 = 0% Params, 0 MACs = 0% MACs, 0 s = 0% latency, 0 FLOPS)
            )
          )
        )
        (input_layernorm): Qwen3MoeRMSNorm(2.05 K = 0% Params, 0 MACs = 0% MACs, 177.38 us = 0.01% latency, 3.03 TFLOPS, (2048,), eps=1e-06)
        (post_attention_layernorm): Qwen3MoeRMSNorm(2.05 K = 0% Params, 0 MACs = 0% MACs, 121.12 us = 0% latency, 4.44 TFLOPS, (2048,), eps=1e-06)
      )
    )
    (norm): Qwen3MoeRMSNorm(2.05 K = 0% Params, 0 MACs = 0% MACs, 154.73 us = 0% latency, 3.48 TFLOPS, (2048,), eps=1e-06)
    (rotary_emb): Qwen3MoeRotaryEmbedding(0 = 0% Params, 16.38 KMACs = 0% MACs, 684.98 us = 0.02% latency, 95.68 MFLOPS)
  )
  (lm_head): Linear(311.16 M = 1.02% Params, 159.32 GMACs = 10.06% MACs, 100.14 us = 0% latency, 3182.01 TFLOPS, in_features=2048, out_features=151936, bias=False)
)
------------------------------------------------------------------------------
FLOPs: 3.22 T MACs: 1.58 TMACs Params: 30.53 B
