…
Note: 1. A module can have torch.nn.module or torch.nn.functional to compute logits (e.g. CrossEntropyLoss). They are not counted as submodules, thus not to be printed out. However they make up the difference between a parent's MACs (or latency) and the sum of its submodules'.
2. Number of floating-point operations is a theoretical estimation, thus FLOPS computed using that could be larger than the maximum system throughput.
3. The fwd latency listed in the top module's profile is directly captured at the module forward function in PyTorch, thus it's less than the fwd latency shown above which is captured in DeepSpeed.

Qwen3MoeForCausalLM(
  30.53 B = 100% Params, 1.58 TMACs = 100% MACs, 3.15 s = 100% latency, 1.01 TFLOPS
  (model): Qwen3MoeModel(
    30.22 B = 98.98% Params, 1.42 TMACs = 89.94% MACs, 3.13 s = 99.5% latency, 908.5 GFLOPS
    (embed_tokens): Embedding(311.16 M = 1.02% Params, 0 MACs = 0% MACs, 2.21 ms = 0.07% latency, 0 FLOPS, 151936, 2048)
    (layers): ModuleList(
      (0): Qwen3MoeDecoderLayer(
        623.12 M = 2.04% Params, 29.66 GMACs = 1.87% MACs, 198.62 ms = 6.3% latency, 298.7 GFLOPS
        (self_attn): Qwen3MoeAttention(
          18.87 M = 0.06% Params, 10.2 GMACs = 0.64% MACs, 18.28 ms = 0.58% latency, 1.12 TFLOPS
          (q_proj): Linear(8.39 M = 0.03% Params, 4.29 GMACs = 0.27% MACs, 2.52 ms = 0.08% latency, 3.41 TFLOPS, in_features=2048, out_features=4096, bias=False)
          (k_proj): Linear(1.05 M = 0% Params, 536.87 MMACs = 0.03% MACs, 2.55 ms = 0.08% latency, 421.17 GFLOPS, in_features=2048, out_features=512, bias=False)
          (v_proj): Linear(1.05 M = 0% Params, 536.87 MMACs = 0.03% MACs, 2.54 ms = 0.08% latency, 422.16 GFLOPS, in_features=2048, out_features=512, bias=False)
          (o_proj): Linear(8.39 M = 0.03% Params, 4.29 GMACs = 0.27% MACs, 2.6 ms = 0.08% latency, 3.31 TFLOPS, in_features=4096, out_features=2048, bias=False)
          (q_norm): Qwen3MoeRMSNorm(128 = 0% Params, 0 MACs = 0% MACs, 2.59 ms = 0.08% latency, 0 FLOPS, (128,), eps=1e-06)
          (k_norm): Qwen3MoeRMSNorm(128 = 0% Params, 0 MACs = 0% MACs, 2.59 ms = 0.08% latency, 0 FLOPS, (128,), eps=1e-06)
        )
        (mlp): Qwen3MoeSparseMoeBlock(
          604.24 M = 1.98% Params, 19.46 GMACs = 1.23% MACs, 170.74 ms = 5.42% latency, 227.99 GFLOPS
          (gate): Linear(262.14 K = 0% Params, 134.22 MMACs = 0.01% MACs, 2.46 ms = 0.08% latency, 109.33 GFLOPS, in_features=2048, out_features=128, bias=False)
          (experts): ModuleList(
            (0): Qwen3MoeMLP(
              4.72 M = 0.02% Params, 0 MACs = 0% MACs, 0 s = 0% latency, 0 FLOPS
              (gate_proj): Linear(1.57 M = 0.01% Params, 0 MACs = 0% MACs, 0 s = 0% latency, 0 FLOPS, in_features=2048, out_features=768, bias=False)
              (up_proj): Linear(1.57 M = 0.01% Params, 0 MACs = 0% MACs, 0 s = 0% latency, 0 FLOPS, in_features=2048, out_features=768, bias=False)
              (down_proj): Linear(1.57 M = 0.01% Params, 0 MACs = 0% MACs, 0 s = 0% latency, 0 FLOPS, in_features=768, out_features=2048, bias=False)
              (act_fn): SiLUActivation(0 = 0% Params, 0 MACs = 0% MACs, 0 s = 0% latency, 0 FLOPS)
            )
            (1): Qwen3MoeMLP(
              4.72 M = 0.02% Params, 2.42 GMACs = 0.15% MACs, 12.71 ms = 0.4% latency, 380.15 GFLOPS
              (gate_proj): Linear(1.57 M = 0.01% Params, 805.31 MMACs = 0.05% MACs, 2.46 ms = 0.08% latency, 654.53 GFLOPS, in_features=2048, out_features=768, bias=False)
              (up_proj): Linear(1.57 M = 0.01% Params, 805.31 MMACs = 0.05% MACs, 2.53 ms = 0.08% latency, 637.54 GFLOPS, in_features=2048, out_features=768, bias=False)
              (down_proj): Linear(1.57 M = 0.01% Params, 805.31 MMACs = 0.05% MACs, 2.55 ms = 0.08% latency, 631.29 GFLOPS, in_features=768, out_features=2048, bias=False)
              (act_fn): SiLUActivation(0 = 0% Params, 0 MACs = 0% MACs, 2.5 ms = 0.08% latency, 157.39 MFLOPS)
            )
            (2-4): 3 x Qwen3MoeMLP(
              4.72 M = 0.02% Params, 0 MACs = 0% MACs, 0 s = 0% latency, 0 FLOPS
              (gate_proj): Linear(1.57 M = 0.01% Params, 0 MACs = 0% MACs, 0 s = 0% latency, 0 FLOPS, in_features=2048, out_features=768, bias=False)
              (up_proj): Linear(1.57 M = 0.01% Params, 0 MACs = 0% MACs, 0 s = 0% latency, 0 FLOPS, in_features=2048, out_features=768, bias=False)
              (down_proj): Linear(1.57 M = 0.01% Params, 0 MACs = 0% MACs, 0 s = 0% latency, 0 FLOPS, in_features=768, out_features=2048, bias=False)
              (act_fn): SiLUActivation(0 = 0% Params, 0 MACs = 0% MACs, 0 s = 0% latency, 0 FLOPS)
            )
            (5): Qwen3MoeMLP(
              4.72 M = 0.02% Params, 2.42 GMACs = 0.15% MACs, 12.78 ms = 0.41% latency, 378.12 GFLOPS
              (gate_proj): Linear(1.57 M = 0.01% Params, 805.31 MMACs = 0.05% MACs, 2.51 ms = 0.08% latency, 641.11 GFLOPS, in_features=2048, out_features=768, bias=False)
              (up_proj): Linear(1.57 M = 0.01% Params, 805.31 MMACs = 0.05% MACs, 2.53 ms = 0.08% latency, 637.54 GFLOPS, in_features=2048, out_features=768, bias=False)
              (down_proj): Linear(1.57 M = 0.01% Params, 805.31 MMACs = 0.05% MACs, 2.57 ms = 0.08% latency, 627.59 GFLOPS, in_features=768, out_features=2048, bias=False)
              (act_fn): SiLUActivation(0 = 0% Params, 0 MACs = 0% MACs, 2.53 ms = 0.08% latency, 155.68 MFLOPS)
            )
            (6-15): 10 x Qwen3MoeMLP(
              4.72 M = 0.02% Params, 0 MACs = 0% MACs, 0 s = 0% latency, 0 FLOPS
              (gate_proj): Linear(1.57 M = 0.01% Params, 0 MACs = 0% MACs, 0 s = 0% latency, 0 FLOPS, in_features=2048, out_features=768, bias=False)
              (up_proj): Linear(1.57 M = 0.01% Params, 0 MACs = 0% MACs, 0 s = 0% latency, 0 FLOPS, in_features=2048, out_features=768, bias=False)
              (down_proj): Linear(1.57 M = 0.01% Params, 0 MACs = 0% MACs, 0 s = 0% latency, 0 FLOPS, in_features=768, out_features=2048, bias=False)
              (act_fn): SiLUActivation(0 = 0% Params, 0 MACs = 0% MACs, 0 s = 0% latency, 0 FLOPS)
            )
            (16): Qwen3MoeMLP(
              4.72 M = 0.02% Params, 2.42 GMACs = 0.15% MACs, 12.8 ms = 0.41% latency, 377.57 GFLOPS
              (gate_proj): Linear(1.57 M = 0.01% Params, 805.31 MMACs = 0.05% MACs, 2.52 ms = 0.08% latency, 638.99 GFLOPS, in_features=2048, out_features=768, bias=False)
              (up_proj): Linear(1.57 M = 0.01% Params, 805.31 MMACs = 0.05% MACs, 2.55 ms = 0.08% latency, 632.82 GFLOPS, in_features=2048, out_features=768, bias=False)
              (down_proj): Linear(1.57 M = 0.01% Params, 805.31 MMACs = 0.05% MACs, 2.55 ms = 0.08% latency, 632.65 GFLOPS, in_features=768, out_features=2048, bias=False)
              (act_fn): SiLUActivation(0 = 0% Params, 0 MACs = 0% MACs, 2.53 ms = 0.08% latency, 155.68 MFLOPS)
            )
            (17-52): 36 x Qwen3MoeMLP(
              4.72 M = 0.02% Params, 0 MACs = 0% MACs, 0 s = 0% latency, 0 FLOPS
              (gate_proj): Linear(1.57 M = 0.01% Params, 0 MACs = 0% MACs, 0 s = 0% latency, 0 FLOPS, in_features=2048, out_features=768, bias=False)
              (up_proj): Linear(1.57 M = 0.01% Params, 0 MACs = 0% MACs, 0 s = 0% latency, 0 FLOPS, in_features=2048, out_features=768, bias=False)
              (down_proj): Linear(1.57 M = 0.01% Params, 0 MACs = 0% MACs, 0 s = 0% latency, 0 FLOPS, in_features=768, out_features=2048, bias=False)
              (act_fn): SiLUActivation(0 = 0% Params, 0 MACs = 0% MACs, 0 s = 0% latency, 0 FLOPS)
            )
            (53): Qwen3MoeMLP(
              4.72 M = 0.02% Params, 2.42 GMACs = 0.15% MACs, 12.61 ms = 0.4% latency, 383.29 GFLOPS
              (gate_proj): Linear(1.57 M = 0.01% Params, 805.31 MMACs = 0.05% MACs, 2.5 ms = 0.08% latency, 643.25 GFLOPS, in_features=2048, out_features=768, bias=False)
              (up_proj): Linear(1.57 M = 0.01% Params, 805.31 MMACs = 0.05% MACs, 2.5 ms = 0.08% latency, 644.97 GFLOPS, in_features=2048, out_features=768, bias=False)
              (down_proj): Linear(1.57 M = 0.01% Params, 805.31 MMACs = 0.05% MACs, 2.51 ms = 0.08% latency, 642.76 GFLOPS, in_features=768, out_features=2048, bias=False)
              (act_fn): SiLUActivation(0 = 0% Params, 0 MACs = 0% MACs, 2.5 ms = 0.08% latency, 157.4 MFLOPS)
            )
            (54-67): 14 x Qwen3MoeMLP(
              4.72 M = 0.02% Params, 0 MACs = 0% MACs, 0 s = 0% latency, 0 FLOPS
              (gate_proj): Linear(1.57 M = 0.01% Params, 0 MACs = 0% MACs, 0 s = 0% latency, 0 FLOPS, in_features=2048, out_features=768, bias=False)
              (up_proj): Linear(1.57 M = 0.01% Params, 0 MACs = 0% MACs, 0 s = 0% latency, 0 FLOPS, in_features=2048, out_features=768, bias=False)
              (down_proj): Linear(1.57 M = 0.01% Params, 0 MACs = 0% MACs, 0 s = 0% latency, 0 FLOPS, in_features=768, out_features=2048, bias=False)
              (act_fn): SiLUActivation(0 = 0% Params, 0 MACs = 0% MACs, 0 s = 0% latency, 0 FLOPS)
            )
            (68): Qwen3MoeMLP(
              4.72 M = 0.02% Params, 2.42 GMACs = 0.15% MACs, 12.59 ms = 0.4% latency, 383.89 GFLOPS
              (gate_proj): Linear(1.57 M = 0.01% Params, 805.31 MMACs = 0.05% MACs, 2.48 ms = 0.08% latency, 650.56 GFLOPS, in_features=2048, out_features=768, bias=False)
              (up_proj): Linear(1.57 M = 0.01% Params, 805.31 MMACs = 0.05% MACs, 2.5 ms = 0.08% latency, 645.52 GFLOPS, in_features=2048, out_features=768, bias=False)
              (down_proj): Linear(1.57 M = 0.01% Params, 805.31 MMACs = 0.05% MACs, 2.52 ms = 0.08% latency, 640.38 GFLOPS, in_features=768, out_features=2048, bias=False)
              (act_fn): SiLUActivation(0 = 0% Params, 0 MACs = 0% MACs, 2.49 ms = 0.08% latency, 157.81 MFLOPS)
            )
            (69-83): 15 x Qwen3MoeMLP(
              4.72 M = 0.02% Params, 0 MACs = 0% MACs, 0 s = 0% latency, 0 FLOPS
              (gate_proj): Linear(1.57 M = 0.01% Params, 0 MACs = 0% MACs, 0 s = 0% latency, 0 FLOPS, in_features=2048, out_features=768, bias=False)
              (up_proj): Linear(1.57 M = 0.01% Params, 0 MACs = 0% MACs, 0 s = 0% latency, 0 FLOPS, in_features=2048, out_features=768, bias=False)
              (down_proj): Linear(1.57 M = 0.01% Params, 0 MACs = 0% MACs, 0 s = 0% latency, 0 FLOPS, in_features=768, out_features=2048, bias=False)
              (act_fn): SiLUActivation(0 = 0% Params, 0 MACs = 0% MACs, 0 s = 0% latency, 0 FLOPS)
            )
            (84): Qwen3MoeMLP(
              4.72 M = 0.02% Params, 2.42 GMACs = 0.15% MACs, 12.82 ms = 0.41% latency, 377.04 GFLOPS
              (gate_proj): Linear(1.57 M = 0.01% Params, 805.31 MMACs = 0.05% MACs, 2.5 ms = 0.08% latency, 644.05 GFLOPS, in_features=2048, out_features=768, bias=False)
              (up_proj): Linear(1.57 M = 0.01% Params, 805.31 MMACs = 0.05% MACs, 2.54 ms = 0.08% latency, 632.94 GFLOPS, in_features=2048, out_features=768, bias=False)
              (down_proj): Linear(1.57 M = 0.01% Params, 805.31 MMACs = 0.05% MACs, 2.57 ms = 0.08% latency, 627.59 GFLOPS, in_features=768, out_features=2048, bias=False)
              (act_fn): SiLUActivation(0 = 0% Params, 0 MACs = 0% MACs, 2.55 ms = 0.08% latency, 154.5 MFLOPS)
            )
            (85-113): 29 x Qwen3MoeMLP(
              4.72 M = 0.02% Params, 0 MACs = 0% MACs, 0 s = 0% latency, 0 FLOPS
              (gate_proj): Linear(1.57 M = 0.01% Params, 0 MACs = 0% MACs, 0 s = 0% latency, 0 FLOPS, in_features=2048, out_features=768, bias=False)
              (up_proj): Linear(1.57 M = 0.01% Params, 0 MACs = 0% MACs, 0 s = 0% latency, 0 FLOPS, in_features=2048, out_features=768, bias=False)
              (down_proj): Linear(1.57 M = 0.01% Params, 0 MACs = 0% MACs, 0 s = 0% latency, 0 FLOPS, in_features=768, out_features=2048, bias=False)
              (act_fn): SiLUActivation(0 = 0% Params, 0 MACs = 0% MACs, 0 s = 0% latency, 0 FLOPS)
            )
            (114): Qwen3MoeMLP(
              4.72 M = 0.02% Params, 2.42 GMACs = 0.15% MACs, 12.87 ms = 0.41% latency, 375.59 GFLOPS
              (gate_proj): Linear(1.57 M = 0.01% Params, 805.31 MMACs = 0.05% MACs, 2.53 ms = 0.08% latency, 636.1 GFLOPS, in_features=2048, out_features=768, bias=False)
              (up_proj): Linear(1.57 M = 0.01% Params, 805.31 MMACs = 0.05% MACs, 2.57 ms = 0.08% latency, 627.3 GFLOPS, in_features=2048, out_features=768, bias=False)
              (down_proj): Linear(1.57 M = 0.01% Params, 805.31 MMACs = 0.05% MACs, 2.56 ms = 0.08% latency, 627.94 GFLOPS, in_features=768, out_features=2048, bias=False)
              (act_fn): SiLUActivation(0 = 0% Params, 0 MACs = 0% MACs, 2.54 ms = 0.08% latency, 154.89 MFLOPS)
            )
            (115-118): 4 x Qwen3MoeMLP(
              4.72 M = 0.02% Params, 0 MACs = 0% MACs, 0 s = 0% latency, 0 FLOPS
              (gate_proj): Linear(1.57 M = 0.01% Params, 0 MACs = 0% MACs, 0 s = 0% latency, 0 FLOPS, in_features=2048, out_features=768, bias=False)
              (up_proj): Linear(1.57 M = 0.01% Params, 0 MACs = 0% MACs, 0 s = 0% latency, 0 FLOPS, in_features=2048, out_features=768, bias=False)
              (down_proj): Linear(1.57 M = 0.01% Params, 0 MACs = 0% MACs, 0 s = 0% latency, 0 FLOPS, in_features=768, out_features=2048, bias=False)
              (act_fn): SiLUActivation(0 = 0% Params, 0 MACs = 0% MACs, 0 s = 0% latency, 0 FLOPS)
            )
            (119): Qwen3MoeMLP(
              4.72 M = 0.02% Params, 2.42 GMACs = 0.15% MACs, 12.67 ms = 0.4% latency, 381.5 GFLOPS
              (gate_proj): Linear(1.57 M = 0.01% Params, 805.31 MMACs = 0.05% MACs, 2.49 ms = 0.08% latency, 646.45 GFLOPS, in_features=2048, out_features=768, bias=False)
              (up_proj): Linear(1.57 M = 0.01% Params, 805.31 MMACs = 0.05% MACs, 2.52 ms = 0.08% latency, 640.2 GFLOPS, in_features=2048, out_features=768, bias=False)
              (down_proj): Linear(1.57 M = 0.01% Params, 805.31 MMACs = 0.05% MACs, 2.54 ms = 0.08% latency, 635.26 GFLOPS, in_features=768, out_features=2048, bias=False)
              (act_fn): SiLUActivation(0 = 0% Params, 0 MACs = 0% MACs, 2.49 ms = 0.08% latency, 158.14 MFLOPS)
            )
            (120-127): 8 x Qwen3MoeMLP(
              4.72 M = 0.02% Params, 0 MACs = 0% MACs, 0 s = 0% latency, 0 FLOPS
              (gate_proj): Linear(1.57 M = 0.01% Params, 0 MACs = 0% MACs, 0 s = 0% latency, 0 FLOPS, in_features=2048, out_features=768, bias=False)
              (up_proj): Linear(1.57 M = 0.01% Params, 0 MACs = 0% MACs, 0 s = 0% latency, 0 FLOPS, in_features=2048, out_features=768, bias=False)
              (down_proj): Linear(1.57 M = 0.01% Params, 0 MACs = 0% MACs, 0 s = 0% latency, 0 FLOPS, in_features=768, out_features=2048, bias=False)
              (act_fn): SiLUActivation(0 = 0% Params, 0 MACs = 0% MACs, 0 s = 0% latency, 0 FLOPS)
            )
          )
        )
        (input_layernorm): Qwen3MoeRMSNorm(2.05 K = 0% Params, 0 MACs = 0% MACs, 1.07 ms = 0.03% latency, 0 FLOPS, (2048,), eps=1e-06)
        (post_attention_layernorm): Qwen3MoeRMSNorm(2.05 K = 0% Params, 0 MACs = 0% MACs, 2.54 ms = 0.08% latency, 0 FLOPS, (2048,), eps=1e-06)
      )
      (1): Qwen3MoeDecoderLayer(
        623.12 M = 2.04% Params, 29.66 GMACs = 1.87% MACs, 202.87 ms = 6.44% latency, 292.45 GFLOPS
        (self_attn): Qwen3MoeAttention(
          18.87 M = 0.06% Params, 10.2 GMACs = 0.64% MACs, 17.68 ms = 0.56% latency, 1.15 TFLOPS
          (q_proj): Linear(8.39 M = 0.03% Params, 4.29 GMACs = 0.27% MACs, 2.45 ms = 0.08% latency, 3.51 TFLOPS, in_features=2048, out_features=4096, bias=False)
          (k_proj): Linear(1.05 M = 0% Params, 536.87 MMACs = 0.03% MACs, 2.47 ms = 0.08% latency, 435.51 GFLOPS, in_features=2048, out_features=512, bias=False)
          (v_proj): Linear(1.05 M = 0% Params, 536.87 MMACs = 0.03% MACs, 2.47 ms = 0.08% latency, 435.13 GFLOPS, in_features=2048, out_features=512, bias=False)
          (o_proj): Linear(8.39 M = 0.03% Params, 4.29 GMACs = 0.27% MACs, 2.51 ms = 0.08% latency, 3.42 TFLOPS, in_features=4096, out_features=2048, bias=False)
          (q_norm): Qwen3MoeRMSNorm(128 = 0% Params, 0 MACs = 0% MACs, 2.51 ms = 0.08% latency, 0 FLOPS, (128,), eps=1e-06)
          (k_norm): Qwen3MoeRMSNorm(128 = 0% Params, 0 MACs = 0% MACs, 2.49 ms = 0.08% latency, 0 FLOPS, (128,), eps=1e-06)
        )
        (mlp): Qwen3MoeSparseMoeBlock(
          604.24 M = 1.98% Params, 19.46 GMACs = 1.23% MACs, 170.06 ms = 5.4% latency, 228.89 GFLOPS
          (gate): Linear(262.14 K = 0% Params, 134.22 MMACs = 0.01% MACs, 2.48 ms = 0.08% latency, 108.26 GFLOPS, in_features=2048, out_features=128, bias=False)
          (experts): ModuleList(
            (0-3): 4 x Qwen3MoeMLP(
              4.72 M = 0.02% Params, 0 MACs = 0% MACs, 0 s = 0% latency, 0 FLOPS
              (gate_proj): Linear(1.57 M = 0.01% Params, 0 MACs = 0% MACs, 0 s = 0% latency, 0 FLOPS, in_features=2048, out_features=768, bias=False)
              (up_proj): Linear(1.57 M = 0.01% Params, 0 MACs = 0% MACs, 0 s = 0% latency, 0 FLOPS, in_features=2048, out_features=768, bias=False)
              (down_proj): Linear(1.57 M = 0.01% Params, 0 MACs = 0% MACs, 0 s = 0% latency, 0 FLOPS, in_features=768, out_features=2048, bias=False)
              (act_fn): SiLUActivation(0 = 0% Params, 0 MACs = 0% MACs, 0 s = 0% latency, 0 FLOPS)
            )
            (4): Qwen3MoeMLP(
              4.72 M = 0.02% Params, 2.42 GMACs = 0.15% MACs, 12.82 ms = 0.41% latency, 377.06 GFLOPS
              (gate_proj): Linear(1.57 M = 0.01% Params, 805.31 MMACs = 0.05% MACs, 2.52 ms = 0.08% latency, 638.87 GFLOPS, in_features=2048, out_features=768, bias=False)
              (up_proj): Linear(1.57 M = 0.01% Params, 805.31 MMACs = 0.05% MACs, 2.54 ms = 0.08% latency, 633.06 GFLOPS, in_features=2048, out_features=768, bias=False)
              (down_proj): Linear(1.57 M = 0.01% Params, 805.31 MMACs = 0.05% MACs, 2.56 ms = 0.08% latency, 630.34 GFLOPS, in_features=768, out_features=2048, bias=False)
              (act_fn): SiLUActivation(0 = 0% Params, 0 MACs = 0% MACs, 2.54 ms = 0.08% latency, 154.92 MFLOPS)
            )
            (5): Qwen3MoeMLP(
              4.72 M = 0.02% Params, 2.42 GMACs = 0.15% MACs, 12.78 ms = 0.41% latency, 378 GFLOPS
              (gate_proj): Linear(1.57 M = 0.01% Params, 805.31 MMACs = 0.05% MACs, 2.53 ms = 0.08% latency, 637.3 GFLOPS, in_features=2048, out_features=768, bias=False)
              (up_proj): Linear(1.57 M = 0.01% Params, 805.31 MMACs = 0.05% MACs, 2.54 ms = 0.08% latency, 635.14 GFLOPS, in_features=2048, out_features=768, bias=False)
              (down_proj): Linear(1.57 M = 0.01% Params, 805.31 MMACs = 0.05% MACs, 2.55 ms = 0.08% latency, 632.35 GFLOPS, in_features=768, out_features=2048, bias=False)
              (act_fn): SiLUActivation(0 = 0% Params, 0 MACs = 0% MACs, 2.55 ms = 0.08% latency, 153.91 MFLOPS)
            )
            (6-54): 49 x Qwen3MoeMLP(
              4.72 M = 0.02% Params, 0 MACs = 0% MACs, 0 s = 0% latency, 0 FLOPS
              (gate_proj): Linear(1.57 M = 0.01% Params, 0 MACs = 0% MACs, 0 s = 0% latency, 0 FLOPS, in_features=2048, out_features=768, bias=False)
              (up_proj): Linear(1.57 M = 0.01% Params, 0 MACs = 0% MACs, 0 s = 0% latency, 0 FLOPS, in_features=2048, out_features=768, bias=False)
              (down_proj): Linear(1.57 M = 0.01% Params, 0 MACs = 0% MACs, 0 s = 0% latency, 0 FLOPS, in_features=768, out_features=2048, bias=False)
              (act_fn): SiLUActivation(0 = 0% Params, 0 MACs = 0% MACs, 0 s = 0% latency, 0 FLOPS)
            )
            (55): Qwen3MoeMLP(
              4.72 M = 0.02% Params, 2.42 GMACs = 0.15% MACs, 12.53 ms = 0.4% latency, 385.76 GFLOPS
              (gate_proj): Linear(1.57 M = 0.01% Params, 805.31 MMACs = 0.05% MACs, 2.46 ms = 0.08% latency, 654.34 GFLOPS, in_features=2048, out_features=768, bias=False)
              (up_proj): Linear(1.57 M = 0.01% Params, 805.31 MMACs = 0.05% MACs, 2.48 ms = 0.08% latency, 649.93 GFLOPS, in_features=2048, out_features=768, bias=False)
              (down_proj): Linear(1.57 M = 0.01% Params, 805.31 MMACs = 0.05% MACs, 2.52 ms = 0.08% latency, 639.59 GFLOPS, in_features=768, out_features=2048, bias=False)
              (act_fn): SiLUActivation(0 = 0% Params, 0 MACs = 0% MACs, 2.47 ms = 0.08% latency, 158.89 MFLOPS)
            )
            (56-67): 12 x Qwen3MoeMLP(
              4.72 M = 0.02% Params, 0 MACs = 0% MACs, 0 s = 0% latency, 0 FLOPS
              (gate_proj): Linear(1.57 M = 0.01% Params, 0 MACs = 0% MACs, 0 s = 0% latency, 0 FLOPS, in_features=2048, out_features=768, bias=False)
              (up_proj): Linear(1.57 M = 0.01% Params, 0 MACs = 0% MACs, 0 s = 0% latency, 0 FLOPS, in_features=2048, out_features=768, bias=False)
              (down_proj): Linear(1.57 M = 0.01% Params, 0 MACs = 0% MACs, 0 s = 0% latency, 0 FLOPS, in_features=768, out_features=2048, bias=False)
              (act_fn): SiLUActivation(0 = 0% Params, 0 MACs = 0% MACs, 0 s = 0% latency, 0 FLOPS)
            )
            (68): Qwen3MoeMLP(
              4.72 M = 0.02% Params, 2.42 GMACs = 0.15% MACs, 12.59 ms = 0.4% latency, 383.72 GFLOPS
              (gate_proj): Linear(1.57 M = 0.01% Params, 805.31 MMACs = 0.05% MACs, 2.47 ms = 0.08% latency, 650.93 GFLOPS, in_features=2048, out_features=768, bias=False)
              (up_proj): Linear(1.57 M = 0.01% Params, 805.31 MMACs = 0.05% MACs, 2.49 ms = 0.08% latency, 645.77 GFLOPS, in_features=2048, out_features=768, bias=False)
              (down_proj): Linear(1.57 M = 0.01% Params, 805.31 MMACs = 0.05% MACs, 2.52 ms = 0.08% latency, 639.96 GFLOPS, in_features=768, out_features=2048, bias=False)
              (act_fn): SiLUActivation(0 = 0% Params, 0 MACs = 0% MACs, 2.49 ms = 0.08% latency, 157.98 MFLOPS)
            )
            (69-81): 13 x Qwen3MoeMLP(
              4.72 M = 0.02% Params, 0 MACs = 0% MACs, 0 s = 0% latency, 0 FLOPS
              (gate_proj): Linear(1.57 M = 0.01% Params, 0 MACs = 0% MACs, 0 s = 0% latency, 0 FLOPS, in_features=2048, out_features=768, bias=False)
              (up_proj): Linear(1.57 M = 0.01% Params, 0 MACs = 0% MACs, 0 s = 0% latency, 0 FLOPS, in_features=2048, out_features=768, bias=False)
              (down_proj): Linear(1.57 M = 0.01% Params, 0 MACs = 0% MACs, 0 s = 0% latency, 0 FLOPS, in_features=768, out_features=2048, bias=False)
              (act_fn): SiLUActivation(0 = 0% Params, 0 MACs = 0% MACs, 0 s = 0% latency, 0 FLOPS)
            )
            (82): Qwen3MoeMLP(
              4.72 M = 0.02% Params, 2.42 GMACs = 0.15% MACs, 12.72 ms = 0.4% latency, 379.98 GFLOPS
              (gate_proj): Linear(1.57 M = 0.01% Params, 805.31 MMACs = 0.05% MACs, 2.5 ms = 0.08% latency, 643 GFLOPS, in_features=2048, out_features=768, bias=False)
              (up_proj): Linear(1.57 M = 0.01% Params, 805.31 MMACs = 0.05% MACs, 2.52 ms = 0.08% latency, 638.93 GFLOPS, in_features=2048, out_features=768, bias=False)
              (down_proj): Linear(1.57 M = 0.01% Params, 805.31 MMACs = 0.05% MACs, 2.54 ms = 0.08% latency, 634.79 GFLOPS, in_features=768, out_features=2048, bias=False)
              (act_fn): SiLUActivation(0 = 0% Params, 0 MACs = 0% MACs, 2.52 ms = 0.08% latency, 156.3 MFLOPS)
            )
            (83-89): 7 x Qwen3MoeMLP(
              4.72 M = 0.02% Params, 0 MACs = 0% MACs, 0 s = 0% latency, 0 FLOPS
              (gate_proj): Linear(1.57 M = 0.01% Params, 0 MACs = 0% MACs, 0 s = 0% latency, 0 FLOPS, in_features=2048, out_features=768, bias=False)
              (up_proj): Linear(1.57 M = 0.01% Params, 0 MACs = 0% MACs, 0 s = 0% latency, 0 FLOPS, in_features=2048, out_features=768, bias=False)
              (down_proj): Linear(1.57 M = 0.01% Params, 0 MACs = 0% MACs, 0 s = 0% latency, 0 FLOPS, in_features=768, out_features=2048, bias=False)
              (act_fn): SiLUActivation(0 = 0% Params, 0 MACs = 0% MACs, 0 s = 0% latency, 0 FLOPS)
            )
            (90): Qwen3MoeMLP(
              4.72 M = 0.02% Params, 2.42 GMACs = 0.15% MACs, 12.8 ms = 0.41% latency, 377.55 GFLOPS
              (gate_proj): Linear(1.57 M = 0.01% Params, 805.31 MMACs = 0.05% MACs, 2.51 ms = 0.08% latency, 641.48 GFLOPS, in_features=2048, out_features=768, bias=False)
              (up_proj): Linear(1.57 M = 0.01% Params, 805.31 MMACs = 0.05% MACs, 2.53 ms = 0.08% latency, 635.92 GFLOPS, in_features=2048, out_features=768, bias=False)
              (down_proj): Linear(1.57 M = 0.01% Params, 805.31 MMACs = 0.05% MACs, 2.57 ms = 0.08% latency, 625.96 GFLOPS, in_features=768, out_features=2048, bias=False)
              (act_fn): SiLUActivation(0 = 0% Params, 0 MACs = 0% MACs, 2.53 ms = 0.08% latency, 155.18 MFLOPS)
            )
            (91-113): 23 x Qwen3MoeMLP(
              4.72 M = 0.02% Params, 0 MACs = 0% MACs, 0 s = 0% latency, 0 FLOPS
              (gate_proj): Linear(1.57 M = 0.01% Params, 0 MACs = 0% MACs, 0 s = 0% latency, 0 FLOPS, in_features=2048, out_features=768, bias=False)
              (up_proj): Linear(1.57 M = 0.01% Params, 0 MACs = 0% MACs, 0 s = 0% latency, 0 FLOPS, in_features=2048, out_features=768, bias=False)
              (down_proj): Linear(1.57 M = 0.01% Params, 0 MACs = 0% MACs, 0 s = 0% latency, 0 FLOPS, in_features=768, out_features=2048, bias=False)
              (act_fn): SiLUActivation(0 = 0% Params, 0 MACs = 0% MACs, 0 s = 0% latency, 0 FLOPS)
            )
            (114): Qwen3MoeMLP(
              4.72 M = 0.02% Params, 2.42 GMACs = 0.15% MACs, 12.67 ms = 0.4% latency, 381.33 GFLOPS
              (gate_proj): Linear(1.57 M = 0.01% Params, 805.31 MMACs = 0.05% MACs, 2.53 ms = 0.08% latency, 637.42 GFLOPS, in_features=2048, out_features=768, bias=False)
              (up_proj): Linear(1.57 M = 0.01% Params, 805.31 MMACs = 0.05% MACs, 2.51 ms = 0.08% latency, 641.05 GFLOPS, in_features=2048, out_features=768, bias=False)
              (down_proj): Linear(1.57 M = 0.01% Params, 805.31 MMACs = 0.05% MACs, 2.51 ms = 0.08% latency, 642.33 GFLOPS, in_features=768, out_features=2048, bias=False)
              (act_fn): SiLUActivation(0 = 0% Params, 0 MACs = 0% MACs, 2.52 ms = 0.08% latency, 155.75 MFLOPS)
            )
            (115-118): 4 x Qwen3MoeMLP(
              4.72 M = 0.02% Params, 0 MACs = 0% MACs, 0 s = 0% latency, 0 FLOPS
              (gate_proj): Linear(1.57 M = 0.01% Params, 0 MACs = 0% MACs, 0 s = 0% latency, 0 FLOPS, in_features=2048, out_features=768, bias=False)
              (up_proj): Linear(1.57 M = 0.01% Params, 0 MACs = 0% MACs, 0 s = 0% latency, 0 FLOPS, in_features=2048, out_features=768, bias=False)
              (down_proj): Linear(1.57 M = 0.01% Params, 0 MACs = 0% MACs, 0 s = 0% latency, 0 FLOPS, in_features=768, out_features=2048, bias=False)
              (act_fn): SiLUActivation(0 = 0% Params, 0 MACs = 0% MACs, 0 s = 0% latency, 0 FLOPS)
            )
            (119): Qwen3MoeMLP(
              4.72 M = 0.02% Params, 2.42 GMACs = 0.15% MACs, 12.53 ms = 0.4% latency, 385.65 GFLOPS
              (gate_proj): Linear(1.57 M = 0.01% Params, 805.31 MMACs = 0.05% MACs, 2.47 ms = 0.08% latency, 651.69 GFLOPS, in_features=2048, out_features=768, bias=False)
              (up_proj): Linear(1.57 M = 0.01% Params, 805.31 MMACs = 0.05% MACs, 2.48 ms = 0.08% latency, 648.81 GFLOPS, in_features=2048, out_features=768, bias=False)
              (down_proj): Linear(1.57 M = 0.01% Params, 805.31 MMACs = 0.05% MACs, 2.5 ms = 0.08% latency, 643.8 GFLOPS, in_features=768, out_features=2048, bias=False)
              (act_fn): SiLUActivation(0 = 0% Params, 0 MACs = 0% MACs, 2.48 ms = 0.08% latency, 158.54 MFLOPS)
            )
            (120-127): 8 x Qwen3MoeMLP(
              4.72 M = 0.02% Params, 0 MACs = 0% MACs, 0 s = 0% latency, 0 FLOPS
              (gate_proj): Linear(1.57 M = 0.01% Params, 0 MACs = 0% MACs, 0 s = 0% latency, 0 FLOPS, in_features=2048, out_features=768, bias=False)
              (up_proj): Linear(1.57 M = 0.01% Params, 0 MACs = 0% MACs, 0 s = 0% latency, 0 FLOPS, in_features=2048, out_features=768, bias=False)
              (down_proj): Linear(1.57 M = 0.01% Params, 0 MACs = 0% MACs, 0 s = 0% latency, 0 FLOPS, in_features=768, out_features=2048, bias=False)
              (act_fn): SiLUActivation(0 = 0% Params, 0 MACs = 0% MACs, 0 s = 0% latency, 0 FLOPS)
            )
          )
        )
        (input_layernorm): Qwen3MoeRMSNorm(2.05 K = 0% Params, 0 MACs = 0% MACs, 2.52 ms = 0.08% latency, 0 FLOPS, (2048,), eps=1e-06)
        (post_attention_layernorm): Qwen3MoeRMSNorm(2.05 K = 0% Params, 0 MACs = 0% MACs, 2.58 ms = 0.08% latency, 0 FLOPS, (2048,), eps=1e-06)
      )
      (2): Qwen3MoeDecoderLayer(
        623.12 M = 2.04% Params, 29.66 GMACs = 1.87% MACs, 202.24 ms = 6.42% latency, 293.35 GFLOPS
        (self_attn): Qwen3MoeAttention(
          18.87 M = 0.06% Params, 10.2 GMACs = 0.64% MACs, 18.03 ms = 0.57% latency, 1.13 TFLOPS
          (q_proj): Linear(8.39 M = 0.03% Params, 4.29 GMACs = 0.27% MACs, 2.48 ms = 0.08% latency, 3.47 TFLOPS, in_features=2048, out_features=4096, bias=False)
          (k_proj): Linear(1.05 M = 0% Params, 536.87 MMACs = 0.03% MACs, 2.5 ms = 0.08% latency, 429.61 GFLOPS, in_features=2048, out_features=512, bias=False)
          (v_proj): Linear(1.05 M = 0% Params, 536.87 MMACs = 0.03% MACs, 2.53 ms = 0.08% latency, 424.87 GFLOPS, in_features=2048, out_features=512, bias=False)
          (o_proj): Linear(8.39 M = 0.03% Params, 4.29 GMACs = 0.27% MACs, 2.58 ms = 0.08% latency, 3.33 TFLOPS, in_features=4096, out_features=2048, bias=False)
          (q_norm): Qwen3MoeRMSNorm(128 = 0% Params, 0 MACs = 0% MACs, 2.55 ms = 0.08% latency, 0 FLOPS, (128,), eps=1e-06)
          (k_norm): Qwen3MoeRMSNorm(128 = 0% Params, 0 MACs = 0% MACs, 2.55 ms = 0.08% latency, 0 FLOPS, (128,), eps=1e-06)
        )
        (mlp): Qwen3MoeSparseMoeBlock(
          604.24 M = 1.98% Params, 19.46 GMACs = 1.23% MACs, 168.95 ms = 5.36% latency, 230.4 GFLOPS
          (gate): Linear(262.14 K = 0% Params, 134.22 MMACs = 0.01% MACs, 2.5 ms = 0.08% latency, 107.34 GFLOPS, in_features=2048, out_features=128, bias=False)
          (experts): ModuleList(
            (0-33): 34 x Qwen3MoeMLP(
              4.72 M = 0.02% Params, 0 MACs = 0% MACs, 0 s = 0% latency, 0 FLOPS
              (gate_proj): Linear(1.57 M = 0.01% Params, 0 MACs = 0% MACs, 0 s = 0% latency, 0 FLOPS, in_features=2048, out_features=768, bias=False)
              (up_proj): Linear(1.57 M = 0.01% Params, 0 MACs = 0% MACs, 0 s = 0% latency, 0 FLOPS, in_features=2048, out_features=768, bias=False)
              (down_proj): Linear(1.57 M = 0.01% Params, 0 MACs = 0% MACs, 0 s = 0% latency, 0 FLOPS, in_features=768, out_features=2048, bias=False)
              (act_fn): SiLUActivation(0 = 0% Params, 0 MACs = 0% MACs, 0 s = 0% latency, 0 FLOPS)
            )
            (34): Qwen3MoeMLP(
              4.72 M = 0.02% Params, 2.42 GMACs = 0.15% MACs, 12.58 ms = 0.4% latency, 384.1 GFLOPS
              (gate_proj): Linear(1.57 M = 0.01% Params, 805.31 MMACs = 0.05% MACs, 2.47 ms = 0.08% latency, 653.07 GFLOPS, in_features=2048, out_features=768, bias=False)
              (up_proj): Linear(1.57 M = 0.01% Params, 805.31 MMACs = 0.05% MACs, 2.48 ms = 0.08% latency, 649 GFLOPS, in_features=2048, out_features=768, bias=False)
              (down_proj): Linear(1.57 M = 0.01% Params, 805.31 MMACs = 0.05% MACs, 2.51 ms = 0.08% latency, 641.05 GFLOPS, in_features=768, out_features=2048, bias=False)
              (act_fn): SiLUActivation(0 = 0% Params, 0 MACs = 0% MACs, 2.5 ms = 0.08% latency, 157.1 MFLOPS)
            )
            (35): Qwen3MoeMLP(
              4.72 M = 0.02% Params, 0 MACs = 0% MACs, 0 s = 0% latency, 0 FLOPS
              (gate_proj): Linear(1.57 M = 0.01% Params, 0 MACs = 0% MACs, 0 s = 0% latency, 0 FLOPS, in_features=2048, out_features=768, bias=False)
              (up_proj): Linear(1.57 M = 0.01% Params, 0 MACs = 0% MACs, 0 s = 0% latency, 0 FLOPS, in_features=2048, out_features=768, bias=False)
              (down_proj): Linear(1.57 M = 0.01% Params, 0 MACs = 0% MACs, 0 s = 0% latency, 0 FLOPS, in_features=768, out_features=2048, bias=False)
              (act_fn): SiLUActivation(0 = 0% Params, 0 MACs = 0% MACs, 0 s = 0% latency, 0 FLOPS)
            )
            (36): Qwen3MoeMLP(
              4.72 M = 0.02% Params, 2.42 GMACs = 0.15% MACs, 12.42 ms = 0.39% latency, 389.16 GFLOPS
              (gate_proj): Linear(1.57 M = 0.01% Params, 805.31 MMACs = 0.05% MACs, 2.47 ms = 0.08% latency, 652.19 GFLOPS, in_features=2048, out_features=768, bias=False)
              (up_proj): Linear(1.57 M = 0.01% Params, 805.31 MMACs = 0.05% MACs, 2.43 ms = 0.08% latency, 664.12 GFLOPS, in_features=2048, out_features=768, bias=False)
              (down_proj): Linear(1.57 M = 0.01% Params, 805.31 MMACs = 0.05% MACs, 2.48 ms = 0.08% latency, 649.93 GFLOPS, in_features=768, out_features=2048, bias=False)
              (act_fn): SiLUActivation(0 = 0% Params, 0 MACs = 0% MACs, 2.47 ms = 0.08% latency, 159.3 MFLOPS)
            )
            (37-40): 4 x Qwen3MoeMLP(
              4.72 M = 0.02% Params, 0 MACs = 0% MACs, 0 s = 0% latency, 0 FLOPS
              (gate_proj): Linear(1.57 M = 0.01% Params, 0 MACs = 0% MACs, 0 s = 0% latency, 0 FLOPS, in_features=2048, out_features=768, bias=False)
              (up_proj): Linear(1.57 M = 0.01% Params, 0 MACs = 0% MACs, 0 s = 0% latency, 0 FLOPS, in_features=2048, out_features=768, bias=False)
              (down_proj): Linear(1.57 M = 0.01% Params, 0 MACs = 0% MACs, 0 s = 0% latency, 0 FLOPS, in_features=768, out_features=2048, bias=False)
              (act_fn): SiLUActivation(0 = 0% Params, 0 MACs = 0% MACs, 0 s = 0% latency, 0 FLOPS)
            )
            (41): Qwen3MoeMLP(
              4.72 M = 0.02% Params, 2.42 GMACs = 0.15% MACs, 12.67 ms = 0.4% latency, 381.41 GFLOPS
              (gate_proj): Linear(1.57 M = 0.01% Params, 805.31 MMACs = 0.05% MACs, 2.5 ms = 0.08% latency, 645.28 GFLOPS, in_features=2048, out_features=768, bias=False)
              (up_proj): Linear(1.57 M = 0.01% Params, 805.31 MMACs = 0.05% MACs, 2.51 ms = 0.08% latency, 641.97 GFLOPS, in_features=2048, out_features=768, bias=False)
              (down_proj): Linear(1.57 M = 0.01% Params, 805.31 MMACs = 0.05% MACs, 2.53 ms = 0.08% latency, 636.22 GFLOPS, in_features=768, out_features=2048, bias=False)
              (act_fn): SiLUActivation(0 = 0% Params, 0 MACs = 0% MACs, 2.51 ms = 0.08% latency, 156.88 MFLOPS)
            )
            (42-76): 35 x Qwen3MoeMLP(
              4.72 M = 0.02% Params, 0 MACs = 0% MACs, 0 s = 0% latency, 0 FLOPS
              (gate_proj): Linear(1.57 M = 0.01% Params, 0 MACs = 0% MACs, 0 s = 0% latency, 0 FLOPS, in_features=2048, out_features=768, bias=False)
              (up_proj): Linear(1.57 M = 0.01% Params, 0 MACs = 0% MACs, 0 s = 0% latency, 0 FLOPS, in_features=2048, out_features=768, bias=False)
              (down_proj): Linear(1.57 M = 0.01% Params, 0 MACs = 0% MACs, 0 s = 0% latency, 0 FLOPS, in_features=768, out_features=2048, bias=False)
              (act_fn): SiLUActivation(0 = 0% Params, 0 MACs = 0% MACs, 0 s = 0% latency, 0 FLOPS)
            )
            (77): Qwen3MoeMLP(
              4.72 M = 0.02% Params, 2.42 GMACs = 0.15% MACs, 12.74 ms = 0.4% latency, 379.24 GFLOPS
              (gate_proj): Linear(1.57 M = 0.01% Params, 805.31 MMACs = 0.05% MACs, 2.5 ms = 0.08% latency, 643.43 GFLOPS, in_features=2048, out_features=768, bias=False)
              (up_proj): Linear(1.57 M = 0.01% Params, 805.31 MMACs = 0.05% MACs, 2.54 ms = 0.08% latency, 634.85 GFLOPS, in_features=2048, out_features=768, bias=False)
              (down_proj): Linear(1.57 M = 0.01% Params, 805.31 MMACs = 0.05% MACs, 2.54 ms = 0.08% latency, 634.55 GFLOPS, in_features=768, out_features=2048, bias=False)
              (act_fn): SiLUActivation(0 = 0% Params, 0 MACs = 0% MACs, 2.51 ms = 0.08% latency, 156.45 MFLOPS)
            )
            (78-82): 5 x Qwen3MoeMLP(
              4.72 M = 0.02% Params, 0 MACs = 0% MACs, 0 s = 0% latency, 0 FLOPS
              (gate_proj): Linear(1.57 M = 0.01% Params, 0 MACs = 0% MACs, 0 s = 0% latency, 0 FLOPS, in_features=2048, out_features=768, bias=False)
              (up_proj): Linear(1.57 M = 0.01% Params, 0 MACs = 0% MACs, 0 s = 0% latency, 0 FLOPS, in_features=2048, out_features=768, bias=False)
              (down_proj): Linear(1.57 M = 0.01% Params, 0 MACs = 0% MACs, 0 s = 0% latency, 0 FLOPS, in_features=768, out_features=2048, bias=False)
              (act_fn): SiLUActivation(0 = 0% Params, 0 MACs = 0% MACs, 0 s = 0% latency, 0 FLOPS)
            )
            (83): Qwen3MoeMLP(
              4.72 M = 0.02% Params, 2.42 GMACs = 0.15% MACs, 12.65 ms = 0.4% latency, 381.94 GFLOPS
              (gate_proj): Linear(1.57 M = 0.01% Params, 805.31 MMACs = 0.05% MACs, 2.49 ms = 0.08% latency, 647.32 GFLOPS, in_features=2048, out_features=768, bias=False)
              (up_proj): Linear(1.57 M = 0.01% Params, 805.31 MMACs = 0.05% MACs, 2.5 ms = 0.08% latency, 644.85 GFLOPS, in_features=2048, out_features=768, bias=False)
              (down_proj): Linear(1.57 M = 0.01% Params, 805.31 MMACs = 0.05% MACs, 2.52 ms = 0.08% latency, 639.66 GFLOPS, in_features=768, out_features=2048, bias=False)
              (act_fn): SiLUActivation(0 = 0% Params, 0 MACs = 0% MACs, 2.51 ms = 0.08% latency, 156.46 MFLOPS)
            )
            (84-91): 8 x Qwen3MoeMLP(
              4.72 M = 0.02% Params, 0 MACs = 0% MACs, 0 s = 0% latency, 0 FLOPS
              (gate_proj): Linear(1.57 M = 0.01% Params, 0 MACs = 0% MACs, 0 s = 0% latency, 0 FLOPS, in_features=2048, out_features=768, bias=False)
              (up_proj): Linear(1.57 M = 0.01% Params, 0 MACs = 0% MACs, 0 s = 0% latency, 0 FLOPS, in_features=2048, out_features=768, bias=False)
              (down_proj): Linear(1.57 M = 0.01% Params, 0 MACs = 0% MACs, 0 s = 0% latency, 0 FLOPS, in_features=768, out_features=2048, bias=False)
              (act_fn): SiLUActivation(0 = 0% Params, 0 MACs = 0% MACs, 0 s = 0% latency, 0 FLOPS)
            )
            (92): Qwen3MoeMLP(
              4.72 M = 0.02% Params, 2.42 GMACs = 0.15% MACs, 12.42 ms = 0.39% latency, 388.92 GFLOPS
              (gate_proj): Linear(1.57 M = 0.01% Params, 805.31 MMACs = 0.05% MACs, 2.44 ms = 0.08% latency, 658.93 GFLOPS, in_features=2048, out_features=768, bias=False)
              (up_proj): Linear(1.57 M = 0.01% Params, 805.31 MMACs = 0.05% MACs, 2.46 ms = 0.08% latency, 654.15 GFLOPS, in_features=2048, out_features=768, bias=False)
              (down_proj): Linear(1.57 M = 0.01% Params, 805.31 MMACs = 0.05% MACs, 2.48 ms = 0.08% latency, 650.37 GFLOPS, in_features=768, out_features=2048, bias=False)
              (act_fn): SiLUActivation(0 = 0% Params, 0 MACs = 0% MACs, 2.46 ms = 0.08% latency, 159.98 MFLOPS)
            )
            (93-112): 20 x Qwen3MoeMLP(
              4.72 M = 0.02% Params, 0 MACs = 0% MACs, 0 s = 0% latency, 0 FLOPS
              (gate_proj): Linear(1.57 M = 0.01% Params, 0 MACs = 0% MACs, 0 s = 0% latency, 0 FLOPS, in_features=2048, out_features=768, bias=False)
              (up_proj): Linear(1.57 M = 0.01% Params, 0 MACs = 0% MACs, 0 s = 0% latency, 0 FLOPS, in_features=2048, out_features=768, bias=False)
              (down_proj): Linear(1.57 M = 0.01% Params, 0 MACs = 0% MACs, 0 s = 0% latency, 0 FLOPS, in_features=768, out_features=2048, bias=False)
              (act_fn): SiLUActivation(0 = 0% Params, 0 MACs = 0% MACs, 0 s = 0% latency, 0 FLOPS)
            )
            (113): Qwen3MoeMLP(
              4.72 M = 0.02% Params, 2.42 GMACs = 0.15% MACs, 12.56 ms = 0.4% latency, 384.86 GFLOPS
              (gate_proj): Linear(1.57 M = 0.01% Params, 805.31 MMACs = 0.05% MACs, 2.46 ms = 0.08% latency, 655.29 GFLOPS, in_features=2048, out_features=768, bias=False)
              (up_proj): Linear(1.57 M = 0.01% Params, 805.31 MMACs = 0.05% MACs, 2.5 ms = 0.08% latency, 644.23 GFLOPS, in_features=2048, out_features=768, bias=False)
              (down_proj): Linear(1.57 M = 0.01% Params, 805.31 MMACs = 0.05% MACs, 2.51 ms = 0.08% latency, 641.6 GFLOPS, in_features=768, out_features=2048, bias=False)
              (act_fn): SiLUActivation(0 = 0% Params, 0 MACs = 0% MACs, 2.48 ms = 0.08% latency, 158.74 MFLOPS)
            )
            (114-123): 10 x Qwen3MoeMLP(
              4.72 M = 0.02% Params, 0 MACs = 0% MACs, 0 s = 0% latency, 0 FLOPS
              (gate_proj): Linear(1.57 M = 0.01% Params, 0 MACs = 0% MACs, 0 s = 0% latency, 0 FLOPS, in_features=2048, out_features=768, bias=False)
              (up_proj): Linear(1.57 M = 0.01% Params, 0 MACs = 0% MACs, 0 s = 0% latency, 0 FLOPS, in_features=2048, out_features=768, bias=False)
              (down_proj): Linear(1.57 M = 0.01% Params, 0 MACs = 0% MACs, 0 s = 0% latency, 0 FLOPS, in_features=768, out_features=2048, bias=False)
              (act_fn): SiLUActivation(0 = 0% Params, 0 MACs = 0% MACs, 0 s = 0% latency, 0 FLOPS)
            )
            (124): Qwen3MoeMLP(
              4.72 M = 0.02% Params, 2.42 GMACs = 0.15% MACs, 12.69 ms = 0.4% latency, 380.85 GFLOPS
              (gate_proj): Linear(1.57 M = 0.01% Params, 805.31 MMACs = 0.05% MACs, 2.49 ms = 0.08% latency, 646.2 GFLOPS, in_features=2048, out_features=768, bias=False)
              (up_proj): Linear(1.57 M = 0.01% Params, 805.31 MMACs = 0.05% MACs, 2.51 ms = 0.08% latency, 640.75 GFLOPS, in_features=2048, out_features=768, bias=False)
              (down_proj): Linear(1.57 M = 0.01% Params, 805.31 MMACs = 0.05% MACs, 2.55 ms = 0.08% latency, 632.59 GFLOPS, in_features=768, out_features=2048, bias=False)
              (act_fn): SiLUActivation(0 = 0% Params, 0 MACs = 0% MACs, 2.51 ms = 0.08% latency, 156.73 MFLOPS)
            )
            (125-127): 3 x Qwen3MoeMLP(
              4.72 M = 0.02% Params, 0 MACs = 0% MACs, 0 s = 0% latency, 0 FLOPS
              (gate_proj): Linear(1.57 M = 0.01% Params, 0 MACs = 0% MACs, 0 s = 0% latency, 0 FLOPS, in_features=2048, out_features=768, bias=False)
              (up_proj): Linear(1.57 M = 0.01% Params, 0 MACs = 0% MACs, 0 s = 0% latency, 0 FLOPS, in_features=2048, out_features=768, bias=False)
              (down_proj): Linear(1.57 M = 0.01% Params, 0 MACs = 0% MACs, 0 s = 0% latency, 0 FLOPS, in_features=768, out_features=2048, bias=False)
              (act_fn): SiLUActivation(0 = 0% Params, 0 MACs = 0% MACs, 0 s = 0% latency, 0 FLOPS)
            )
          )
        )
        (input_layernorm): Qwen3MoeRMSNorm(2.05 K = 0% Params, 0 MACs = 0% MACs, 2.58 ms = 0.08% latency, 0 FLOPS, (2048,), eps=1e-06)
        (post_attention_layernorm): Qwen3MoeRMSNorm(2.05 K = 0% Params, 0 MACs = 0% MACs, 2.58 ms = 0.08% latency, 0 FLOPS, (2048,), eps=1e-06)
      )
      (3): Qwen3MoeDecoderLayer(
        623.12 M = 2.04% Params, 29.66 GMACs = 1.87% MACs, 200.09 ms = 6.35% latency, 296.51 GFLOPS
        (self_attn): Qwen3MoeAttention(
          18.87 M = 0.06% Params, 10.2 GMACs = 0.64% MACs, 17.76 ms = 0.56% latency, 1.15 TFLOPS
          (q_proj): Linear(8.39 M = 0.03% Params, 4.29 GMACs = 0.27% MACs, 2.47 ms = 0.08% latency, 3.48 TFLOPS, in_features=2048, out_features=4096, bias=False)
          (k_proj): Linear(1.05 M = 0% Params, 536.87 MMACs = 0.03% MACs, 2.52 ms = 0.08% latency, 426.84 GFLOPS, in_features=2048, out_features=512, bias=False)
          (v_proj): Linear(1.05 M = 0% Params, 536.87 MMACs = 0.03% MACs, 2.43 ms = 0.08% latency, 442.44 GFLOPS, in_features=2048, out_features=512, bias=False)
          (o_proj): Linear(8.39 M = 0.03% Params, 4.29 GMACs = 0.27% MACs, 2.5 ms = 0.08% latency, 3.43 TFLOPS, in_features=4096, out_features=2048, bias=False)
          (q_norm): Qwen3MoeRMSNorm(128 = 0% Params, 0 MACs = 0% MACs, 2.57 ms = 0.08% latency, 0 FLOPS, (128,), eps=1e-06)
          (k_norm): Qwen3MoeRMSNorm(128 = 0% Params, 0 MACs = 0% MACs, 2.52 ms = 0.08% latency, 0 FLOPS, (128,), eps=1e-06)
        )
        (mlp): Qwen3MoeSparseMoeBlock(
          604.24 M = 1.98% Params, 19.46 GMACs = 1.23% MACs, 167.24 ms = 5.31% latency, 232.76 GFLOPS
          (gate): Linear(262.14 K = 0% Params, 134.22 MMACs = 0.01% MACs, 2.45 ms = 0.08% latency, 109.48 GFLOPS, in_features=2048, out_features=128, bias=False)
          (experts): ModuleList(
            (0-11): 12 x Qwen3MoeMLP(
              4.72 M = 0.02% Params, 0 MACs = 0% MACs, 0 s = 0% latency, 0 FLOPS
              (gate_proj): Linear(1.57 M = 0.01% Params, 0 MACs = 0% MACs, 0 s = 0% latency, 0 FLOPS, in_features=2048, out_features=768, bias=False)
              (up_proj): Linear(1.57 M = 0.01% Params, 0 MACs = 0% MACs, 0 s = 0% latency, 0 FLOPS, in_features=2048, out_features=768, bias=False)
              (down_proj): Linear(1.57 M = 0.01% Params, 0 MACs = 0% MACs, 0 s = 0% latency, 0 FLOPS, in_features=768, out_features=2048, bias=False)
              (act_fn): SiLUActivation(0 = 0% Params, 0 MACs = 0% MACs, 0 s = 0% latency, 0 FLOPS)
            )
            (12): Qwen3MoeMLP(
              4.72 M = 0.02% Params, 2.42 GMACs = 0.15% MACs, 12.53 ms = 0.4% latency, 385.66 GFLOPS
              (gate_proj): Linear(1.57 M = 0.01% Params, 805.31 MMACs = 0.05% MACs, 2.46 ms = 0.08% latency, 655.55 GFLOPS, in_features=2048, out_features=768, bias=False)
              (up_proj): Linear(1.57 M = 0.01% Params, 805.31 MMACs = 0.05% MACs, 2.49 ms = 0.08% latency, 646.2 GFLOPS, in_features=2048, out_features=768, bias=False)
              (down_proj): Linear(1.57 M = 0.01% Params, 805.31 MMACs = 0.05% MACs, 2.5 ms = 0.08% latency, 643.62 GFLOPS, in_features=768, out_features=2048, bias=False)
              (act_fn): SiLUActivation(0 = 0% Params, 0 MACs = 0% MACs, 2.47 ms = 0.08% latency, 158.92 MFLOPS)
            )
            (13-42): 30 x Qwen3MoeMLP(
              4.72 M = 0.02% Params, 0 MACs = 0% MACs, 0 s = 0% latency, 0 FLOPS
              (gate_proj): Linear(1.57 M = 0.01% Params, 0 MACs = 0% MACs, 0 s = 0% latency, 0 FLOPS, in_features=2048, out_features=768, bias=False)
              (up_proj): Linear(1.57 M = 0.01% Params, 0 MACs = 0% MACs, 0 s = 0% latency, 0 FLOPS, in_features=2048, out_features=768, bias=False)
              (down_proj): Linear(1.57 M = 0.01% Params, 0 MACs = 0% MACs, 0 s = 0% latency, 0 FLOPS, in_features=768, out_features=2048, bias=False)
              (act_fn): SiLUActivation(0 = 0% Params, 0 MACs = 0% MACs, 0 s = 0% latency, 0 FLOPS)
            )
            (43): Qwen3MoeMLP(
              4.72 M = 0.02% Params, 2.42 GMACs = 0.15% MACs, 12.71 ms = 0.4% latency, 380.2 GFLOPS
              (gate_proj): Linear(1.57 M = 0.01% Params, 805.31 MMACs = 0.05% MACs, 2.48 ms = 0.08% latency, 650.12 GFLOPS, in_features=2048, out_features=768, bias=False)
              (up_proj): Linear(1.57 M = 0.01% Params, 805.31 MMACs = 0.05% MACs, 2.53 ms = 0.08% latency, 636.82 GFLOPS, in_features=2048, out_features=768, bias=False)
              (down_proj): Linear(1.57 M = 0.01% Params, 805.31 MMACs = 0.05% MACs, 2.55 ms = 0.08% latency, 630.99 GFLOPS, in_features=768, out_features=2048, bias=False)
              (act_fn): SiLUActivation(0 = 0% Params, 0 MACs = 0% MACs, 2.51 ms = 0.08% latency, 156.67 MFLOPS)
            )
            (44-81): 38 x Qwen3MoeMLP(
              4.72 M = 0.02% Params, 0 MACs = 0% MACs, 0 s = 0% latency, 0 FLOPS
              (gate_proj): Linear(1.57 M = 0.01% Params, 0 MACs = 0% MACs, 0 s = 0% latency, 0 FLOPS, in_features=2048, out_features=768, bias=False)
              (up_proj): Linear(1.57 M = 0.01% Params, 0 MACs = 0% MACs, 0 s = 0% latency, 0 FLOPS, in_features=2048, out_features=768, bias=False)
              (down_proj): Linear(1.57 M = 0.01% Params, 0 MACs = 0% MACs, 0 s = 0% latency, 0 FLOPS, in_features=768, out_features=2048, bias=False)
              (act_fn): SiLUActivation(0 = 0% Params, 0 MACs = 0% MACs, 0 s = 0% latency, 0 FLOPS)
            )
            (82): Qwen3MoeMLP(
              4.72 M = 0.02% Params, 2.42 GMACs = 0.15% MACs, 12.73 ms = 0.4% latency, 379.7 GFLOPS
              (gate_proj): Linear(1.57 M = 0.01% Params, 805.31 MMACs = 0.05% MACs, 2.49 ms = 0.08% latency, 648 GFLOPS, in_features=2048, out_features=768, bias=False)
              (up_proj): Linear(1.57 M = 0.01% Params, 805.31 MMACs = 0.05% MACs, 2.52 ms = 0.08% latency, 639.41 GFLOPS, in_features=2048, out_features=768, bias=False)
              (down_proj): Linear(1.57 M = 0.01% Params, 805.31 MMACs = 0.05% MACs, 2.55 ms = 0.08% latency, 632.77 GFLOPS, in_features=768, out_features=2048, bias=False)
              (act_fn): SiLUActivation(0 = 0% Params, 0 MACs = 0% MACs, 2.54 ms = 0.08% latency, 155.11 MFLOPS)
            )
            (83-84): 2 x Qwen3MoeMLP(
              4.72 M = 0.02% Params, 0 MACs = 0% MACs, 0 s = 0% latency, 0 FLOPS
              (gate_proj): Linear(1.57 M = 0.01% Params, 0 MACs = 0% MACs, 0 s = 0% latency, 0 FLOPS, in_features=2048, out_features=768, bias=False)
              (up_proj): Linear(1.57 M = 0.01% Params, 0 MACs = 0% MACs, 0 s = 0% latency, 0 FLOPS, in_features=2048, out_features=768, bias=False)
              (down_proj): Linear(1.57 M = 0.01% Params, 0 MACs = 0% MACs, 0 s = 0% latency, 0 FLOPS, in_features=768, out_features=2048, bias=False)
              (act_fn): SiLUActivation(0 = 0% Params, 0 MACs = 0% MACs, 0 s = 0% latency, 0 FLOPS)
            )
            (85): Qwen3MoeMLP(
              4.72 M = 0.02% Params, 2.42 GMACs = 0.15% MACs, 12.5 ms = 0.4% latency, 386.5 GFLOPS
              (gate_proj): Linear(1.57 M = 0.01% Params, 805.31 MMACs = 0.05% MACs, 2.46 ms = 0.08% latency, 655.74 GFLOPS, in_features=2048, out_features=768, bias=False)
              (up_proj): Linear(1.57 M = 0.01% Params, 805.31 MMACs = 0.05% MACs, 2.48 ms = 0.08% latency, 648.25 GFLOPS, in_features=2048, out_features=768, bias=False)
              (down_proj): Linear(1.57 M = 0.01% Params, 805.31 MMACs = 0.05% MACs, 2.49 ms = 0.08% latency, 646.57 GFLOPS, in_features=768, out_features=2048, bias=False)
              (act_fn): SiLUActivation(0 = 0% Params, 0 MACs = 0% MACs, 2.47 ms = 0.08% latency, 159.15 MFLOPS)
            )
            (86-106): 21 x Qwen3MoeMLP(
              4.72 M = 0.02% Params, 0 MACs = 0% MACs, 0 s = 0% latency, 0 FLOPS
              (gate_proj): Linear(1.57 M = 0.01% Params, 0 MACs = 0% MACs, 0 s = 0% latency, 0 FLOPS, in_features=2048, out_features=768, bias=False)
              (up_proj): Linear(1.57 M = 0.01% Params, 0 MACs = 0% MACs, 0 s = 0% latency, 0 FLOPS, in_features=2048, out_features=768, bias=False)
              (down_proj): Linear(1.57 M = 0.01% Params, 0 MACs = 0% MACs, 0 s = 0% latency, 0 FLOPS, in_features=768, out_features=2048, bias=False)
              (act_fn): SiLUActivation(0 = 0% Params, 0 MACs = 0% MACs, 0 s = 0% latency, 0 FLOPS)
            )
            (107): Qwen3MoeMLP(
              4.72 M = 0.02% Params, 2.42 GMACs = 0.15% MACs, 12.42 ms = 0.39% latency, 389.11 GFLOPS
              (gate_proj): Linear(1.57 M = 0.01% Params, 805.31 MMACs = 0.05% MACs, 2.43 ms = 0.08% latency, 661.9 GFLOPS, in_features=2048, out_features=768, bias=False)
              (up_proj): Linear(1.57 M = 0.01% Params, 805.31 MMACs = 0.05% MACs, 2.47 ms = 0.08% latency, 651.44 GFLOPS, in_features=2048, out_features=768, bias=False)
              (down_proj): Linear(1.57 M = 0.01% Params, 805.31 MMACs = 0.05% MACs, 2.48 ms = 0.08% latency, 649.75 GFLOPS, in_features=768, out_features=2048, bias=False)
              (act_fn): SiLUActivation(0 = 0% Params, 0 MACs = 0% MACs, 2.47 ms = 0.08% latency, 159.44 MFLOPS)
            )
            (108): Qwen3MoeMLP(
              4.72 M = 0.02% Params, 2.42 GMACs = 0.15% MACs, 12.36 ms = 0.39% latency, 390.88 GFLOPS
              (gate_proj): Linear(1.57 M = 0.01% Params, 805.31 MMACs = 0.05% MACs, 2.44 ms = 0.08% latency, 659.19 GFLOPS, in_features=2048, out_features=768, bias=False)
              (up_proj): Linear(1.57 M = 0.01% Params, 805.31 MMACs = 0.05% MACs, 2.45 ms = 0.08% latency, 657.08 GFLOPS, in_features=2048, out_features=768, bias=False)
              (down_proj): Linear(1.57 M = 0.01% Params, 805.31 MMACs = 0.05% MACs, 2.46 ms = 0.08% latency, 654.47 GFLOPS, in_features=768, out_features=2048, bias=False)
              (act_fn): SiLUActivation(0 = 0% Params, 0 MACs = 0% MACs, 2.45 ms = 0.08% latency, 160.61 MFLOPS)
            )
            (109): Qwen3MoeMLP(
              4.72 M = 0.02% Params, 0 MACs = 0% MACs, 0 s = 0% latency, 0 FLOPS
              (gate_proj): Linear(1.57 M = 0.01% Params, 0 MACs = 0% MACs, 0 s = 0% latency, 0 FLOPS, in_features=2048, out_features=768, bias=False)
              (up_proj): Linear(1.57 M = 0.01% Params, 0 MACs = 0% MACs, 0 s = 0% latency, 0 FLOPS, in_features=2048, out_features=768, bias=False)
              (down_proj): Linear(1.57 M = 0.01% Params, 0 MACs = 0% MACs, 0 s = 0% latency, 0 FLOPS, in_features=768, out_features=2048, bias=False)
              (act_fn): SiLUActivation(0 = 0% Params, 0 MACs = 0% MACs, 0 s = 0% latency, 0 FLOPS)
            )
            (110): Qwen3MoeMLP(
              4.72 M = 0.02% Params, 2.42 GMACs = 0.15% MACs, 12.29 ms = 0.39% latency, 393.18 GFLOPS
              (gate_proj): Linear(1.57 M = 0.01% Params, 805.31 MMACs = 0.05% MACs, 2.42 ms = 0.08% latency, 665.1 GFLOPS, in_features=2048, out_features=768, bias=False)
              (up_proj): Linear(1.57 M = 0.01% Params, 805.31 MMACs = 0.05% MACs, 2.44 ms = 0.08% latency, 660.8 GFLOPS, in_features=2048, out_features=768, bias=False)
              (down_proj): Linear(1.57 M = 0.01% Params, 805.31 MMACs = 0.05% MACs, 2.45 ms = 0.08% latency, 656.82 GFLOPS, in_features=768, out_features=2048, bias=False)
              (act_fn): SiLUActivation(0 = 0% Params, 0 MACs = 0% MACs, 2.43 ms = 0.08% latency, 162.07 MFLOPS)
            )
            (111-117): 7 x Qwen3MoeMLP(
              4.72 M = 0.02% Params, 0 MACs = 0% MACs, 0 s = 0% latency, 0 FLOPS
              (gate_proj): Linear(1.57 M = 0.01% Params, 0 MACs = 0% MACs, 0 s = 0% latency, 0 FLOPS, in_features=2048, out_features=768, bias=False)
              (up_proj): Linear(1.57 M = 0.01% Params, 0 MACs = 0% MACs, 0 s = 0% latency, 0 FLOPS, in_features=2048, out_features=768, bias=False)
              (down_proj): Linear(1.57 M = 0.01% Params, 0 MACs = 0% MACs, 0 s = 0% latency, 0 FLOPS, in_features=768, out_features=2048, bias=False)
              (act_fn): SiLUActivation(0 = 0% Params, 0 MACs = 0% MACs, 0 s = 0% latency, 0 FLOPS)
            )
            (118): Qwen3MoeMLP(
              4.72 M = 0.02% Params, 2.42 GMACs = 0.15% MACs, 12.28 ms = 0.39% latency, 393.56 GFLOPS
              (gate_proj): Linear(1.57 M = 0.01% Params, 805.31 MMACs = 0.05% MACs, 2.42 ms = 0.08% latency, 664.25 GFLOPS, in_features=2048, out_features=768, bias=False)
              (up_proj): Linear(1.57 M = 0.01% Params, 805.31 MMACs = 0.05% MACs, 2.43 ms = 0.08% latency, 663.66 GFLOPS, in_features=2048, out_features=768, bias=False)
              (down_proj): Linear(1.57 M = 0.01% Params, 805.31 MMACs = 0.05% MACs, 2.45 ms = 0.08% latency, 656.5 GFLOPS, in_features=768, out_features=2048, bias=False)
              (act_fn): SiLUActivation(0 = 0% Params, 0 MACs = 0% MACs, 2.42 ms = 0.08% latency, 162.54 MFLOPS)
            )
            (119-127): 9 x Qwen3MoeMLP(
              4.72 M = 0.02% Params, 0 MACs = 0% MACs, 0 s = 0% latency, 0 FLOPS
              (gate_proj): Linear(1.57 M = 0.01% Params, 0 MACs = 0% MACs, 0 s = 0% latency, 0 FLOPS, in_features=2048, out_features=768, bias=False)
              (up_proj): Linear(1.57 M = 0.01% Params, 0 MACs = 0% MACs, 0 s = 0% latency, 0 FLOPS, in_features=2048, out_features=768, bias=False)
              (down_proj): Linear(1.57 M = 0.01% Params, 0 MACs = 0% MACs, 0 s = 0% latency, 0 FLOPS, in_features=768, out_features=2048, bias=False)
              (act_fn): SiLUActivation(0 = 0% Params, 0 MACs = 0% MACs, 0 s = 0% latency, 0 FLOPS)
            )
          )
        )
        (input_layernorm): Qwen3MoeRMSNorm(2.05 K = 0% Params, 0 MACs = 0% MACs, 2.58 ms = 0.08% latency, 0 FLOPS, (2048,), eps=1e-06)
        (post_attention_layernorm): Qwen3MoeRMSNorm(2.05 K = 0% Params, 0 MACs = 0% MACs, 2.52 ms = 0.08% latency, 0 FLOPS, (2048,), eps=1e-06)
      )
      (4): Qwen3MoeDecoderLayer(
        623.12 M = 2.04% Params, 29.66 GMACs = 1.87% MACs, 198.27 ms = 6.29% latency, 299.23 GFLOPS
        (self_attn): Qwen3MoeAttention(
          18.87 M = 0.06% Params, 10.2 GMACs = 0.64% MACs, 17.43 ms = 0.55% latency, 1.17 TFLOPS
          (q_proj): Linear(8.39 M = 0.03% Params, 4.29 GMACs = 0.27% MACs, 2.4 ms = 0.08% latency, 3.58 TFLOPS, in_features=2048, out_features=4096, bias=False)
          (k_proj): Linear(1.05 M = 0% Params, 536.87 MMACs = 0.03% MACs, 2.43 ms = 0.08% latency, 442.61 GFLOPS, in_features=2048, out_features=512, bias=False)
          (v_proj): Linear(1.05 M = 0% Params, 536.87 MMACs = 0.03% MACs, 2.46 ms = 0.08% latency, 437.16 GFLOPS, in_features=2048, out_features=512, bias=False)
          (o_proj): Linear(8.39 M = 0.03% Params, 4.29 GMACs = 0.27% MACs, 2.49 ms = 0.08% latency, 3.45 TFLOPS, in_features=4096, out_features=2048, bias=False)
          (q_norm): Qwen3MoeRMSNorm(128 = 0% Params, 0 MACs = 0% MACs, 2.48 ms = 0.08% latency, 0 FLOPS, (128,), eps=1e-06)
          (k_norm): Qwen3MoeRMSNorm(128 = 0% Params, 0 MACs = 0% MACs, 2.47 ms = 0.08% latency, 0 FLOPS, (128,), eps=1e-06)
        )
        (mlp): Qwen3MoeSparseMoeBlock(
          604.24 M = 1.98% Params, 19.46 GMACs = 1.23% MACs, 166.03 ms = 5.27% latency, 234.46 GFLOPS
          (gate): Linear(262.14 K = 0% Params, 134.22 MMACs = 0.01% MACs, 2.42 ms = 0.08% latency, 111.1 GFLOPS, in_features=2048, out_features=128, bias=False)
          (experts): ModuleList(
            (0-14): 15 x Qwen3MoeMLP(
              4.72 M = 0.02% Params, 0 MACs = 0% MACs, 0 s = 0% latency, 0 FLOPS
              (gate_proj): Linear(1.57 M = 0.01% Params, 0 MACs = 0% MACs, 0 s = 0% latency, 0 FLOPS, in_features=2048, out_features=768, bias=False)
              (up_proj): Linear(1.57 M = 0.01% Params, 0 MACs = 0% MACs, 0 s = 0% latency, 0 FLOPS, in_features=2048, out_features=768, bias=False)
              (down_proj): Linear(1.57 M = 0.01% Params, 0 MACs = 0% MACs, 0 s = 0% latency, 0 FLOPS, in_features=768, out_features=2048, bias=False)
              (act_fn): SiLUActivation(0 = 0% Params, 0 MACs = 0% MACs, 0 s = 0% latency, 0 FLOPS)
            )
            (15): Qwen3MoeMLP(
              4.72 M = 0.02% Params, 2.42 GMACs = 0.15% MACs, 12.41 ms = 0.39% latency, 389.29 GFLOPS
              (gate_proj): Linear(1.57 M = 0.01% Params, 805.31 MMACs = 0.05% MACs, 2.44 ms = 0.08% latency, 660.61 GFLOPS, in_features=2048, out_features=768, bias=False)
              (up_proj): Linear(1.57 M = 0.01% Params, 805.31 MMACs = 0.05% MACs, 2.47 ms = 0.08% latency, 653.26 GFLOPS, in_features=2048, out_features=768, bias=False)
              (down_proj): Linear(1.57 M = 0.01% Params, 805.31 MMACs = 0.05% MACs, 2.48 ms = 0.08% latency, 650.06 GFLOPS, in_features=768, out_features=2048, bias=False)
              (act_fn): SiLUActivation(0 = 0% Params, 0 MACs = 0% MACs, 2.45 ms = 0.08% latency, 160.34 MFLOPS)
            )
            (16): Qwen3MoeMLP(
              4.72 M = 0.02% Params, 2.42 GMACs = 0.15% MACs, 12.39 ms = 0.39% latency, 389.89 GFLOPS
              (gate_proj): Linear(1.57 M = 0.01% Params, 805.31 MMACs = 0.05% MACs, 2.44 ms = 0.08% latency, 658.87 GFLOPS, in_features=2048, out_features=768, bias=False)
              (up_proj): Linear(1.57 M = 0.01% Params, 805.31 MMACs = 0.05% MACs, 2.46 ms = 0.08% latency, 655.93 GFLOPS, in_features=2048, out_features=768, bias=False)
              (down_proj): Linear(1.57 M = 0.01% Params, 805.31 MMACs = 0.05% MACs, 2.48 ms = 0.08% latency, 649.68 GFLOPS, in_features=768, out_features=2048, bias=False)
              (act_fn): SiLUActivation(0 = 0% Params, 0 MACs = 0% MACs, 2.45 ms = 0.08% latency, 160.45 MFLOPS)
            )
            (17-18): 2 x Qwen3MoeMLP(
              4.72 M = 0.02% Params, 0 MACs = 0% MACs, 0 s = 0% latency, 0 FLOPS
              (gate_proj): Linear(1.57 M = 0.01% Params, 0 MACs = 0% MACs, 0 s = 0% latency, 0 FLOPS, in_features=2048, out_features=768, bias=False)
              (up_proj): Linear(1.57 M = 0.01% Params, 0 MACs = 0% MACs, 0 s = 0% latency, 0 FLOPS, in_features=2048, out_features=768, bias=False)
              (down_proj): Linear(1.57 M = 0.01% Params, 0 MACs = 0% MACs, 0 s = 0% latency, 0 FLOPS, in_features=768, out_features=2048, bias=False)
              (act_fn): SiLUActivation(0 = 0% Params, 0 MACs = 0% MACs, 0 s = 0% latency, 0 FLOPS)
            )
            (19): Qwen3MoeMLP(
              4.72 M = 0.02% Params, 2.42 GMACs = 0.15% MACs, 12.43 ms = 0.39% latency, 388.76 GFLOPS
              (gate_proj): Linear(1.57 M = 0.01% Params, 805.31 MMACs = 0.05% MACs, 2.43 ms = 0.08% latency, 661.45 GFLOPS, in_features=2048, out_features=768, bias=False)
              (up_proj): Linear(1.57 M = 0.01% Params, 805.31 MMACs = 0.05% MACs, 2.47 ms = 0.08% latency, 652.51 GFLOPS, in_features=2048, out_features=768, bias=False)
              (down_proj): Linear(1.57 M = 0.01% Params, 805.31 MMACs = 0.05% MACs, 2.49 ms = 0.08% latency, 647.75 GFLOPS, in_features=768, out_features=2048, bias=False)
              (act_fn): SiLUActivation(0 = 0% Params, 0 MACs = 0% MACs, 2.46 ms = 0.08% latency, 160.03 MFLOPS)
            )
            (20-42): 23 x Qwen3MoeMLP(
              4.72 M = 0.02% Params, 0 MACs = 0% MACs, 0 s = 0% latency, 0 FLOPS
              (gate_proj): Linear(1.57 M = 0.01% Params, 0 MACs = 0% MACs, 0 s = 0% latency, 0 FLOPS, in_features=2048, out_features=768, bias=False)
              (up_proj): Linear(1.57 M = 0.01% Params, 0 MACs = 0% MACs, 0 s = 0% latency, 0 FLOPS, in_features=2048, out_features=768, bias=False)
              (down_proj): Linear(1.57 M = 0.01% Params, 0 MACs = 0% MACs, 0 s = 0% latency, 0 FLOPS, in_features=768, out_features=2048, bias=False)
              (act_fn): SiLUActivation(0 = 0% Params, 0 MACs = 0% MACs, 0 s = 0% latency, 0 FLOPS)
            )
            (43): Qwen3MoeMLP(
              4.72 M = 0.02% Params, 2.42 GMACs = 0.15% MACs, 12.41 ms = 0.39% latency, 389.38 GFLOPS
              (gate_proj): Linear(1.57 M = 0.01% Params, 805.31 MMACs = 0.05% MACs, 2.45 ms = 0.08% latency, 657.59 GFLOPS, in_features=2048, out_features=768, bias=False)
              (up_proj): Linear(1.57 M = 0.01% Params, 805.31 MMACs = 0.05% MACs, 2.46 ms = 0.08% latency, 653.58 GFLOPS, in_features=2048, out_features=768, bias=False)
              (down_proj): Linear(1.57 M = 0.01% Params, 805.31 MMACs = 0.05% MACs, 2.48 ms = 0.08% latency, 650.18 GFLOPS, in_features=768, out_features=2048, bias=False)
              (act_fn): SiLUActivation(0 = 0% Params, 0 MACs = 0% MACs, 2.45 ms = 0.08% latency, 160.25 MFLOPS)
            )
            (44-63): 20 x Qwen3MoeMLP(
              4.72 M = 0.02% Params, 0 MACs = 0% MACs, 0 s = 0% latency, 0 FLOPS
              (gate_proj): Linear(1.57 M = 0.01% Params, 0 MACs = 0% MACs, 0 s = 0% latency, 0 FLOPS, in_features=2048, out_features=768, bias=False)
              (up_proj): Linear(1.57 M = 0.01% Params, 0 MACs = 0% MACs, 0 s = 0% latency, 0 FLOPS, in_features=2048, out_features=768, bias=False)
              (down_proj): Linear(1.57 M = 0.01% Params, 0 MACs = 0% MACs, 0 s = 0% latency, 0 FLOPS, in_features=768, out_features=2048, bias=False)
              (act_fn): SiLUActivation(0 = 0% Params, 0 MACs = 0% MACs, 0 s = 0% latency, 0 FLOPS)
            )
            (64): Qwen3MoeMLP(
              4.72 M = 0.02% Params, 2.42 GMACs = 0.15% MACs, 12.4 ms = 0.39% latency, 389.8 GFLOPS
              (gate_proj): Linear(1.57 M = 0.01% Params, 805.31 MMACs = 0.05% MACs, 2.44 ms = 0.08% latency, 658.81 GFLOPS, in_features=2048, out_features=768, bias=False)
              (up_proj): Linear(1.57 M = 0.01% Params, 805.31 MMACs = 0.05% MACs, 2.47 ms = 0.08% latency, 652.82 GFLOPS, in_features=2048, out_features=768, bias=False)
              (down_proj): Linear(1.57 M = 0.01% Params, 805.31 MMACs = 0.05% MACs, 2.47 ms = 0.08% latency, 651.81 GFLOPS, in_features=768, out_features=2048, bias=False)
              (act_fn): SiLUActivation(0 = 0% Params, 0 MACs = 0% MACs, 2.45 ms = 0.08% latency, 160.76 MFLOPS)
            )
            (65-70): 6 x Qwen3MoeMLP(
              4.72 M = 0.02% Params, 0 MACs = 0% MACs, 0 s = 0% latency, 0 FLOPS
              (gate_proj): Linear(1.57 M = 0.01% Params, 0 MACs = 0% MACs, 0 s = 0% latency, 0 FLOPS, in_features=2048, out_features=768, bias=False)
              (up_proj): Linear(1.57 M = 0.01% Params, 0 MACs = 0% MACs, 0 s = 0% latency, 0 FLOPS, in_features=2048, out_features=768, bias=False)
              (down_proj): Linear(1.57 M = 0.01% Params, 0 MACs = 0% MACs, 0 s = 0% latency, 0 FLOPS, in_features=768, out_features=2048, bias=False)
              (act_fn): SiLUActivation(0 = 0% Params, 0 MACs = 0% MACs, 0 s = 0% latency, 0 FLOPS)
            )
            (71): Qwen3MoeMLP(
              4.72 M = 0.02% Params, 2.42 GMACs = 0.15% MACs, 12.35 ms = 0.39% latency, 391.29 GFLOPS
              (gate_proj): Linear(1.57 M = 0.01% Params, 805.31 MMACs = 0.05% MACs, 2.43 ms = 0.08% latency, 662.49 GFLOPS, in_features=2048, out_features=768, bias=False)
              (up_proj): Linear(1.57 M = 0.01% Params, 805.31 MMACs = 0.05% MACs, 2.44 ms = 0.08% latency, 658.87 GFLOPS, in_features=2048, out_features=768, bias=False)
              (down_proj): Linear(1.57 M = 0.01% Params, 805.31 MMACs = 0.05% MACs, 2.47 ms = 0.08% latency, 652.19 GFLOPS, in_features=768, out_features=2048, bias=False)
              (act_fn): SiLUActivation(0 = 0% Params, 0 MACs = 0% MACs, 2.44 ms = 0.08% latency, 161.16 MFLOPS)
            )
            (72-83): 12 x Qwen3MoeMLP(
              4.72 M = 0.02% Params, 0 MACs = 0% MACs, 0 s = 0% latency, 0 FLOPS
              (gate_proj): Linear(1.57 M = 0.01% Params, 0 MACs = 0% MACs, 0 s = 0% latency, 0 FLOPS, in_features=2048, out_features=768, bias=False)
              (up_proj): Linear(1.57 M = 0.01% Params, 0 MACs = 0% MACs, 0 s = 0% latency, 0 FLOPS, in_features=2048, out_features=768, bias=False)
              (down_proj): Linear(1.57 M = 0.01% Params, 0 MACs = 0% MACs, 0 s = 0% latency, 0 FLOPS, in_features=768, out_features=2048, bias=False)
              (act_fn): SiLUActivation(0 = 0% Params, 0 MACs = 0% MACs, 0 s = 0% latency, 0 FLOPS)
            )
            (84): Qwen3MoeMLP(
              4.72 M = 0.02% Params, 2.42 GMACs = 0.15% MACs, 12.32 ms = 0.39% latency, 392.16 GFLOPS
              (gate_proj): Linear(1.57 M = 0.01% Params, 805.31 MMACs = 0.05% MACs, 2.43 ms = 0.08% latency, 663.6 GFLOPS, in_features=2048, out_features=768, bias=False)
              (up_proj): Linear(1.57 M = 0.01% Params, 805.31 MMACs = 0.05% MACs, 2.43 ms = 0.08% latency, 661.78 GFLOPS, in_features=2048, out_features=768, bias=False)
              (down_proj): Linear(1.57 M = 0.01% Params, 805.31 MMACs = 0.05% MACs, 2.47 ms = 0.08% latency, 652.07 GFLOPS, in_features=768, out_features=2048, bias=False)
              (act_fn): SiLUActivation(0 = 0% Params, 0 MACs = 0% MACs, 2.44 ms = 0.08% latency, 161.06 MFLOPS)
            )
            (85-125): 41 x Qwen3MoeMLP(
              4.72 M = 0.02% Params, 0 MACs = 0% MACs, 0 s = 0% latency, 0 FLOPS
              (gate_proj): Linear(1.57 M = 0.01% Params, 0 MACs = 0% MACs, 0 s = 0% latency, 0 FLOPS, in_features=2048, out_features=768, bias=False)
              (up_proj): Linear(1.57 M = 0.01% Params, 0 MACs = 0% MACs, 0 s = 0% latency, 0 FLOPS, in_features=2048, out_features=768, bias=False)
              (down_proj): Linear(1.57 M = 0.01% Params, 0 MACs = 0% MACs, 0 s = 0% latency, 0 FLOPS, in_features=768, out_features=2048, bias=False)
              (act_fn): SiLUActivation(0 = 0% Params, 0 MACs = 0% MACs, 0 s = 0% latency, 0 FLOPS)
            )
            (126): Qwen3MoeMLP(
              4.72 M = 0.02% Params, 2.42 GMACs = 0.15% MACs, 12.34 ms = 0.39% latency, 391.44 GFLOPS
              (gate_proj): Linear(1.57 M = 0.01% Params, 805.31 MMACs = 0.05% MACs, 2.43 ms = 0.08% latency, 663.66 GFLOPS, in_features=2048, out_features=768, bias=False)
              (up_proj): Linear(1.57 M = 0.01% Params, 805.31 MMACs = 0.05% MACs, 2.45 ms = 0.08% latency, 657.91 GFLOPS, in_features=2048, out_features=768, bias=False)
              (down_proj): Linear(1.57 M = 0.01% Params, 805.31 MMACs = 0.05% MACs, 2.47 ms = 0.08% latency, 652.63 GFLOPS, in_features=768, out_features=2048, bias=False)
              (act_fn): SiLUActivation(0 = 0% Params, 0 MACs = 0% MACs, 2.45 ms = 0.08% latency, 160.48 MFLOPS)
            )
            (127): Qwen3MoeMLP(
              4.72 M = 0.02% Params, 0 MACs = 0% MACs, 0 s = 0% latency, 0 FLOPS
              (gate_proj): Linear(1.57 M = 0.01% Params, 0 MACs = 0% MACs, 0 s = 0% latency, 0 FLOPS, in_features=2048, out_features=768, bias=False)
              (up_proj): Linear(1.57 M = 0.01% Params, 0 MACs = 0% MACs, 0 s = 0% latency, 0 FLOPS, in_features=2048, out_features=768, bias=False)
              (down_proj): Linear(1.57 M = 0.01% Params, 0 MACs = 0% MACs, 0 s = 0% latency, 0 FLOPS, in_features=768, out_features=2048, bias=False)
              (act_fn): SiLUActivation(0 = 0% Params, 0 MACs = 0% MACs, 0 s = 0% latency, 0 FLOPS)
            )
          )
        )
        (input_layernorm): Qwen3MoeRMSNorm(2.05 K = 0% Params, 0 MACs = 0% MACs, 2.49 ms = 0.08% latency, 0 FLOPS, (2048,), eps=1e-06)
        (post_attention_layernorm): Qwen3MoeRMSNorm(2.05 K = 0% Params, 0 MACs = 0% MACs, 2.48 ms = 0.08% latency, 0 FLOPS, (2048,), eps=1e-06)
      )
      (5): Qwen3MoeDecoderLayer(
        623.12 M = 2.04% Params, 29.66 GMACs = 1.87% MACs, 130.34 ms = 4.14% latency, 455.18 GFLOPS
        (self_attn): Qwen3MoeAttention(
          18.87 M = 0.06% Params, 10.2 GMACs = 0.64% MACs, 17.37 ms = 0.55% latency, 1.17 TFLOPS
          (q_proj): Linear(8.39 M = 0.03% Params, 4.29 GMACs = 0.27% MACs, 2.4 ms = 0.08% latency, 3.57 TFLOPS, in_features=2048, out_features=4096, bias=False)
          (k_proj): Linear(1.05 M = 0% Params, 536.87 MMACs = 0.03% MACs, 2.43 ms = 0.08% latency, 441.53 GFLOPS, in_features=2048, out_features=512, bias=False)
          (v_proj): Linear(1.05 M = 0% Params, 536.87 MMACs = 0.03% MACs, 2.43 ms = 0.08% latency, 442.14 GFLOPS, in_features=2048, out_features=512, bias=False)
          (o_proj): Linear(8.39 M = 0.03% Params, 4.29 GMACs = 0.27% MACs, 2.46 ms = 0.08% latency, 3.49 TFLOPS, in_features=4096, out_features=2048, bias=False)
          (q_norm): Qwen3MoeRMSNorm(128 = 0% Params, 0 MACs = 0% MACs, 2.48 ms = 0.08% latency, 0 FLOPS, (128,), eps=1e-06)
          (k_norm): Qwen3MoeRMSNorm(128 = 0% Params, 0 MACs = 0% MACs, 2.46 ms = 0.08% latency, 0 FLOPS, (128,), eps=1e-06)
        )
        (mlp): Qwen3MoeSparseMoeBlock(
          604.24 M = 1.98% Params, 19.46 GMACs = 1.23% MACs, 100.6 ms = 3.19% latency, 386.95 GFLOPS
          (gate): Linear(262.14 K = 0% Params, 134.22 MMACs = 0.01% MACs, 2.4 ms = 0.08% latency, 111.86 GFLOPS, in_features=2048, out_features=128, bias=False)
          (experts): ModuleList(
            (0-7): 8 x Qwen3MoeMLP(
              4.72 M = 0.02% Params, 0 MACs = 0% MACs, 0 s = 0% latency, 0 FLOPS
              (gate_proj): Linear(1.57 M = 0.01% Params, 0 MACs = 0% MACs, 0 s = 0% latency, 0 FLOPS, in_features=2048, out_features=768, bias=False)
              (up_proj): Linear(1.57 M = 0.01% Params, 0 MACs = 0% MACs, 0 s = 0% latency, 0 FLOPS, in_features=2048, out_features=768, bias=False)
              (down_proj): Linear(1.57 M = 0.01% Params, 0 MACs = 0% MACs, 0 s = 0% latency, 0 FLOPS, in_features=768, out_features=2048, bias=False)
              (act_fn): SiLUActivation(0 = 0% Params, 0 MACs = 0% MACs, 0 s = 0% latency, 0 FLOPS)
            )
            (8): Qwen3MoeMLP(
              4.72 M = 0.02% Params, 2.42 GMACs = 0.15% MACs, 12.27 ms = 0.39% latency, 393.84 GFLOPS
              (gate_proj): Linear(1.57 M = 0.01% Params, 805.31 MMACs = 0.05% MACs, 2.35 ms = 0.07% latency, 684.16 GFLOPS, in_features=2048, out_features=768, bias=False)
              (up_proj): Linear(1.57 M = 0.01% Params, 805.31 MMACs = 0.05% MACs, 2.41 ms = 0.08% latency, 668.06 GFLOPS, in_features=2048, out_features=768, bias=False)
              (down_proj): Linear(1.57 M = 0.01% Params, 805.31 MMACs = 0.05% MACs, 2.47 ms = 0.08% latency, 652.32 GFLOPS, in_features=768, out_features=2048, bias=False)
              (act_fn): SiLUActivation(0 = 0% Params, 0 MACs = 0% MACs, 2.44 ms = 0.08% latency, 160.87 MFLOPS)
            )
            (9-25): 17 x Qwen3MoeMLP(
              4.72 M = 0.02% Params, 0 MACs = 0% MACs, 0 s = 0% latency, 0 FLOPS
              (gate_proj): Linear(1.57 M = 0.01% Params, 0 MACs = 0% MACs, 0 s = 0% latency, 0 FLOPS, in_features=2048, out_features=768, bias=False)
              (up_proj): Linear(1.57 M = 0.01% Params, 0 MACs = 0% MACs, 0 s = 0% latency, 0 FLOPS, in_features=2048, out_features=768, bias=False)
              (down_proj): Linear(1.57 M = 0.01% Params, 0 MACs = 0% MACs, 0 s = 0% latency, 0 FLOPS, in_features=768, out_features=2048, bias=False)
              (act_fn): SiLUActivation(0 = 0% Params, 0 MACs = 0% MACs, 0 s = 0% latency, 0 FLOPS)
            )
            (26): Qwen3MoeMLP(
              4.72 M = 0.02% Params, 2.42 GMACs = 0.15% MACs, 12.24 ms = 0.39% latency, 394.78 GFLOPS
              (gate_proj): Linear(1.57 M = 0.01% Params, 805.31 MMACs = 0.05% MACs, 2.4 ms = 0.08% latency, 671.71 GFLOPS, in_features=2048, out_features=768, bias=False)
              (up_proj): Linear(1.57 M = 0.01% Params, 805.31 MMACs = 0.05% MACs, 2.43 ms = 0.08% latency, 662.1 GFLOPS, in_features=2048, out_features=768, bias=False)
              (down_proj): Linear(1.57 M = 0.01% Params, 805.31 MMACs = 0.05% MACs, 2.45 ms = 0.08% latency, 657.01 GFLOPS, in_features=768, out_features=2048, bias=False)
              (act_fn): SiLUActivation(0 = 0% Params, 0 MACs = 0% MACs, 2.42 ms = 0.08% latency, 162.79 MFLOPS)
            )
            (27-37): 11 x Qwen3MoeMLP(
              4.72 M = 0.02% Params, 0 MACs = 0% MACs, 0 s = 0% latency, 0 FLOPS
              (gate_proj): Linear(1.57 M = 0.01% Params, 0 MACs = 0% MACs, 0 s = 0% latency, 0 FLOPS, in_features=2048, out_features=768, bias=False)
              (up_proj): Linear(1.57 M = 0.01% Params, 0 MACs = 0% MACs, 0 s = 0% latency, 0 FLOPS, in_features=2048, out_features=768, bias=False)
              (down_proj): Linear(1.57 M = 0.01% Params, 0 MACs = 0% MACs, 0 s = 0% latency, 0 FLOPS, in_features=768, out_features=2048, bias=False)
              (act_fn): SiLUActivation(0 = 0% Params, 0 MACs = 0% MACs, 0 s = 0% latency, 0 FLOPS)
            )
            (38): Qwen3MoeMLP(
              4.72 M = 0.02% Params, 2.42 GMACs = 0.15% MACs, 12.24 ms = 0.39% latency, 394.85 GFLOPS
              (gate_proj): Linear(1.57 M = 0.01% Params, 805.31 MMACs = 0.05% MACs, 2.41 ms = 0.08% latency, 667.07 GFLOPS, in_features=2048, out_features=768, bias=False)
              (up_proj): Linear(1.57 M = 0.01% Params, 805.31 MMACs = 0.05% MACs, 2.39 ms = 0.08% latency, 673.79 GFLOPS, in_features=2048, out_features=768, bias=False)
              (down_proj): Linear(1.57 M = 0.01% Params, 805.31 MMACs = 0.05% MACs, 2.45 ms = 0.08% latency, 657.59 GFLOPS, in_features=768, out_features=2048, bias=False)
              (act_fn): SiLUActivation(0 = 0% Params, 0 MACs = 0% MACs, 2.43 ms = 0.08% latency, 162.06 MFLOPS)
            )
            (39-45): 7 x Qwen3MoeMLP(
              4.72 M = 0.02% Params, 0 MACs = 0% MACs, 0 s = 0% latency, 0 FLOPS
              (gate_proj): Linear(1.57 M = 0.01% Params, 0 MACs = 0% MACs, 0 s = 0% latency, 0 FLOPS, in_features=2048, out_features=768, bias=False)
              (up_proj): Linear(1.57 M = 0.01% Params, 0 MACs = 0% MACs, 0 s = 0% latency, 0 FLOPS, in_features=2048, out_features=768, bias=False)
              (down_proj): Linear(1.57 M = 0.01% Params, 0 MACs = 0% MACs, 0 s = 0% latency, 0 FLOPS, in_features=768, out_features=2048, bias=False)
              (act_fn): SiLUActivation(0 = 0% Params, 0 MACs = 0% MACs, 0 s = 0% latency, 0 FLOPS)
            )
            (46): Qwen3MoeMLP(
              4.72 M = 0.02% Params, 2.42 GMACs = 0.15% MACs, 12.24 ms = 0.39% latency, 394.73 GFLOPS
              (gate_proj): Linear(1.57 M = 0.01% Params, 805.31 MMACs = 0.05% MACs, 2.35 ms = 0.07% latency, 685.34 GFLOPS, in_features=2048, out_features=768, bias=False)
              (up_proj): Linear(1.57 M = 0.01% Params, 805.31 MMACs = 0.05% MACs, 2.43 ms = 0.08% latency, 663.99 GFLOPS, in_features=2048, out_features=768, bias=False)
              (down_proj): Linear(1.57 M = 0.01% Params, 805.31 MMACs = 0.05% MACs, 2.45 ms = 0.08% latency, 657.2 GFLOPS, in_features=768, out_features=2048, bias=False)
              (act_fn): SiLUActivation(0 = 0% Params, 0 MACs = 0% MACs, 2.42 ms = 0.08% latency, 162.41 MFLOPS)
            )
            (47-80): 34 x Qwen3MoeMLP(
              4.72 M = 0.02% Params, 0 MACs = 0% MACs, 0 s = 0% latency, 0 FLOPS
              (gate_proj): Linear(1.57 M = 0.01% Params, 0 MACs = 0% MACs, 0 s = 0% latency, 0 FLOPS, in_features=2048, out_features=768, bias=False)
              (up_proj): Linear(1.57 M = 0.01% Params, 0 MACs = 0% MACs, 0 s = 0% latency, 0 FLOPS, in_features=2048, out_features=768, bias=False)
              (down_proj): Linear(1.57 M = 0.01% Params, 0 MACs = 0% MACs, 0 s = 0% latency, 0 FLOPS, in_features=768, out_features=2048, bias=False)
              (act_fn): SiLUActivation(0 = 0% Params, 0 MACs = 0% MACs, 0 s = 0% latency, 0 FLOPS)
            )
            (81): Qwen3MoeMLP(
              4.72 M = 0.02% Params, 2.42 GMACs = 0.15% MACs, 8.47 ms = 0.27% latency, 570.27 GFLOPS
              (gate_proj): Linear(1.57 M = 0.01% Params, 805.31 MMACs = 0.05% MACs, 2.39 ms = 0.08% latency, 673.99 GFLOPS, in_features=2048, out_features=768, bias=False)
              (up_proj): Linear(1.57 M = 0.01% Params, 805.31 MMACs = 0.05% MACs, 2.43 ms = 0.08% latency, 663.2 GFLOPS, in_features=2048, out_features=768, bias=False)
              (down_proj): Linear(1.57 M = 0.01% Params, 805.31 MMACs = 0.05% MACs, 61.99 us = 0% latency, 25.98 TFLOPS, in_features=768, out_features=2048, bias=False)
              (act_fn): SiLUActivation(0 = 0% Params, 0 MACs = 0% MACs, 2.43 ms = 0.08% latency, 162.04 MFLOPS)
            )
            (82-87): 6 x Qwen3MoeMLP(
              4.72 M = 0.02% Params, 0 MACs = 0% MACs, 0 s = 0% latency, 0 FLOPS
              (gate_proj): Linear(1.57 M = 0.01% Params, 0 MACs = 0% MACs, 0 s = 0% latency, 0 FLOPS, in_features=2048, out_features=768, bias=False)
              (up_proj): Linear(1.57 M = 0.01% Params, 0 MACs = 0% MACs, 0 s = 0% latency, 0 FLOPS, in_features=2048, out_features=768, bias=False)
              (down_proj): Linear(1.57 M = 0.01% Params, 0 MACs = 0% MACs, 0 s = 0% latency, 0 FLOPS, in_features=768, out_features=2048, bias=False)
              (act_fn): SiLUActivation(0 = 0% Params, 0 MACs = 0% MACs, 0 s = 0% latency, 0 FLOPS)
            )
            (88): Qwen3MoeMLP(
              4.72 M = 0.02% Params, 2.42 GMACs = 0.15% MACs, 259.4 us = 0.01% latency, 18.63 TFLOPS
              (gate_proj): Linear(1.57 M = 0.01% Params, 805.31 MMACs = 0.05% MACs, 55.55 us = 0% latency, 28.99 TFLOPS, in_features=2048, out_features=768, bias=False)
              (up_proj): Linear(1.57 M = 0.01% Params, 805.31 MMACs = 0.05% MACs, 43.63 us = 0% latency, 36.91 TFLOPS, in_features=2048, out_features=768, bias=False)
              (down_proj): Linear(1.57 M = 0.01% Params, 805.31 MMACs = 0.05% MACs, 42.2 us = 0% latency, 38.17 TFLOPS, in_features=768, out_features=2048, bias=False)
              (act_fn): SiLUActivation(0 = 0% Params, 0 MACs = 0% MACs, 25.99 us = 0% latency, 15.13 GFLOPS)
            )
            (89-97): 9 x Qwen3MoeMLP(
              4.72 M = 0.02% Params, 0 MACs = 0% MACs, 0 s = 0% latency, 0 FLOPS
              (gate_proj): Linear(1.57 M = 0.01% Params, 0 MACs = 0% MACs, 0 s = 0% latency, 0 FLOPS, in_features=2048, out_features=768, bias=False)
              (up_proj): Linear(1.57 M = 0.01% Params, 0 MACs = 0% MACs, 0 s = 0% latency, 0 FLOPS, in_features=2048, out_features=768, bias=False)
              (down_proj): Linear(1.57 M = 0.01% Params, 0 MACs = 0% MACs, 0 s = 0% latency, 0 FLOPS, in_features=768, out_features=2048, bias=False)
              (act_fn): SiLUActivation(0 = 0% Params, 0 MACs = 0% MACs, 0 s = 0% latency, 0 FLOPS)
            )
            (98): Qwen3MoeMLP(
              4.72 M = 0.02% Params, 2.42 GMACs = 0.15% MACs, 267.27 us = 0.01% latency, 18.08 TFLOPS
              (gate_proj): Linear(1.57 M = 0.01% Params, 805.31 MMACs = 0.05% MACs, 55.31 us = 0% latency, 29.12 TFLOPS, in_features=2048, out_features=768, bias=False)
              (up_proj): Linear(1.57 M = 0.01% Params, 805.31 MMACs = 0.05% MACs, 44.35 us = 0% latency, 36.32 TFLOPS, in_features=2048, out_features=768, bias=False)
              (down_proj): Linear(1.57 M = 0.01% Params, 805.31 MMACs = 0.05% MACs, 39.58 us = 0% latency, 40.7 TFLOPS, in_features=768, out_features=2048, bias=False)
              (act_fn): SiLUActivation(0 = 0% Params, 0 MACs = 0% MACs, 35.05 us = 0% latency, 11.22 GFLOPS)
            )
            (99): Qwen3MoeMLP(
              4.72 M = 0.02% Params, 0 MACs = 0% MACs, 0 s = 0% latency, 0 FLOPS
              (gate_proj): Linear(1.57 M = 0.01% Params, 0 MACs = 0% MACs, 0 s = 0% latency, 0 FLOPS, in_features=2048, out_features=768, bias=False)
              (up_proj): Linear(1.57 M = 0.01% Params, 0 MACs = 0% MACs, 0 s = 0% latency, 0 FLOPS, in_features=2048, out_features=768, bias=False)
              (down_proj): Linear(1.57 M = 0.01% Params, 0 MACs = 0% MACs, 0 s = 0% latency, 0 FLOPS, in_features=768, out_features=2048, bias=False)
              (act_fn): SiLUActivation(0 = 0% Params, 0 MACs = 0% MACs, 0 s = 0% latency, 0 FLOPS)
            )
            (100): Qwen3MoeMLP(
              4.72 M = 0.02% Params, 2.42 GMACs = 0.15% MACs, 262.98 us = 0.01% latency, 18.38 TFLOPS
              (gate_proj): Linear(1.57 M = 0.01% Params, 805.31 MMACs = 0.05% MACs, 63.42 us = 0% latency, 25.4 TFLOPS, in_features=2048, out_features=768, bias=False)
              (up_proj): Linear(1.57 M = 0.01% Params, 805.31 MMACs = 0.05% MACs, 43.63 us = 0% latency, 36.91 TFLOPS, in_features=2048, out_features=768, bias=False)
              (down_proj): Linear(1.57 M = 0.01% Params, 805.31 MMACs = 0.05% MACs, 41.48 us = 0% latency, 38.82 TFLOPS, in_features=768, out_features=2048, bias=False)
              (act_fn): SiLUActivation(0 = 0% Params, 0 MACs = 0% MACs, 24.32 us = 0% latency, 16.17 GFLOPS)
            )
            (101-127): 27 x Qwen3MoeMLP(
              4.72 M = 0.02% Params, 0 MACs = 0% MACs, 0 s = 0% latency, 0 FLOPS
              (gate_proj): Linear(1.57 M = 0.01% Params, 0 MACs = 0% MACs, 0 s = 0% latency, 0 FLOPS, in_features=2048, out_features=768, bias=False)
              (up_proj): Linear(1.57 M = 0.01% Params, 0 MACs = 0% MACs, 0 s = 0% latency, 0 FLOPS, in_features=2048, out_features=768, bias=False)
              (down_proj): Linear(1.57 M = 0.01% Params, 0 MACs = 0% MACs, 0 s = 0% latency, 0 FLOPS, in_features=768, out_features=2048, bias=False)
              (act_fn): SiLUActivation(0 = 0% Params, 0 MACs = 0% MACs, 0 s = 0% latency, 0 FLOPS)
            )
          )
        )
        (input_layernorm): Qwen3MoeRMSNorm(2.05 K = 0% Params, 0 MACs = 0% MACs, 2.49 ms = 0.08% latency, 0 FLOPS, (2048,), eps=1e-06)
        (post_attention_layernorm): Qwen3MoeRMSNorm(2.05 K = 0% Params, 0 MACs = 0% MACs, 2.48 ms = 0.08% latency, 0 FLOPS, (2048,), eps=1e-06)
      )
      (6): Qwen3MoeDecoderLayer(
        623.12 M = 2.04% Params, 29.66 GMACs = 1.87% MACs, 4.89 ms = 0.16% latency, 12.13 TFLOPS
        (self_attn): Qwen3MoeAttention(
          18.87 M = 0.06% Params, 10.2 GMACs = 0.64% MACs, 827.55 us = 0.03% latency, 24.65 TFLOPS
          (q_proj): Linear(8.39 M = 0.03% Params, 4.29 GMACs = 0.27% MACs, 75.82 us = 0% latency, 113.3 TFLOPS, in_features=2048, out_features=4096, bias=False)
          (k_proj): Linear(1.05 M = 0% Params, 536.87 MMACs = 0.03% MACs, 62.7 us = 0% latency, 17.12 TFLOPS, in_features=2048, out_features=512, bias=False)
          (v_proj): Linear(1.05 M = 0% Params, 536.87 MMACs = 0.03% MACs, 55.55 us = 0% latency, 19.33 TFLOPS, in_features=2048, out_features=512, bias=False)
          (o_proj): Linear(8.39 M = 0.03% Params, 4.29 GMACs = 0.27% MACs, 64.37 us = 0% latency, 133.44 TFLOPS, in_features=4096, out_features=2048, bias=False)
          (q_norm): Qwen3MoeRMSNorm(128 = 0% Params, 0 MACs = 0% MACs, 95.61 us = 0% latency, 0 FLOPS, (128,), eps=1e-06)
          (k_norm): Qwen3MoeRMSNorm(128 = 0% Params, 0 MACs = 0% MACs, 101.09 us = 0% latency, 0 FLOPS, (128,), eps=1e-06)
        )
        (mlp): Qwen3MoeSparseMoeBlock(
          604.24 M = 1.98% Params, 19.46 GMACs = 1.23% MACs, 3.61 ms = 0.11% latency, 10.79 TFLOPS
          (gate): Linear(262.14 K = 0% Params, 134.22 MMACs = 0.01% MACs, 54.36 us = 0% latency, 4.94 TFLOPS, in_features=2048, out_features=128, bias=False)
          (experts): ModuleList(
            (0-31): 32 x Qwen3MoeMLP(
              4.72 M = 0.02% Params, 0 MACs = 0% MACs, 0 s = 0% latency, 0 FLOPS
              (gate_proj): Linear(1.57 M = 0.01% Params, 0 MACs = 0% MACs, 0 s = 0% latency, 0 FLOPS, in_features=2048, out_features=768, bias=False)
              (up_proj): Linear(1.57 M = 0.01% Params, 0 MACs = 0% MACs, 0 s = 0% latency, 0 FLOPS, in_features=2048, out_features=768, bias=False)
              (down_proj): Linear(1.57 M = 0.01% Params, 0 MACs = 0% MACs, 0 s = 0% latency, 0 FLOPS, in_features=768, out_features=2048, bias=False)
              (act_fn): SiLUActivation(0 = 0% Params, 0 MACs = 0% MACs, 0 s = 0% latency, 0 FLOPS)
            )
            (32): Qwen3MoeMLP(
              4.72 M = 0.02% Params, 2.42 GMACs = 0.15% MACs, 266.31 us = 0.01% latency, 18.14 TFLOPS
              (gate_proj): Linear(1.57 M = 0.01% Params, 805.31 MMACs = 0.05% MACs, 59.84 us = 0% latency, 26.91 TFLOPS, in_features=2048, out_features=768, bias=False)
              (up_proj): Linear(1.57 M = 0.01% Params, 805.31 MMACs = 0.05% MACs, 42.92 us = 0% latency, 37.53 TFLOPS, in_features=2048, out_features=768, bias=False)
              (down_proj): Linear(1.57 M = 0.01% Params, 805.31 MMACs = 0.05% MACs, 40.53 us = 0% latency, 39.74 TFLOPS, in_features=768, out_features=2048, bias=False)
              (act_fn): SiLUActivation(0 = 0% Params, 0 MACs = 0% MACs, 26.7 us = 0% latency, 14.73 GFLOPS)
            )
            (33-49): 17 x Qwen3MoeMLP(
              4.72 M = 0.02% Params, 0 MACs = 0% MACs, 0 s = 0% latency, 0 FLOPS
              (gate_proj): Linear(1.57 M = 0.01% Params, 0 MACs = 0% MACs, 0 s = 0% latency, 0 FLOPS, in_features=2048, out_features=768, bias=False)
              (up_proj): Linear(1.57 M = 0.01% Params, 0 MACs = 0% MACs, 0 s = 0% latency, 0 FLOPS, in_features=2048, out_features=768, bias=False)
              (down_proj): Linear(1.57 M = 0.01% Params, 0 MACs = 0% MACs, 0 s = 0% latency, 0 FLOPS, in_features=768, out_features=2048, bias=False)
              (act_fn): SiLUActivation(0 = 0% Params, 0 MACs = 0% MACs, 0 s = 0% latency, 0 FLOPS)
            )
            (50): Qwen3MoeMLP(
              4.72 M = 0.02% Params, 2.42 GMACs = 0.15% MACs, 254.15 us = 0.01% latency, 19.01 TFLOPS
              (gate_proj): Linear(1.57 M = 0.01% Params, 805.31 MMACs = 0.05% MACs, 59.37 us = 0% latency, 27.13 TFLOPS, in_features=2048, out_features=768, bias=False)
              (up_proj): Linear(1.57 M = 0.01% Params, 805.31 MMACs = 0.05% MACs, 43.15 us = 0% latency, 37.32 TFLOPS, in_features=2048, out_features=768, bias=False)
              (down_proj): Linear(1.57 M = 0.01% Params, 805.31 MMACs = 0.05% MACs, 39.1 us = 0% latency, 41.19 TFLOPS, in_features=768, out_features=2048, bias=False)
              (act_fn): SiLUActivation(0 = 0% Params, 0 MACs = 0% MACs, 23.6 us = 0% latency, 16.66 GFLOPS)
            )
            (51-68): 18 x Qwen3MoeMLP(
              4.72 M = 0.02% Params, 0 MACs = 0% MACs, 0 s = 0% latency, 0 FLOPS
              (gate_proj): Linear(1.57 M = 0.01% Params, 0 MACs = 0% MACs, 0 s = 0% latency, 0 FLOPS, in_features=2048, out_features=768, bias=False)
              (up_proj): Linear(1.57 M = 0.01% Params, 0 MACs = 0% MACs, 0 s = 0% latency, 0 FLOPS, in_features=2048, out_features=768, bias=False)
              (down_proj): Linear(1.57 M = 0.01% Params, 0 MACs = 0% MACs, 0 s = 0% latency, 0 FLOPS, in_features=768, out_features=2048, bias=False)
              (act_fn): SiLUActivation(0 = 0% Params, 0 MACs = 0% MACs, 0 s = 0% latency, 0 FLOPS)
            )
            (69): Qwen3MoeMLP(
              4.72 M = 0.02% Params, 2.42 GMACs = 0.15% MACs, 255.35 us = 0.01% latency, 18.92 TFLOPS
              (gate_proj): Linear(1.57 M = 0.01% Params, 805.31 MMACs = 0.05% MACs, 50.54 us = 0% latency, 31.87 TFLOPS, in_features=2048, out_features=768, bias=False)
              (up_proj): Linear(1.57 M = 0.01% Params, 805.31 MMACs = 0.05% MACs, 43.15 us = 0% latency, 37.32 TFLOPS, in_features=2048, out_features=768, bias=False)
              (down_proj): Linear(1.57 M = 0.01% Params, 805.31 MMACs = 0.05% MACs, 40.77 us = 0% latency, 39.51 TFLOPS, in_features=768, out_features=2048, bias=False)
              (act_fn): SiLUActivation(0 = 0% Params, 0 MACs = 0% MACs, 23.37 us = 0% latency, 16.83 GFLOPS)
            )
            (70): Qwen3MoeMLP(
              4.72 M = 0.02% Params, 0 MACs = 0% MACs, 0 s = 0% latency, 0 FLOPS
              (gate_proj): Linear(1.57 M = 0.01% Params, 0 MACs = 0% MACs, 0 s = 0% latency, 0 FLOPS, in_features=2048, out_features=768, bias=False)
              (up_proj): Linear(1.57 M = 0.01% Params, 0 MACs = 0% MACs, 0 s = 0% latency, 0 FLOPS, in_features=2048, out_features=768, bias=False)
              (down_proj): Linear(1.57 M = 0.01% Params, 0 MACs = 0% MACs, 0 s = 0% latency, 0 FLOPS, in_features=768, out_features=2048, bias=False)
              (act_fn): SiLUActivation(0 = 0% Params, 0 MACs = 0% MACs, 0 s = 0% latency, 0 FLOPS)
            )
            (71): Qwen3MoeMLP(
              4.72 M = 0.02% Params, 2.42 GMACs = 0.15% MACs, 238.42 us = 0.01% latency, 20.27 TFLOPS
              (gate_proj): Linear(1.57 M = 0.01% Params, 805.31 MMACs = 0.05% MACs, 51.02 us = 0% latency, 31.57 TFLOPS, in_features=2048, out_features=768, bias=False)
              (up_proj): Linear(1.57 M = 0.01% Params, 805.31 MMACs = 0.05% MACs, 38.62 us = 0% latency, 41.7 TFLOPS, in_features=2048, out_features=768, bias=False)
              (down_proj): Linear(1.57 M = 0.01% Params, 805.31 MMACs = 0.05% MACs, 37.43 us = 0% latency, 43.03 TFLOPS, in_features=768, out_features=2048, bias=False)
              (act_fn): SiLUActivation(0 = 0% Params, 0 MACs = 0% MACs, 23.13 us = 0% latency, 17 GFLOPS)
            )
            (72-73): 2 x Qwen3MoeMLP(
              4.72 M = 0.02% Params, 0 MACs = 0% MACs, 0 s = 0% latency, 0 FLOPS
              (gate_proj): Linear(1.57 M = 0.01% Params, 0 MACs = 0% MACs, 0 s = 0% latency, 0 FLOPS, in_features=2048, out_features=768, bias=False)
              (up_proj): Linear(1.57 M = 0.01% Params, 0 MACs = 0% MACs, 0 s = 0% latency, 0 FLOPS, in_features=2048, out_features=768, bias=False)
              (down_proj): Linear(1.57 M = 0.01% Params, 0 MACs = 0% MACs, 0 s = 0% latency, 0 FLOPS, in_features=768, out_features=2048, bias=False)
              (act_fn): SiLUActivation(0 = 0% Params, 0 MACs = 0% MACs, 0 s = 0% latency, 0 FLOPS)
            )
            (74): Qwen3MoeMLP(
              4.72 M = 0.02% Params, 2.42 GMACs = 0.15% MACs, 239.61 us = 0.01% latency, 20.17 TFLOPS
              (gate_proj): Linear(1.57 M = 0.01% Params, 805.31 MMACs = 0.05% MACs, 49.83 us = 0% latency, 32.32 TFLOPS, in_features=2048, out_features=768, bias=False)
              (up_proj): Linear(1.57 M = 0.01% Params, 805.31 MMACs = 0.05% MACs, 40.29 us = 0% latency, 39.97 TFLOPS, in_features=2048, out_features=768, bias=False)
              (down_proj): Linear(1.57 M = 0.01% Params, 805.31 MMACs = 0.05% MACs, 39.34 us = 0% latency, 40.94 TFLOPS, in_features=768, out_features=2048, bias=False)
              (act_fn): SiLUActivation(0 = 0% Params, 0 MACs = 0% MACs, 22.65 us = 0% latency, 17.36 GFLOPS)
            )
            (75-90): 16 x Qwen3MoeMLP(
              4.72 M = 0.02% Params, 0 MACs = 0% MACs, 0 s = 0% latency, 0 FLOPS
              (gate_proj): Linear(1.57 M = 0.01% Params, 0 MACs = 0% MACs, 0 s = 0% latency, 0 FLOPS, in_features=2048, out_features=768, bias=False)
              (up_proj): Linear(1.57 M = 0.01% Params, 0 MACs = 0% MACs, 0 s = 0% latency, 0 FLOPS, in_features=2048, out_features=768, bias=False)
              (down_proj): Linear(1.57 M = 0.01% Params, 0 MACs = 0% MACs, 0 s = 0% latency, 0 FLOPS, in_features=768, out_features=2048, bias=False)
              (act_fn): SiLUActivation(0 = 0% Params, 0 MACs = 0% MACs, 0 s = 0% latency, 0 FLOPS)
            )
            (91): Qwen3MoeMLP(
              4.72 M = 0.02% Params, 2.42 GMACs = 0.15% MACs, 252.49 us = 0.01% latency, 19.14 TFLOPS
              (gate_proj): Linear(1.57 M = 0.01% Params, 805.31 MMACs = 0.05% MACs, 51.74 us = 0% latency, 31.13 TFLOPS, in_features=2048, out_features=768, bias=False)
              (up_proj): Linear(1.57 M = 0.01% Params, 805.31 MMACs = 0.05% MACs, 44.58 us = 0% latency, 36.13 TFLOPS, in_features=2048, out_features=768, bias=False)
              (down_proj): Linear(1.57 M = 0.01% Params, 805.31 MMACs = 0.05% MACs, 39.1 us = 0% latency, 41.19 TFLOPS, in_features=768, out_features=2048, bias=False)
              (act_fn): SiLUActivation(0 = 0% Params, 0 MACs = 0% MACs, 27.66 us = 0% latency, 14.22 GFLOPS)
            )
            (92-102): 11 x Qwen3MoeMLP(
              4.72 M = 0.02% Params, 0 MACs = 0% MACs, 0 s = 0% latency, 0 FLOPS
              (gate_proj): Linear(1.57 M = 0.01% Params, 0 MACs = 0% MACs, 0 s = 0% latency, 0 FLOPS, in_features=2048, out_features=768, bias=False)
              (up_proj): Linear(1.57 M = 0.01% Params, 0 MACs = 0% MACs, 0 s = 0% latency, 0 FLOPS, in_features=2048, out_features=768, bias=False)
              (down_proj): Linear(1.57 M = 0.01% Params, 0 MACs = 0% MACs, 0 s = 0% latency, 0 FLOPS, in_features=768, out_features=2048, bias=False)
              (act_fn): SiLUActivation(0 = 0% Params, 0 MACs = 0% MACs, 0 s = 0% latency, 0 FLOPS)
            )
            (103): Qwen3MoeMLP(
              4.72 M = 0.02% Params, 2.42 GMACs = 0.15% MACs, 242.95 us = 0.01% latency, 19.89 TFLOPS
              (gate_proj): Linear(1.57 M = 0.01% Params, 805.31 MMACs = 0.05% MACs, 51.98 us = 0% latency, 30.99 TFLOPS, in_features=2048, out_features=768, bias=False)
              (up_proj): Linear(1.57 M = 0.01% Params, 805.31 MMACs = 0.05% MACs, 40.29 us = 0% latency, 39.97 TFLOPS, in_features=2048, out_features=768, bias=False)
              (down_proj): Linear(1.57 M = 0.01% Params, 805.31 MMACs = 0.05% MACs, 39.58 us = 0% latency, 40.7 TFLOPS, in_features=768, out_features=2048, bias=False)
              (act_fn): SiLUActivation(0 = 0% Params, 0 MACs = 0% MACs, 22.89 us = 0% latency, 17.18 GFLOPS)
            )
            (104-107): 4 x Qwen3MoeMLP(
              4.72 M = 0.02% Params, 0 MACs = 0% MACs, 0 s = 0% latency, 0 FLOPS
              (gate_proj): Linear(1.57 M = 0.01% Params, 0 MACs = 0% MACs, 0 s = 0% latency, 0 FLOPS, in_features=2048, out_features=768, bias=False)
              (up_proj): Linear(1.57 M = 0.01% Params, 0 MACs = 0% MACs, 0 s = 0% latency, 0 FLOPS, in_features=2048, out_features=768, bias=False)
              (down_proj): Linear(1.57 M = 0.01% Params, 0 MACs = 0% MACs, 0 s = 0% latency, 0 FLOPS, in_features=768, out_features=2048, bias=False)
              (act_fn): SiLUActivation(0 = 0% Params, 0 MACs = 0% MACs, 0 s = 0% latency, 0 FLOPS)
            )
            (108): Qwen3MoeMLP(
              4.72 M = 0.02% Params, 2.42 GMACs = 0.15% MACs, 249.86 us = 0.01% latency, 19.34 TFLOPS
              (gate_proj): Linear(1.57 M = 0.01% Params, 805.31 MMACs = 0.05% MACs, 50.54 us = 0% latency, 31.87 TFLOPS, in_features=2048, out_features=768, bias=False)
              (up_proj): Linear(1.57 M = 0.01% Params, 805.31 MMACs = 0.05% MACs, 41.96 us = 0% latency, 38.38 TFLOPS, in_features=2048, out_features=768, bias=False)
              (down_proj): Linear(1.57 M = 0.01% Params, 805.31 MMACs = 0.05% MACs, 38.62 us = 0% latency, 41.7 TFLOPS, in_features=768, out_features=2048, bias=False)
              (act_fn): SiLUActivation(0 = 0% Params, 0 MACs = 0% MACs, 31.71 us = 0% latency, 12.4 GFLOPS)
            )
            (109-127): 19 x Qwen3MoeMLP(
              4.72 M = 0.02% Params, 0 MACs = 0% MACs, 0 s = 0% latency, 0 FLOPS
              (gate_proj): Linear(1.57 M = 0.01% Params, 0 MACs = 0% MACs, 0 s = 0% latency, 0 FLOPS, in_features=2048, out_features=768, bias=False)
              (up_proj): Linear(1.57 M = 0.01% Params, 0 MACs = 0% MACs, 0 s = 0% latency, 0 FLOPS, in_features=2048, out_features=768, bias=False)
              (down_proj): Linear(1.57 M = 0.01% Params, 0 MACs = 0% MACs, 0 s = 0% latency, 0 FLOPS, in_features=768, out_features=2048, bias=False)
              (act_fn): SiLUActivation(0 = 0% Params, 0 MACs = 0% MACs, 0 s = 0% latency, 0 FLOPS)
            )
          )
        )
        (input_layernorm): Qwen3MoeRMSNorm(2.05 K = 0% Params, 0 MACs = 0% MACs, 148.77 us = 0% latency, 0 FLOPS, (2048,), eps=1e-06)
        (post_attention_layernorm): Qwen3MoeRMSNorm(2.05 K = 0% Params, 0 MACs = 0% MACs, 91.55 us = 0% latency, 0 FLOPS, (2048,), eps=1e-06)
      )
      (7): Qwen3MoeDecoderLayer(
        623.12 M = 2.04% Params, 29.66 GMACs = 1.87% MACs, 4.5 ms = 0.14% latency, 13.19 TFLOPS
        (self_attn): Qwen3MoeAttention(
          18.87 M = 0.06% Params, 10.2 GMACs = 0.64% MACs, 704.29 us = 0.02% latency, 28.97 TFLOPS
          (q_proj): Linear(8.39 M = 0.03% Params, 4.29 GMACs = 0.27% MACs, 64.37 us = 0% latency, 133.44 TFLOPS, in_features=2048, out_features=4096, bias=False)
          (k_proj): Linear(1.05 M = 0% Params, 536.87 MMACs = 0.03% MACs, 55.79 us = 0% latency, 19.25 TFLOPS, in_features=2048, out_features=512, bias=False)
          (v_proj): Linear(1.05 M = 0% Params, 536.87 MMACs = 0.03% MACs, 51.5 us = 0% latency, 20.85 TFLOPS, in_features=2048, out_features=512, bias=False)
          (o_proj): Linear(8.39 M = 0.03% Params, 4.29 GMACs = 0.27% MACs, 62.94 us = 0% latency, 136.47 TFLOPS, in_features=4096, out_features=2048, bias=False)
          (q_norm): Qwen3MoeRMSNorm(128 = 0% Params, 0 MACs = 0% MACs, 94.18 us = 0% latency, 0 FLOPS, (128,), eps=1e-06)
          (k_norm): Qwen3MoeRMSNorm(128 = 0% Params, 0 MACs = 0% MACs, 87.26 us = 0% latency, 0 FLOPS, (128,), eps=1e-06)
        )
        (mlp): Qwen3MoeSparseMoeBlock(
          604.24 M = 1.98% Params, 19.46 GMACs = 1.23% MACs, 3.43 ms = 0.11% latency, 11.33 TFLOPS
          (gate): Linear(262.14 K = 0% Params, 134.22 MMACs = 0.01% MACs, 50.78 us = 0% latency, 5.29 TFLOPS, in_features=2048, out_features=128, bias=False)
          (experts): ModuleList(
            (0): Qwen3MoeMLP(
              4.72 M = 0.02% Params, 2.42 GMACs = 0.15% MACs, 255.11 us = 0.01% latency, 18.94 TFLOPS
              (gate_proj): Linear(1.57 M = 0.01% Params, 805.31 MMACs = 0.05% MACs, 54.12 us = 0% latency, 29.76 TFLOPS, in_features=2048, out_features=768, bias=False)
              (up_proj): Linear(1.57 M = 0.01% Params, 805.31 MMACs = 0.05% MACs, 42.2 us = 0% latency, 38.17 TFLOPS, in_features=2048, out_features=768, bias=False)
              (down_proj): Linear(1.57 M = 0.01% Params, 805.31 MMACs = 0.05% MACs, 39.82 us = 0% latency, 40.45 TFLOPS, in_features=768, out_features=2048, bias=False)
              (act_fn): SiLUActivation(0 = 0% Params, 0 MACs = 0% MACs, 25.03 us = 0% latency, 15.71 GFLOPS)
            )
            (1-20): 20 x Qwen3MoeMLP(
              4.72 M = 0.02% Params, 0 MACs = 0% MACs, 0 s = 0% latency, 0 FLOPS
              (gate_proj): Linear(1.57 M = 0.01% Params, 0 MACs = 0% MACs, 0 s = 0% latency, 0 FLOPS, in_features=2048, out_features=768, bias=False)
              (up_proj): Linear(1.57 M = 0.01% Params, 0 MACs = 0% MACs, 0 s = 0% latency, 0 FLOPS, in_features=2048, out_features=768, bias=False)
              (down_proj): Linear(1.57 M = 0.01% Params, 0 MACs = 0% MACs, 0 s = 0% latency, 0 FLOPS, in_features=768, out_features=2048, bias=False)
              (act_fn): SiLUActivation(0 = 0% Params, 0 MACs = 0% MACs, 0 s = 0% latency, 0 FLOPS)
            )
            (21): Qwen3MoeMLP(
              4.72 M = 0.02% Params, 2.42 GMACs = 0.15% MACs, 245.33 us = 0.01% latency, 19.7 TFLOPS
              (gate_proj): Linear(1.57 M = 0.01% Params, 805.31 MMACs = 0.05% MACs, 52.45 us = 0% latency, 30.71 TFLOPS, in_features=2048, out_features=768, bias=False)
              (up_proj): Linear(1.57 M = 0.01% Params, 805.31 MMACs = 0.05% MACs, 40.77 us = 0% latency, 39.51 TFLOPS, in_features=2048, out_features=768, bias=False)
              (down_proj): Linear(1.57 M = 0.01% Params, 805.31 MMACs = 0.05% MACs, 39.34 us = 0% latency, 40.94 TFLOPS, in_features=768, out_features=2048, bias=False)
              (act_fn): SiLUActivation(0 = 0% Params, 0 MACs = 0% MACs, 24.56 us = 0% latency, 16.01 GFLOPS)
            )
            (22-27): 6 x Qwen3MoeMLP(
              4.72 M = 0.02% Params, 0 MACs = 0% MACs, 0 s = 0% latency, 0 FLOPS
              (gate_proj): Linear(1.57 M = 0.01% Params, 0 MACs = 0% MACs, 0 s = 0% latency, 0 FLOPS, in_features=2048, out_features=768, bias=False)
              (up_proj): Linear(1.57 M = 0.01% Params, 0 MACs = 0% MACs, 0 s = 0% latency, 0 FLOPS, in_features=2048, out_features=768, bias=False)
              (down_proj): Linear(1.57 M = 0.01% Params, 0 MACs = 0% MACs, 0 s = 0% latency, 0 FLOPS, in_features=768, out_features=2048, bias=False)
              (act_fn): SiLUActivation(0 = 0% Params, 0 MACs = 0% MACs, 0 s = 0% latency, 0 FLOPS)
            )
            (28): Qwen3MoeMLP(
              4.72 M = 0.02% Params, 2.42 GMACs = 0.15% MACs, 249.15 us = 0.01% latency, 19.4 TFLOPS
              (gate_proj): Linear(1.57 M = 0.01% Params, 805.31 MMACs = 0.05% MACs, 50.31 us = 0% latency, 32.02 TFLOPS, in_features=2048, out_features=768, bias=False)
              (up_proj): Linear(1.57 M = 0.01% Params, 805.31 MMACs = 0.05% MACs, 49.59 us = 0% latency, 32.48 TFLOPS, in_features=2048, out_features=768, bias=False)
              (down_proj): Linear(1.57 M = 0.01% Params, 805.31 MMACs = 0.05% MACs, 38.15 us = 0% latency, 42.22 TFLOPS, in_features=768, out_features=2048, bias=False)
              (act_fn): SiLUActivation(0 = 0% Params, 0 MACs = 0% MACs, 23.37 us = 0% latency, 16.83 GFLOPS)
            )
            (29-37): 9 x Qwen3MoeMLP(
              4.72 M = 0.02% Params, 0 MACs = 0% MACs, 0 s = 0% latency, 0 FLOPS
              (gate_proj): Linear(1.57 M = 0.01% Params, 0 MACs = 0% MACs, 0 s = 0% latency, 0 FLOPS, in_features=2048, out_features=768, bias=False)
              (up_proj): Linear(1.57 M = 0.01% Params, 0 MACs = 0% MACs, 0 s = 0% latency, 0 FLOPS, in_features=2048, out_features=768, bias=False)
              (down_proj): Linear(1.57 M = 0.01% Params, 0 MACs = 0% MACs, 0 s = 0% latency, 0 FLOPS, in_features=768, out_features=2048, bias=False)
              (act_fn): SiLUActivation(0 = 0% Params, 0 MACs = 0% MACs, 0 s = 0% latency, 0 FLOPS)
            )
            (38): Qwen3MoeMLP(
              4.72 M = 0.02% Params, 2.42 GMACs = 0.15% MACs, 250.1 us = 0.01% latency, 19.32 TFLOPS
              (gate_proj): Linear(1.57 M = 0.01% Params, 805.31 MMACs = 0.05% MACs, 49.83 us = 0% latency, 32.32 TFLOPS, in_features=2048, out_features=768, bias=False)
              (up_proj): Linear(1.57 M = 0.01% Params, 805.31 MMACs = 0.05% MACs, 48.88 us = 0% latency, 32.95 TFLOPS, in_features=2048, out_features=768, bias=False)
              (down_proj): Linear(1.57 M = 0.01% Params, 805.31 MMACs = 0.05% MACs, 41.25 us = 0% latency, 39.05 TFLOPS, in_features=768, out_features=2048, bias=False)
              (act_fn): SiLUActivation(0 = 0% Params, 0 MACs = 0% MACs, 22.65 us = 0% latency, 17.36 GFLOPS)
            )
            (39-62): 24 x Qwen3MoeMLP(
              4.72 M = 0.02% Params, 0 MACs = 0% MACs, 0 s = 0% latency, 0 FLOPS
              (gate_proj): Linear(1.57 M = 0.01% Params, 0 MACs = 0% MACs, 0 s = 0% latency, 0 FLOPS, in_features=2048, out_features=768, bias=False)
              (up_proj): Linear(1.57 M = 0.01% Params, 0 MACs = 0% MACs, 0 s = 0% latency, 0 FLOPS, in_features=2048, out_features=768, bias=False)
              (down_proj): Linear(1.57 M = 0.01% Params, 0 MACs = 0% MACs, 0 s = 0% latency, 0 FLOPS, in_features=768, out_features=2048, bias=False)
              (act_fn): SiLUActivation(0 = 0% Params, 0 MACs = 0% MACs, 0 s = 0% latency, 0 FLOPS)
            )
            (63): Qwen3MoeMLP(
              4.72 M = 0.02% Params, 2.42 GMACs = 0.15% MACs, 246.05 us = 0.01% latency, 19.64 TFLOPS
              (gate_proj): Linear(1.57 M = 0.01% Params, 805.31 MMACs = 0.05% MACs, 50.07 us = 0% latency, 32.17 TFLOPS, in_features=2048, out_features=768, bias=False)
              (up_proj): Linear(1.57 M = 0.01% Params, 805.31 MMACs = 0.05% MACs, 42.92 us = 0% latency, 37.53 TFLOPS, in_features=2048, out_features=768, bias=False)
              (down_proj): Linear(1.57 M = 0.01% Params, 805.31 MMACs = 0.05% MACs, 38.39 us = 0% latency, 41.96 TFLOPS, in_features=768, out_features=2048, bias=False)
              (act_fn): SiLUActivation(0 = 0% Params, 0 MACs = 0% MACs, 28.13 us = 0% latency, 13.98 GFLOPS)
            )
            (64-92): 29 x Qwen3MoeMLP(
              4.72 M = 0.02% Params, 0 MACs = 0% MACs, 0 s = 0% latency, 0 FLOPS
              (gate_proj): Linear(1.57 M = 0.01% Params, 0 MACs = 0% MACs, 0 s = 0% latency, 0 FLOPS, in_features=2048, out_features=768, bias=False)
              (up_proj): Linear(1.57 M = 0.01% Params, 0 MACs = 0% MACs, 0 s = 0% latency, 0 FLOPS, in_features=2048, out_features=768, bias=False)
              (down_proj): Linear(1.57 M = 0.01% Params, 0 MACs = 0% MACs, 0 s = 0% latency, 0 FLOPS, in_features=768, out_features=2048, bias=False)
              (act_fn): SiLUActivation(0 = 0% Params, 0 MACs = 0% MACs, 0 s = 0% latency, 0 FLOPS)
            )
            (93): Qwen3MoeMLP(
              4.72 M = 0.02% Params, 2.42 GMACs = 0.15% MACs, 239.13 us = 0.01% latency, 20.21 TFLOPS
              (gate_proj): Linear(1.57 M = 0.01% Params, 805.31 MMACs = 0.05% MACs, 50.54 us = 0% latency, 31.87 TFLOPS, in_features=2048, out_features=768, bias=False)
              (up_proj): Linear(1.57 M = 0.01% Params, 805.31 MMACs = 0.05% MACs, 40.05 us = 0% latency, 40.21 TFLOPS, in_features=2048, out_features=768, bias=False)
              (down_proj): Linear(1.57 M = 0.01% Params, 805.31 MMACs = 0.05% MACs, 37.91 us = 0% latency, 42.49 TFLOPS, in_features=768, out_features=2048, bias=False)
              (act_fn): SiLUActivation(0 = 0% Params, 0 MACs = 0% MACs, 23.13 us = 0% latency, 17 GFLOPS)
            )
            (94-114): 21 x Qwen3MoeMLP(
              4.72 M = 0.02% Params, 0 MACs = 0% MACs, 0 s = 0% latency, 0 FLOPS
              (gate_proj): Linear(1.57 M = 0.01% Params, 0 MACs = 0% MACs, 0 s = 0% latency, 0 FLOPS, in_features=2048, out_features=768, bias=False)
              (up_proj): Linear(1.57 M = 0.01% Params, 0 MACs = 0% MACs, 0 s = 0% latency, 0 FLOPS, in_features=2048, out_features=768, bias=False)
              (down_proj): Linear(1.57 M = 0.01% Params, 0 MACs = 0% MACs, 0 s = 0% latency, 0 FLOPS, in_features=768, out_features=2048, bias=False)
              (act_fn): SiLUActivation(0 = 0% Params, 0 MACs = 0% MACs, 0 s = 0% latency, 0 FLOPS)
            )
            (115): Qwen3MoeMLP(
              4.72 M = 0.02% Params, 2.42 GMACs = 0.15% MACs, 240.09 us = 0.01% latency, 20.13 TFLOPS
              (gate_proj): Linear(1.57 M = 0.01% Params, 805.31 MMACs = 0.05% MACs, 51.02 us = 0% latency, 31.57 TFLOPS, in_features=2048, out_features=768, bias=False)
              (up_proj): Linear(1.57 M = 0.01% Params, 805.31 MMACs = 0.05% MACs, 39.1 us = 0% latency, 41.19 TFLOPS, in_features=2048, out_features=768, bias=False)
              (down_proj): Linear(1.57 M = 0.01% Params, 805.31 MMACs = 0.05% MACs, 40.29 us = 0% latency, 39.97 TFLOPS, in_features=768, out_features=2048, bias=False)
              (act_fn): SiLUActivation(0 = 0% Params, 0 MACs = 0% MACs, 22.65 us = 0% latency, 17.36 GFLOPS)
            )
            (116-117): 2 x Qwen3MoeMLP(
              4.72 M = 0.02% Params, 0 MACs = 0% MACs, 0 s = 0% latency, 0 FLOPS
              (gate_proj): Linear(1.57 M = 0.01% Params, 0 MACs = 0% MACs, 0 s = 0% latency, 0 FLOPS, in_features=2048, out_features=768, bias=False)
              (up_proj): Linear(1.57 M = 0.01% Params, 0 MACs = 0% MACs, 0 s = 0% latency, 0 FLOPS, in_features=2048, out_features=768, bias=False)
              (down_proj): Linear(1.57 M = 0.01% Params, 0 MACs = 0% MACs, 0 s = 0% latency, 0 FLOPS, in_features=768, out_features=2048, bias=False)
              (act_fn): SiLUActivation(0 = 0% Params, 0 MACs = 0% MACs, 0 s = 0% latency, 0 FLOPS)
            )
            (118): Qwen3MoeMLP(
              4.72 M = 0.02% Params, 2.42 GMACs = 0.15% MACs, 240.56 us = 0.01% latency, 20.09 TFLOPS
              (gate_proj): Linear(1.57 M = 0.01% Params, 805.31 MMACs = 0.05% MACs, 52.21 us = 0% latency, 30.85 TFLOPS, in_features=2048, out_features=768, bias=False)
              (up_proj): Linear(1.57 M = 0.01% Params, 805.31 MMACs = 0.05% MACs, 39.82 us = 0% latency, 40.45 TFLOPS, in_features=2048, out_features=768, bias=False)
              (down_proj): Linear(1.57 M = 0.01% Params, 805.31 MMACs = 0.05% MACs, 38.62 us = 0% latency, 41.7 TFLOPS, in_features=768, out_features=2048, bias=False)
              (act_fn): SiLUActivation(0 = 0% Params, 0 MACs = 0% MACs, 23.37 us = 0% latency, 16.83 GFLOPS)
            )
            (119-127): 9 x Qwen3MoeMLP(
              4.72 M = 0.02% Params, 0 MACs = 0% MACs, 0 s = 0% latency, 0 FLOPS
              (gate_proj): Linear(1.57 M = 0.01% Params, 0 MACs = 0% MACs, 0 s = 0% latency, 0 FLOPS, in_features=2048, out_features=768, bias=False)
              (up_proj): Linear(1.57 M = 0.01% Params, 0 MACs = 0% MACs, 0 s = 0% latency, 0 FLOPS, in_features=2048, out_features=768, bias=False)
              (down_proj): Linear(1.57 M = 0.01% Params, 0 MACs = 0% MACs, 0 s = 0% latency, 0 FLOPS, in_features=768, out_features=2048, bias=False)
              (act_fn): SiLUActivation(0 = 0% Params, 0 MACs = 0% MACs, 0 s = 0% latency, 0 FLOPS)
            )
          )
        )
        (input_layernorm): Qwen3MoeRMSNorm(2.05 K = 0% Params, 0 MACs = 0% MACs, 96.08 us = 0% latency, 0 FLOPS, (2048,), eps=1e-06)
        (post_attention_layernorm): Qwen3MoeRMSNorm(2.05 K = 0% Params, 0 MACs = 0% MACs, 91.08 us = 0% latency, 0 FLOPS, (2048,), eps=1e-06)
      )
      (8): Qwen3MoeDecoderLayer(
        623.12 M = 2.04% Params, 29.66 GMACs = 1.87% MACs, 4.5 ms = 0.14% latency, 13.18 TFLOPS
        (self_attn): Qwen3MoeAttention(
          18.87 M = 0.06% Params, 10.2 GMACs = 0.64% MACs, 703.57 us = 0.02% latency, 29 TFLOPS
          (q_proj): Linear(8.39 M = 0.03% Params, 4.29 GMACs = 0.27% MACs, 72.24 us = 0% latency, 118.91 TFLOPS, in_features=2048, out_features=4096, bias=False)
          (k_proj): Linear(1.05 M = 0% Params, 536.87 MMACs = 0.03% MACs, 55.55 us = 0% latency, 19.33 TFLOPS, in_features=2048, out_features=512, bias=False)
          (v_proj): Linear(1.05 M = 0% Params, 536.87 MMACs = 0.03% MACs, 52.69 us = 0% latency, 20.38 TFLOPS, in_features=2048, out_features=512, bias=False)
          (o_proj): Linear(8.39 M = 0.03% Params, 4.29 GMACs = 0.27% MACs, 61.51 us = 0% latency, 139.65 TFLOPS, in_features=4096, out_features=2048, bias=False)
          (q_norm): Qwen3MoeRMSNorm(128 = 0% Params, 0 MACs = 0% MACs, 94.89 us = 0% latency, 0 FLOPS, (128,), eps=1e-06)
          (k_norm): Qwen3MoeRMSNorm(128 = 0% Params, 0 MACs = 0% MACs, 86.55 us = 0% latency, 0 FLOPS, (128,), eps=1e-06)
        )
        (mlp): Qwen3MoeSparseMoeBlock(
          604.24 M = 1.98% Params, 19.46 GMACs = 1.23% MACs, 3.44 ms = 0.11% latency, 11.3 TFLOPS
          (gate): Linear(262.14 K = 0% Params, 134.22 MMACs = 0.01% MACs, 49.35 us = 0% latency, 5.44 TFLOPS, in_features=2048, out_features=128, bias=False)
          (experts): ModuleList(
            (0-2): 3 x Qwen3MoeMLP(
              4.72 M = 0.02% Params, 0 MACs = 0% MACs, 0 s = 0% latency, 0 FLOPS
              (gate_proj): Linear(1.57 M = 0.01% Params, 0 MACs = 0% MACs, 0 s = 0% latency, 0 FLOPS, in_features=2048, out_features=768, bias=False)
              (up_proj): Linear(1.57 M = 0.01% Params, 0 MACs = 0% MACs, 0 s = 0% latency, 0 FLOPS, in_features=2048, out_features=768, bias=False)
              (down_proj): Linear(1.57 M = 0.01% Params, 0 MACs = 0% MACs, 0 s = 0% latency, 0 FLOPS, in_features=768, out_features=2048, bias=False)
              (act_fn): SiLUActivation(0 = 0% Params, 0 MACs = 0% MACs, 0 s = 0% latency, 0 FLOPS)
            )
            (3): Qwen3MoeMLP(
              4.72 M = 0.02% Params, 2.42 GMACs = 0.15% MACs, 260.59 us = 0.01% latency, 18.54 TFLOPS
              (gate_proj): Linear(1.57 M = 0.01% Params, 805.31 MMACs = 0.05% MACs, 55.79 us = 0% latency, 28.87 TFLOPS, in_features=2048, out_features=768, bias=False)
              (up_proj): Linear(1.57 M = 0.01% Params, 805.31 MMACs = 0.05% MACs, 43.15 us = 0% latency, 37.32 TFLOPS, in_features=2048, out_features=768, bias=False)
              (down_proj): Linear(1.57 M = 0.01% Params, 805.31 MMACs = 0.05% MACs, 41.48 us = 0% latency, 38.82 TFLOPS, in_features=768, out_features=2048, bias=False)
              (act_fn): SiLUActivation(0 = 0% Params, 0 MACs = 0% MACs, 24.32 us = 0% latency, 16.17 GFLOPS)
            )
            (4-37): 34 x Qwen3MoeMLP(
              4.72 M = 0.02% Params, 0 MACs = 0% MACs, 0 s = 0% latency, 0 FLOPS
              (gate_proj): Linear(1.57 M = 0.01% Params, 0 MACs = 0% MACs, 0 s = 0% latency, 0 FLOPS, in_features=2048, out_features=768, bias=False)
              (up_proj): Linear(1.57 M = 0.01% Params, 0 MACs = 0% MACs, 0 s = 0% latency, 0 FLOPS, in_features=2048, out_features=768, bias=False)
              (down_proj): Linear(1.57 M = 0.01% Params, 0 MACs = 0% MACs, 0 s = 0% latency, 0 FLOPS, in_features=768, out_features=2048, bias=False)
              (act_fn): SiLUActivation(0 = 0% Params, 0 MACs = 0% MACs, 0 s = 0% latency, 0 FLOPS)
            )
            (38): Qwen3MoeMLP(
              4.72 M = 0.02% Params, 2.42 GMACs = 0.15% MACs, 245.57 us = 0.01% latency, 19.68 TFLOPS
              (gate_proj): Linear(1.57 M = 0.01% Params, 805.31 MMACs = 0.05% MACs, 51.26 us = 0% latency, 31.42 TFLOPS, in_features=2048, out_features=768, bias=False)
              (up_proj): Linear(1.57 M = 0.01% Params, 805.31 MMACs = 0.05% MACs, 42.2 us = 0% latency, 38.17 TFLOPS, in_features=2048, out_features=768, bias=False)
              (down_proj): Linear(1.57 M = 0.01% Params, 805.31 MMACs = 0.05% MACs, 39.82 us = 0% latency, 40.45 TFLOPS, in_features=768, out_features=2048, bias=False)
              (act_fn): SiLUActivation(0 = 0% Params, 0 MACs = 0% MACs, 22.89 us = 0% latency, 17.18 GFLOPS)
            )
            (39-49): 11 x Qwen3MoeMLP(
              4.72 M = 0.02% Params, 0 MACs = 0% MACs, 0 s = 0% latency, 0 FLOPS
              (gate_proj): Linear(1.57 M = 0.01% Params, 0 MACs = 0% MACs, 0 s = 0% latency, 0 FLOPS, in_features=2048, out_features=768, bias=False)
              (up_proj): Linear(1.57 M = 0.01% Params, 0 MACs = 0% MACs, 0 s = 0% latency, 0 FLOPS, in_features=2048, out_features=768, bias=False)
              (down_proj): Linear(1.57 M = 0.01% Params, 0 MACs = 0% MACs, 0 s = 0% latency, 0 FLOPS, in_features=768, out_features=2048, bias=False)
              (act_fn): SiLUActivation(0 = 0% Params, 0 MACs = 0% MACs, 0 s = 0% latency, 0 FLOPS)
            )
            (50): Qwen3MoeMLP(
              4.72 M = 0.02% Params, 2.42 GMACs = 0.15% MACs, 256.54 us = 0.01% latency, 18.84 TFLOPS
              (gate_proj): Linear(1.57 M = 0.01% Params, 805.31 MMACs = 0.05% MACs, 59.84 us = 0% latency, 26.91 TFLOPS, in_features=2048, out_features=768, bias=False)
              (up_proj): Linear(1.57 M = 0.01% Params, 805.31 MMACs = 0.05% MACs, 44.11 us = 0% latency, 36.52 TFLOPS, in_features=2048, out_features=768, bias=False)
              (down_proj): Linear(1.57 M = 0.01% Params, 805.31 MMACs = 0.05% MACs, 40.53 us = 0% latency, 39.74 TFLOPS, in_features=768, out_features=2048, bias=False)
              (act_fn): SiLUActivation(0 = 0% Params, 0 MACs = 0% MACs, 23.84 us = 0% latency, 16.49 GFLOPS)
            )
            (51-59): 9 x Qwen3MoeMLP(
              4.72 M = 0.02% Params, 0 MACs = 0% MACs, 0 s = 0% latency, 0 FLOPS
              (gate_proj): Linear(1.57 M = 0.01% Params, 0 MACs = 0% MACs, 0 s = 0% latency, 0 FLOPS, in_features=2048, out_features=768, bias=False)
              (up_proj): Linear(1.57 M = 0.01% Params, 0 MACs = 0% MACs, 0 s = 0% latency, 0 FLOPS, in_features=2048, out_features=768, bias=False)
              (down_proj): Linear(1.57 M = 0.01% Params, 0 MACs = 0% MACs, 0 s = 0% latency, 0 FLOPS, in_features=768, out_features=2048, bias=False)
              (act_fn): SiLUActivation(0 = 0% Params, 0 MACs = 0% MACs, 0 s = 0% latency, 0 FLOPS)
            )
            (60): Qwen3MoeMLP(
              4.72 M = 0.02% Params, 2.42 GMACs = 0.15% MACs, 250.34 us = 0.01% latency, 19.3 TFLOPS
              (gate_proj): Linear(1.57 M = 0.01% Params, 805.31 MMACs = 0.05% MACs, 58.89 us = 0% latency, 27.35 TFLOPS, in_features=2048, out_features=768, bias=False)
              (up_proj): Linear(1.57 M = 0.01% Params, 805.31 MMACs = 0.05% MACs, 41.72 us = 0% latency, 38.6 TFLOPS, in_features=2048, out_features=768, bias=False)
              (down_proj): Linear(1.57 M = 0.01% Params, 805.31 MMACs = 0.05% MACs, 38.86 us = 0% latency, 41.44 TFLOPS, in_features=768, out_features=2048, bias=False)
              (act_fn): SiLUActivation(0 = 0% Params, 0 MACs = 0% MACs, 24.08 us = 0% latency, 16.33 GFLOPS)
            )
            (61-75): 15 x Qwen3MoeMLP(
              4.72 M = 0.02% Params, 0 MACs = 0% MACs, 0 s = 0% latency, 0 FLOPS
              (gate_proj): Linear(1.57 M = 0.01% Params, 0 MACs = 0% MACs, 0 s = 0% latency, 0 FLOPS, in_features=2048, out_features=768, bias=False)
              (up_proj): Linear(1.57 M = 0.01% Params, 0 MACs = 0% MACs, 0 s = 0% latency, 0 FLOPS, in_features=2048, out_features=768, bias=False)
              (down_proj): Linear(1.57 M = 0.01% Params, 0 MACs = 0% MACs, 0 s = 0% latency, 0 FLOPS, in_features=768, out_features=2048, bias=False)
              (act_fn): SiLUActivation(0 = 0% Params, 0 MACs = 0% MACs, 0 s = 0% latency, 0 FLOPS)
            )
            (76): Qwen3MoeMLP(
              4.72 M = 0.02% Params, 2.42 GMACs = 0.15% MACs, 252.01 us = 0.01% latency, 19.17 TFLOPS
              (gate_proj): Linear(1.57 M = 0.01% Params, 805.31 MMACs = 0.05% MACs, 57.7 us = 0% latency, 27.91 TFLOPS, in_features=2048, out_features=768, bias=False)
              (up_proj): Linear(1.57 M = 0.01% Params, 805.31 MMACs = 0.05% MACs, 42.68 us = 0% latency, 37.74 TFLOPS, in_features=2048, out_features=768, bias=False)
              (down_proj): Linear(1.57 M = 0.01% Params, 805.31 MMACs = 0.05% MACs, 39.34 us = 0% latency, 40.94 TFLOPS, in_features=768, out_features=2048, bias=False)
              (act_fn): SiLUActivation(0 = 0% Params, 0 MACs = 0% MACs, 24.32 us = 0% latency, 16.17 GFLOPS)
            )
            (77-82): 6 x Qwen3MoeMLP(
              4.72 M = 0.02% Params, 0 MACs = 0% MACs, 0 s = 0% latency, 0 FLOPS
              (gate_proj): Linear(1.57 M = 0.01% Params, 0 MACs = 0% MACs, 0 s = 0% latency, 0 FLOPS, in_features=2048, out_features=768, bias=False)
              (up_proj): Linear(1.57 M = 0.01% Params, 0 MACs = 0% MACs, 0 s = 0% latency, 0 FLOPS, in_features=2048, out_features=768, bias=False)
              (down_proj): Linear(1.57 M = 0.01% Params, 0 MACs = 0% MACs, 0 s = 0% latency, 0 FLOPS, in_features=768, out_features=2048, bias=False)
              (act_fn): SiLUActivation(0 = 0% Params, 0 MACs = 0% MACs, 0 s = 0% latency, 0 FLOPS)
            )
            (83): Qwen3MoeMLP(
              4.72 M = 0.02% Params, 2.42 GMACs = 0.15% MACs, 243.43 us = 0.01% latency, 19.85 TFLOPS
              (gate_proj): Linear(1.57 M = 0.01% Params, 805.31 MMACs = 0.05% MACs, 50.31 us = 0% latency, 32.02 TFLOPS, in_features=2048, out_features=768, bias=False)
              (up_proj): Linear(1.57 M = 0.01% Params, 805.31 MMACs = 0.05% MACs, 41.25 us = 0% latency, 39.05 TFLOPS, in_features=2048, out_features=768, bias=False)
              (down_proj): Linear(1.57 M = 0.01% Params, 805.31 MMACs = 0.05% MACs, 39.1 us = 0% latency, 41.19 TFLOPS, in_features=768, out_features=2048, bias=False)
              (act_fn): SiLUActivation(0 = 0% Params, 0 MACs = 0% MACs, 23.37 us = 0% latency, 16.83 GFLOPS)
            )
            (84-87): 4 x Qwen3MoeMLP(
              4.72 M = 0.02% Params, 0 MACs = 0% MACs, 0 s = 0% latency, 0 FLOPS
              (gate_proj): Linear(1.57 M = 0.01% Params, 0 MACs = 0% MACs, 0 s = 0% latency, 0 FLOPS, in_features=2048, out_features=768, bias=False)
              (up_proj): Linear(1.57 M = 0.01% Params, 0 MACs = 0% MACs, 0 s = 0% latency, 0 FLOPS, in_features=2048, out_features=768, bias=False)
              (down_proj): Linear(1.57 M = 0.01% Params, 0 MACs = 0% MACs, 0 s = 0% latency, 0 FLOPS, in_features=768, out_features=2048, bias=False)
              (act_fn): SiLUActivation(0 = 0% Params, 0 MACs = 0% MACs, 0 s = 0% latency, 0 FLOPS)
            )
            (88): Qwen3MoeMLP(
              4.72 M = 0.02% Params, 2.42 GMACs = 0.15% MACs, 235.32 us = 0.01% latency, 20.53 TFLOPS
              (gate_proj): Linear(1.57 M = 0.01% Params, 805.31 MMACs = 0.05% MACs, 49.35 us = 0% latency, 32.63 TFLOPS, in_features=2048, out_features=768, bias=False)
              (up_proj): Linear(1.57 M = 0.01% Params, 805.31 MMACs = 0.05% MACs, 40.29 us = 0% latency, 39.97 TFLOPS, in_features=2048, out_features=768, bias=False)
              (down_proj): Linear(1.57 M = 0.01% Params, 805.31 MMACs = 0.05% MACs, 37.91 us = 0% latency, 42.49 TFLOPS, in_features=768, out_features=2048, bias=False)
              (act_fn): SiLUActivation(0 = 0% Params, 0 MACs = 0% MACs, 22.17 us = 0% latency, 17.73 GFLOPS)
            )
            (89-95): 7 x Qwen3MoeMLP(
              4.72 M = 0.02% Params, 0 MACs = 0% MACs, 0 s = 0% latency, 0 FLOPS
              (gate_proj): Linear(1.57 M = 0.01% Params, 0 MACs = 0% MACs, 0 s = 0% latency, 0 FLOPS, in_features=2048, out_features=768, bias=False)
              (up_proj): Linear(1.57 M = 0.01% Params, 0 MACs = 0% MACs, 0 s = 0% latency, 0 FLOPS, in_features=2048, out_features=768, bias=False)
              (down_proj): Linear(1.57 M = 0.01% Params, 0 MACs = 0% MACs, 0 s = 0% latency, 0 FLOPS, in_features=768, out_features=2048, bias=False)
              (act_fn): SiLUActivation(0 = 0% Params, 0 MACs = 0% MACs, 0 s = 0% latency, 0 FLOPS)
            )
            (96): Qwen3MoeMLP(
              4.72 M = 0.02% Params, 2.42 GMACs = 0.15% MACs, 247.24 us = 0.01% latency, 19.54 TFLOPS
              (gate_proj): Linear(1.57 M = 0.01% Params, 805.31 MMACs = 0.05% MACs, 58.17 us = 0% latency, 27.69 TFLOPS, in_features=2048, out_features=768, bias=False)
              (up_proj): Linear(1.57 M = 0.01% Params, 805.31 MMACs = 0.05% MACs, 39.82 us = 0% latency, 40.45 TFLOPS, in_features=2048, out_features=768, bias=False)
              (down_proj): Linear(1.57 M = 0.01% Params, 805.31 MMACs = 0.05% MACs, 38.62 us = 0% latency, 41.7 TFLOPS, in_features=768, out_features=2048, bias=False)
              (act_fn): SiLUActivation(0 = 0% Params, 0 MACs = 0% MACs, 23.37 us = 0% latency, 16.83 GFLOPS)
            )
            (97-127): 31 x Qwen3MoeMLP(
              4.72 M = 0.02% Params, 0 MACs = 0% MACs, 0 s = 0% latency, 0 FLOPS
              (gate_proj): Linear(1.57 M = 0.01% Params, 0 MACs = 0% MACs, 0 s = 0% latency, 0 FLOPS, in_features=2048, out_features=768, bias=False)
              (up_proj): Linear(1.57 M = 0.01% Params, 0 MACs = 0% MACs, 0 s = 0% latency, 0 FLOPS, in_features=2048, out_features=768, bias=False)
              (down_proj): Linear(1.57 M = 0.01% Params, 0 MACs = 0% MACs, 0 s = 0% latency, 0 FLOPS, in_features=768, out_features=2048, bias=False)
              (act_fn): SiLUActivation(0 = 0% Params, 0 MACs = 0% MACs, 0 s = 0% latency, 0 FLOPS)
            )
          )
        )
        (input_layernorm): Qwen3MoeRMSNorm(2.05 K = 0% Params, 0 MACs = 0% MACs, 94.18 us = 0% latency, 0 FLOPS, (2048,), eps=1e-06)
        (post_attention_layernorm): Qwen3MoeRMSNorm(2.05 K = 0% Params, 0 MACs = 0% MACs, 89.41 us = 0% latency, 0 FLOPS, (2048,), eps=1e-06)
      )
      (9): Qwen3MoeDecoderLayer(
        623.12 M = 2.04% Params, 29.66 GMACs = 1.87% MACs, 4.49 ms = 0.14% latency, 13.21 TFLOPS
        (self_attn): Qwen3MoeAttention(
          18.87 M = 0.06% Params, 10.2 GMACs = 0.64% MACs, 711.92 us = 0.02% latency, 28.66 TFLOPS
          (q_proj): Linear(8.39 M = 0.03% Params, 4.29 GMACs = 0.27% MACs, 62.7 us = 0% latency, 136.99 TFLOPS, in_features=2048, out_features=4096, bias=False)
          (k_proj): Linear(1.05 M = 0% Params, 536.87 MMACs = 0.03% MACs, 54.36 us = 0% latency, 19.75 TFLOPS, in_features=2048, out_features=512, bias=False)
          (v_proj): Linear(1.05 M = 0% Params, 536.87 MMACs = 0.03% MACs, 53.41 us = 0% latency, 20.11 TFLOPS, in_features=2048, out_features=512, bias=False)
          (o_proj): Linear(8.39 M = 0.03% Params, 4.29 GMACs = 0.27% MACs, 64.61 us = 0% latency, 132.95 TFLOPS, in_features=4096, out_features=2048, bias=False)
          (q_norm): Qwen3MoeRMSNorm(128 = 0% Params, 0 MACs = 0% MACs, 91.55 us = 0% latency, 0 FLOPS, (128,), eps=1e-06)
          (k_norm): Qwen3MoeRMSNorm(128 = 0% Params, 0 MACs = 0% MACs, 87.74 us = 0% latency, 0 FLOPS, (128,), eps=1e-06)
        )
        (mlp): Qwen3MoeSparseMoeBlock(
          604.24 M = 1.98% Params, 19.46 GMACs = 1.23% MACs, 3.42 ms = 0.11% latency, 11.37 TFLOPS
          (gate): Linear(262.14 K = 0% Params, 134.22 MMACs = 0.01% MACs, 51.26 us = 0% latency, 5.24 TFLOPS, in_features=2048, out_features=128, bias=False)
          (experts): ModuleList(
            (0-9): 10 x Qwen3MoeMLP(
              4.72 M = 0.02% Params, 0 MACs = 0% MACs, 0 s = 0% latency, 0 FLOPS
              (gate_proj): Linear(1.57 M = 0.01% Params, 0 MACs = 0% MACs, 0 s = 0% latency, 0 FLOPS, in_features=2048, out_features=768, bias=False)
              (up_proj): Linear(1.57 M = 0.01% Params, 0 MACs = 0% MACs, 0 s = 0% latency, 0 FLOPS, in_features=2048, out_features=768, bias=False)
              (down_proj): Linear(1.57 M = 0.01% Params, 0 MACs = 0% MACs, 0 s = 0% latency, 0 FLOPS, in_features=768, out_features=2048, bias=False)
              (act_fn): SiLUActivation(0 = 0% Params, 0 MACs = 0% MACs, 0 s = 0% latency, 0 FLOPS)
            )
            (10): Qwen3MoeMLP(
              4.72 M = 0.02% Params, 2.42 GMACs = 0.15% MACs, 257.97 us = 0.01% latency, 18.73 TFLOPS
              (gate_proj): Linear(1.57 M = 0.01% Params, 805.31 MMACs = 0.05% MACs, 54.36 us = 0% latency, 29.63 TFLOPS, in_features=2048, out_features=768, bias=False)
              (up_proj): Linear(1.57 M = 0.01% Params, 805.31 MMACs = 0.05% MACs, 42.92 us = 0% latency, 37.53 TFLOPS, in_features=2048, out_features=768, bias=False)
              (down_proj): Linear(1.57 M = 0.01% Params, 805.31 MMACs = 0.05% MACs, 40.53 us = 0% latency, 39.74 TFLOPS, in_features=768, out_features=2048, bias=False)
              (act_fn): SiLUActivation(0 = 0% Params, 0 MACs = 0% MACs, 24.32 us = 0% latency, 16.17 GFLOPS)
            )
            (11-38): 28 x Qwen3MoeMLP(
              4.72 M = 0.02% Params, 0 MACs = 0% MACs, 0 s = 0% latency, 0 FLOPS
              (gate_proj): Linear(1.57 M = 0.01% Params, 0 MACs = 0% MACs, 0 s = 0% latency, 0 FLOPS, in_features=2048, out_features=768, bias=False)
              (up_proj): Linear(1.57 M = 0.01% Params, 0 MACs = 0% MACs, 0 s = 0% latency, 0 FLOPS, in_features=2048, out_features=768, bias=False)
              (down_proj): Linear(1.57 M = 0.01% Params, 0 MACs = 0% MACs, 0 s = 0% latency, 0 FLOPS, in_features=768, out_features=2048, bias=False)
              (act_fn): SiLUActivation(0 = 0% Params, 0 MACs = 0% MACs, 0 s = 0% latency, 0 FLOPS)
            )
            (39): Qwen3MoeMLP(
              4.72 M = 0.02% Params, 2.42 GMACs = 0.15% MACs, 245.81 us = 0.01% latency, 19.66 TFLOPS
              (gate_proj): Linear(1.57 M = 0.01% Params, 805.31 MMACs = 0.05% MACs, 51.26 us = 0% latency, 31.42 TFLOPS, in_features=2048, out_features=768, bias=False)
              (up_proj): Linear(1.57 M = 0.01% Params, 805.31 MMACs = 0.05% MACs, 41.48 us = 0% latency, 38.82 TFLOPS, in_features=2048, out_features=768, bias=False)
              (down_proj): Linear(1.57 M = 0.01% Params, 805.31 MMACs = 0.05% MACs, 40.29 us = 0% latency, 39.97 TFLOPS, in_features=768, out_features=2048, bias=False)
              (act_fn): SiLUActivation(0 = 0% Params, 0 MACs = 0% MACs, 22.65 us = 0% latency, 17.36 GFLOPS)
            )
            (40-63): 24 x Qwen3MoeMLP(
              4.72 M = 0.02% Params, 0 MACs = 0% MACs, 0 s = 0% latency, 0 FLOPS
              (gate_proj): Linear(1.57 M = 0.01% Params, 0 MACs = 0% MACs, 0 s = 0% latency, 0 FLOPS, in_features=2048, out_features=768, bias=False)
              (up_proj): Linear(1.57 M = 0.01% Params, 0 MACs = 0% MACs, 0 s = 0% latency, 0 FLOPS, in_features=2048, out_features=768, bias=False)
              (down_proj): Linear(1.57 M = 0.01% Params, 0 MACs = 0% MACs, 0 s = 0% latency, 0 FLOPS, in_features=768, out_features=2048, bias=False)
              (act_fn): SiLUActivation(0 = 0% Params, 0 MACs = 0% MACs, 0 s = 0% latency, 0 FLOPS)
            )
            (64): Qwen3MoeMLP(
              4.72 M = 0.02% Params, 2.42 GMACs = 0.15% MACs, 259.16 us = 0.01% latency, 18.65 TFLOPS
              (gate_proj): Linear(1.57 M = 0.01% Params, 805.31 MMACs = 0.05% MACs, 56.74 us = 0% latency, 28.38 TFLOPS, in_features=2048, out_features=768, bias=False)
              (up_proj): Linear(1.57 M = 0.01% Params, 805.31 MMACs = 0.05% MACs, 45.3 us = 0% latency, 35.55 TFLOPS, in_features=2048, out_features=768, bias=False)
              (down_proj): Linear(1.57 M = 0.01% Params, 805.31 MMACs = 0.05% MACs, 43.39 us = 0% latency, 37.12 TFLOPS, in_features=768, out_features=2048, bias=False)
              (act_fn): SiLUActivation(0 = 0% Params, 0 MACs = 0% MACs, 24.08 us = 0% latency, 16.33 GFLOPS)
            )
            (65-68): 4 x Qwen3MoeMLP(
              4.72 M = 0.02% Params, 0 MACs = 0% MACs, 0 s = 0% latency, 0 FLOPS
              (gate_proj): Linear(1.57 M = 0.01% Params, 0 MACs = 0% MACs, 0 s = 0% latency, 0 FLOPS, in_features=2048, out_features=768, bias=False)
              (up_proj): Linear(1.57 M = 0.01% Params, 0 MACs = 0% MACs, 0 s = 0% latency, 0 FLOPS, in_features=2048, out_features=768, bias=False)
              (down_proj): Linear(1.57 M = 0.01% Params, 0 MACs = 0% MACs, 0 s = 0% latency, 0 FLOPS, in_features=768, out_features=2048, bias=False)
              (act_fn): SiLUActivation(0 = 0% Params, 0 MACs = 0% MACs, 0 s = 0% latency, 0 FLOPS)
            )
            (69): Qwen3MoeMLP(
              4.72 M = 0.02% Params, 2.42 GMACs = 0.15% MACs, 247 us = 0.01% latency, 19.56 TFLOPS
              (gate_proj): Linear(1.57 M = 0.01% Params, 805.31 MMACs = 0.05% MACs, 51.02 us = 0% latency, 31.57 TFLOPS, in_features=2048, out_features=768, bias=False)
              (up_proj): Linear(1.57 M = 0.01% Params, 805.31 MMACs = 0.05% MACs, 42.92 us = 0% latency, 37.53 TFLOPS, in_features=2048, out_features=768, bias=False)
              (down_proj): Linear(1.57 M = 0.01% Params, 805.31 MMACs = 0.05% MACs, 37.67 us = 0% latency, 42.76 TFLOPS, in_features=768, out_features=2048, bias=False)
              (act_fn): SiLUActivation(0 = 0% Params, 0 MACs = 0% MACs, 22.41 us = 0% latency, 17.55 GFLOPS)
            )
            (70-74): 5 x Qwen3MoeMLP(
              4.72 M = 0.02% Params, 0 MACs = 0% MACs, 0 s = 0% latency, 0 FLOPS
              (gate_proj): Linear(1.57 M = 0.01% Params, 0 MACs = 0% MACs, 0 s = 0% latency, 0 FLOPS, in_features=2048, out_features=768, bias=False)
              (up_proj): Linear(1.57 M = 0.01% Params, 0 MACs = 0% MACs, 0 s = 0% latency, 0 FLOPS, in_features=2048, out_features=768, bias=False)
              (down_proj): Linear(1.57 M = 0.01% Params, 0 MACs = 0% MACs, 0 s = 0% latency, 0 FLOPS, in_features=768, out_features=2048, bias=False)
              (act_fn): SiLUActivation(0 = 0% Params, 0 MACs = 0% MACs, 0 s = 0% latency, 0 FLOPS)
            )
            (75): Qwen3MoeMLP(
              4.72 M = 0.02% Params, 2.42 GMACs = 0.15% MACs, 238.42 us = 0.01% latency, 20.27 TFLOPS
              (gate_proj): Linear(1.57 M = 0.01% Params, 805.31 MMACs = 0.05% MACs, 51.02 us = 0% latency, 31.57 TFLOPS, in_features=2048, out_features=768, bias=False)
              (up_proj): Linear(1.57 M = 0.01% Params, 805.31 MMACs = 0.05% MACs, 38.86 us = 0% latency, 41.44 TFLOPS, in_features=2048, out_features=768, bias=False)
              (down_proj): Linear(1.57 M = 0.01% Params, 805.31 MMACs = 0.05% MACs, 37.91 us = 0% latency, 42.49 TFLOPS, in_features=768, out_features=2048, bias=False)
              (act_fn): SiLUActivation(0 = 0% Params, 0 MACs = 0% MACs, 22.89 us = 0% latency, 17.18 GFLOPS)
            )
            (76): Qwen3MoeMLP(
              4.72 M = 0.02% Params, 0 MACs = 0% MACs, 0 s = 0% latency, 0 FLOPS
              (gate_proj): Linear(1.57 M = 0.01% Params, 0 MACs = 0% MACs, 0 s = 0% latency, 0 FLOPS, in_features=2048, out_features=768, bias=False)
              (up_proj): Linear(1.57 M = 0.01% Params, 0 MACs = 0% MACs, 0 s = 0% latency, 0 FLOPS, in_features=2048, out_features=768, bias=False)
              (down_proj): Linear(1.57 M = 0.01% Params, 0 MACs = 0% MACs, 0 s = 0% latency, 0 FLOPS, in_features=768, out_features=2048, bias=False)
              (act_fn): SiLUActivation(0 = 0% Params, 0 MACs = 0% MACs, 0 s = 0% latency, 0 FLOPS)
            )
            (77): Qwen3MoeMLP(
              4.72 M = 0.02% Params, 2.42 GMACs = 0.15% MACs, 243.43 us = 0.01% latency, 19.85 TFLOPS
              (gate_proj): Linear(1.57 M = 0.01% Params, 805.31 MMACs = 0.05% MACs, 48.16 us = 0% latency, 33.44 TFLOPS, in_features=2048, out_features=768, bias=False)
              (up_proj): Linear(1.57 M = 0.01% Params, 805.31 MMACs = 0.05% MACs, 38.86 us = 0% latency, 41.44 TFLOPS, in_features=2048, out_features=768, bias=False)
              (down_proj): Linear(1.57 M = 0.01% Params, 805.31 MMACs = 0.05% MACs, 47.45 us = 0% latency, 33.95 TFLOPS, in_features=768, out_features=2048, bias=False)
              (act_fn): SiLUActivation(0 = 0% Params, 0 MACs = 0% MACs, 22.17 us = 0% latency, 17.73 GFLOPS)
            )
            (78-84): 7 x Qwen3MoeMLP(
              4.72 M = 0.02% Params, 0 MACs = 0% MACs, 0 s = 0% latency, 0 FLOPS
              (gate_proj): Linear(1.57 M = 0.01% Params, 0 MACs = 0% MACs, 0 s = 0% latency, 0 FLOPS, in_features=2048, out_features=768, bias=False)
              (up_proj): Linear(1.57 M = 0.01% Params, 0 MACs = 0% MACs, 0 s = 0% latency, 0 FLOPS, in_features=2048, out_features=768, bias=False)
              (down_proj): Linear(1.57 M = 0.01% Params, 0 MACs = 0% MACs, 0 s = 0% latency, 0 FLOPS, in_features=768, out_features=2048, bias=False)
              (act_fn): SiLUActivation(0 = 0% Params, 0 MACs = 0% MACs, 0 s = 0% latency, 0 FLOPS)
            )
            (85): Qwen3MoeMLP(
              4.72 M = 0.02% Params, 2.42 GMACs = 0.15% MACs, 237.23 us = 0.01% latency, 20.37 TFLOPS
              (gate_proj): Linear(1.57 M = 0.01% Params, 805.31 MMACs = 0.05% MACs, 50.54 us = 0% latency, 31.87 TFLOPS, in_features=2048, out_features=768, bias=False)
              (up_proj): Linear(1.57 M = 0.01% Params, 805.31 MMACs = 0.05% MACs, 38.39 us = 0% latency, 41.96 TFLOPS, in_features=2048, out_features=768, bias=False)
              (down_proj): Linear(1.57 M = 0.01% Params, 805.31 MMACs = 0.05% MACs, 37.67 us = 0% latency, 42.76 TFLOPS, in_features=768, out_features=2048, bias=False)
              (act_fn): SiLUActivation(0 = 0% Params, 0 MACs = 0% MACs, 22.41 us = 0% latency, 17.55 GFLOPS)
            )
            (86-122): 37 x Qwen3MoeMLP(
              4.72 M = 0.02% Params, 0 MACs = 0% MACs, 0 s = 0% latency, 0 FLOPS
              (gate_proj): Linear(1.57 M = 0.01% Params, 0 MACs = 0% MACs, 0 s = 0% latency, 0 FLOPS, in_features=2048, out_features=768, bias=False)
              (up_proj): Linear(1.57 M = 0.01% Params, 0 MACs = 0% MACs, 0 s = 0% latency, 0 FLOPS, in_features=2048, out_features=768, bias=False)
              (down_proj): Linear(1.57 M = 0.01% Params, 0 MACs = 0% MACs, 0 s = 0% latency, 0 FLOPS, in_features=768, out_features=2048, bias=False)
              (act_fn): SiLUActivation(0 = 0% Params, 0 MACs = 0% MACs, 0 s = 0% latency, 0 FLOPS)
            )
            (123): Qwen3MoeMLP(
              4.72 M = 0.02% Params, 2.42 GMACs = 0.15% MACs, 233.41 us = 0.01% latency, 20.7 TFLOPS
              (gate_proj): Linear(1.57 M = 0.01% Params, 805.31 MMACs = 0.05% MACs, 49.59 us = 0% latency, 32.48 TFLOPS, in_features=2048, out_features=768, bias=False)
              (up_proj): Linear(1.57 M = 0.01% Params, 805.31 MMACs = 0.05% MACs, 39.1 us = 0% latency, 41.19 TFLOPS, in_features=2048, out_features=768, bias=False)
              (down_proj): Linear(1.57 M = 0.01% Params, 805.31 MMACs = 0.05% MACs, 37.91 us = 0% latency, 42.49 TFLOPS, in_features=768, out_features=2048, bias=False)
              (act_fn): SiLUActivation(0 = 0% Params, 0 MACs = 0% MACs, 21.7 us = 0% latency, 18.12 GFLOPS)
            )
            (124-127): 4 x Qwen3MoeMLP(
              4.72 M = 0.02% Params, 0 MACs = 0% MACs, 0 s = 0% latency, 0 FLOPS
              (gate_proj): Linear(1.57 M = 0.01% Params, 0 MACs = 0% MACs, 0 s = 0% latency, 0 FLOPS, in_features=2048, out_features=768, bias=False)
              (up_proj): Linear(1.57 M = 0.01% Params, 0 MACs = 0% MACs, 0 s = 0% latency, 0 FLOPS, in_features=2048, out_features=768, bias=False)
              (down_proj): Linear(1.57 M = 0.01% Params, 0 MACs = 0% MACs, 0 s = 0% latency, 0 FLOPS, in_features=768, out_features=2048, bias=False)
              (act_fn): SiLUActivation(0 = 0% Params, 0 MACs = 0% MACs, 0 s = 0% latency, 0 FLOPS)
            )
          )
        )
        (input_layernorm): Qwen3MoeRMSNorm(2.05 K = 0% Params, 0 MACs = 0% MACs, 94.65 us = 0% latency, 0 FLOPS, (2048,), eps=1e-06)
        (post_attention_layernorm): Qwen3MoeRMSNorm(2.05 K = 0% Params, 0 MACs = 0% MACs, 90.12 us = 0% latency, 0 FLOPS, (2048,), eps=1e-06)
      )
      (10): Qwen3MoeDecoderLayer(
        623.12 M = 2.04% Params, 29.66 GMACs = 1.87% MACs, 4.5 ms = 0.14% latency, 13.19 TFLOPS
        (self_attn): Qwen3MoeAttention(
          18.87 M = 0.06% Params, 10.2 GMACs = 0.64% MACs, 695.71 us = 0.02% latency, 29.32 TFLOPS
          (q_proj): Linear(8.39 M = 0.03% Params, 4.29 GMACs = 0.27% MACs, 62.7 us = 0% latency, 136.99 TFLOPS, in_features=2048, out_features=4096, bias=False)
          (k_proj): Linear(1.05 M = 0% Params, 536.87 MMACs = 0.03% MACs, 53.64 us = 0% latency, 20.02 TFLOPS, in_features=2048, out_features=512, bias=False)
          (v_proj): Linear(1.05 M = 0% Params, 536.87 MMACs = 0.03% MACs, 51.98 us = 0% latency, 20.66 TFLOPS, in_features=2048, out_features=512, bias=False)
          (o_proj): Linear(8.39 M = 0.03% Params, 4.29 GMACs = 0.27% MACs, 60.8 us = 0% latency, 141.29 TFLOPS, in_features=4096, out_features=2048, bias=False)
          (q_norm): Qwen3MoeRMSNorm(128 = 0% Params, 0 MACs = 0% MACs, 92.03 us = 0% latency, 0 FLOPS, (128,), eps=1e-06)
          (k_norm): Qwen3MoeRMSNorm(128 = 0% Params, 0 MACs = 0% MACs, 86.78 us = 0% latency, 0 FLOPS, (128,), eps=1e-06)
        )
        (mlp): Qwen3MoeSparseMoeBlock(
          604.24 M = 1.98% Params, 19.46 GMACs = 1.23% MACs, 3.46 ms = 0.11% latency, 11.27 TFLOPS
          (gate): Linear(262.14 K = 0% Params, 134.22 MMACs = 0.01% MACs, 49.11 us = 0% latency, 5.47 TFLOPS, in_features=2048, out_features=128, bias=False)
          (experts): ModuleList(
            (0): Qwen3MoeMLP(
              4.72 M = 0.02% Params, 2.42 GMACs = 0.15% MACs, 268.94 us = 0.01% latency, 17.97 TFLOPS
              (gate_proj): Linear(1.57 M = 0.01% Params, 805.31 MMACs = 0.05% MACs, 64.13 us = 0% latency, 25.11 TFLOPS, in_features=2048, out_features=768, bias=False)
              (up_proj): Linear(1.57 M = 0.01% Params, 805.31 MMACs = 0.05% MACs, 44.58 us = 0% latency, 36.13 TFLOPS, in_features=2048, out_features=768, bias=False)
              (down_proj): Linear(1.57 M = 0.01% Params, 805.31 MMACs = 0.05% MACs, 41.72 us = 0% latency, 38.6 TFLOPS, in_features=768, out_features=2048, bias=False)
              (act_fn): SiLUActivation(0 = 0% Params, 0 MACs = 0% MACs, 25.27 us = 0% latency, 15.56 GFLOPS)
            )
            (1-37): 37 x Qwen3MoeMLP(
              4.72 M = 0.02% Params, 0 MACs = 0% MACs, 0 s = 0% latency, 0 FLOPS
              (gate_proj): Linear(1.57 M = 0.01% Params, 0 MACs = 0% MACs, 0 s = 0% latency, 0 FLOPS, in_features=2048, out_features=768, bias=False)
              (up_proj): Linear(1.57 M = 0.01% Params, 0 MACs = 0% MACs, 0 s = 0% latency, 0 FLOPS, in_features=2048, out_features=768, bias=False)
              (down_proj): Linear(1.57 M = 0.01% Params, 0 MACs = 0% MACs, 0 s = 0% latency, 0 FLOPS, in_features=768, out_features=2048, bias=False)
              (act_fn): SiLUActivation(0 = 0% Params, 0 MACs = 0% MACs, 0 s = 0% latency, 0 FLOPS)
            )
            (38): Qwen3MoeMLP(
              4.72 M = 0.02% Params, 2.42 GMACs = 0.15% MACs, 247.24 us = 0.01% latency, 19.54 TFLOPS
              (gate_proj): Linear(1.57 M = 0.01% Params, 805.31 MMACs = 0.05% MACs, 58.41 us = 0% latency, 27.57 TFLOPS, in_features=2048, out_features=768, bias=False)
              (up_proj): Linear(1.57 M = 0.01% Params, 805.31 MMACs = 0.05% MACs, 41.96 us = 0% latency, 38.38 TFLOPS, in_features=2048, out_features=768, bias=False)
              (down_proj): Linear(1.57 M = 0.01% Params, 805.31 MMACs = 0.05% MACs, 37.67 us = 0% latency, 42.76 TFLOPS, in_features=768, out_features=2048, bias=False)
              (act_fn): SiLUActivation(0 = 0% Params, 0 MACs = 0% MACs, 22.65 us = 0% latency, 17.36 GFLOPS)
            )
            (39-50): 12 x Qwen3MoeMLP(
              4.72 M = 0.02% Params, 0 MACs = 0% MACs, 0 s = 0% latency, 0 FLOPS
              (gate_proj): Linear(1.57 M = 0.01% Params, 0 MACs = 0% MACs, 0 s = 0% latency, 0 FLOPS, in_features=2048, out_features=768, bias=False)
              (up_proj): Linear(1.57 M = 0.01% Params, 0 MACs = 0% MACs, 0 s = 0% latency, 0 FLOPS, in_features=2048, out_features=768, bias=False)
              (down_proj): Linear(1.57 M = 0.01% Params, 0 MACs = 0% MACs, 0 s = 0% latency, 0 FLOPS, in_features=768, out_features=2048, bias=False)
              (act_fn): SiLUActivation(0 = 0% Params, 0 MACs = 0% MACs, 0 s = 0% latency, 0 FLOPS)
            )
            (51): Qwen3MoeMLP(
              4.72 M = 0.02% Params, 2.42 GMACs = 0.15% MACs, 251.77 us = 0.01% latency, 19.19 TFLOPS
              (gate_proj): Linear(1.57 M = 0.01% Params, 805.31 MMACs = 0.05% MACs, 52.45 us = 0% latency, 30.71 TFLOPS, in_features=2048, out_features=768, bias=False)
              (up_proj): Linear(1.57 M = 0.01% Params, 805.31 MMACs = 0.05% MACs, 41.25 us = 0% latency, 39.05 TFLOPS, in_features=2048, out_features=768, bias=False)
              (down_proj): Linear(1.57 M = 0.01% Params, 805.31 MMACs = 0.05% MACs, 39.58 us = 0% latency, 40.7 TFLOPS, in_features=768, out_features=2048, bias=False)
              (act_fn): SiLUActivation(0 = 0% Params, 0 MACs = 0% MACs, 23.6 us = 0% latency, 16.66 GFLOPS)
            )
            (52-68): 17 x Qwen3MoeMLP(
              4.72 M = 0.02% Params, 0 MACs = 0% MACs, 0 s = 0% latency, 0 FLOPS
              (gate_proj): Linear(1.57 M = 0.01% Params, 0 MACs = 0% MACs, 0 s = 0% latency, 0 FLOPS, in_features=2048, out_features=768, bias=False)
              (up_proj): Linear(1.57 M = 0.01% Params, 0 MACs = 0% MACs, 0 s = 0% latency, 0 FLOPS, in_features=2048, out_features=768, bias=False)
              (down_proj): Linear(1.57 M = 0.01% Params, 0 MACs = 0% MACs, 0 s = 0% latency, 0 FLOPS, in_features=768, out_features=2048, bias=False)
              (act_fn): SiLUActivation(0 = 0% Params, 0 MACs = 0% MACs, 0 s = 0% latency, 0 FLOPS)
            )
            (69): Qwen3MoeMLP(
              4.72 M = 0.02% Params, 2.42 GMACs = 0.15% MACs, 239.37 us = 0.01% latency, 20.19 TFLOPS
              (gate_proj): Linear(1.57 M = 0.01% Params, 805.31 MMACs = 0.05% MACs, 52.21 us = 0% latency, 30.85 TFLOPS, in_features=2048, out_features=768, bias=False)
              (up_proj): Linear(1.57 M = 0.01% Params, 805.31 MMACs = 0.05% MACs, 39.58 us = 0% latency, 40.7 TFLOPS, in_features=2048, out_features=768, bias=False)
              (down_proj): Linear(1.57 M = 0.01% Params, 805.31 MMACs = 0.05% MACs, 39.82 us = 0% latency, 40.45 TFLOPS, in_features=768, out_features=2048, bias=False)
              (act_fn): SiLUActivation(0 = 0% Params, 0 MACs = 0% MACs, 22.65 us = 0% latency, 17.36 GFLOPS)
            )
            (70): Qwen3MoeMLP(
              4.72 M = 0.02% Params, 2.42 GMACs = 0.15% MACs, 246.05 us = 0.01% latency, 19.64 TFLOPS
              (gate_proj): Linear(1.57 M = 0.01% Params, 805.31 MMACs = 0.05% MACs, 49.83 us = 0% latency, 32.32 TFLOPS, in_features=2048, out_features=768, bias=False)
              (up_proj): Linear(1.57 M = 0.01% Params, 805.31 MMACs = 0.05% MACs, 40.05 us = 0% latency, 40.21 TFLOPS, in_features=2048, out_features=768, bias=False)
              (down_proj): Linear(1.57 M = 0.01% Params, 805.31 MMACs = 0.05% MACs, 38.62 us = 0% latency, 41.7 TFLOPS, in_features=768, out_features=2048, bias=False)
              (act_fn): SiLUActivation(0 = 0% Params, 0 MACs = 0% MACs, 22.89 us = 0% latency, 17.18 GFLOPS)
            )
            (71-83): 13 x Qwen3MoeMLP(
              4.72 M = 0.02% Params, 0 MACs = 0% MACs, 0 s = 0% latency, 0 FLOPS
              (gate_proj): Linear(1.57 M = 0.01% Params, 0 MACs = 0% MACs, 0 s = 0% latency, 0 FLOPS, in_features=2048, out_features=768, bias=False)
              (up_proj): Linear(1.57 M = 0.01% Params, 0 MACs = 0% MACs, 0 s = 0% latency, 0 FLOPS, in_features=2048, out_features=768, bias=False)
              (down_proj): Linear(1.57 M = 0.01% Params, 0 MACs = 0% MACs, 0 s = 0% latency, 0 FLOPS, in_features=768, out_features=2048, bias=False)
              (act_fn): SiLUActivation(0 = 0% Params, 0 MACs = 0% MACs, 0 s = 0% latency, 0 FLOPS)
            )
            (84): Qwen3MoeMLP(
              4.72 M = 0.02% Params, 2.42 GMACs = 0.15% MACs, 238.66 us = 0.01% latency, 20.25 TFLOPS
              (gate_proj): Linear(1.57 M = 0.01% Params, 805.31 MMACs = 0.05% MACs, 50.07 us = 0% latency, 32.17 TFLOPS, in_features=2048, out_features=768, bias=False)
              (up_proj): Linear(1.57 M = 0.01% Params, 805.31 MMACs = 0.05% MACs, 41.01 us = 0% latency, 39.28 TFLOPS, in_features=2048, out_features=768, bias=False)
              (down_proj): Linear(1.57 M = 0.01% Params, 805.31 MMACs = 0.05% MACs, 37.91 us = 0% latency, 42.49 TFLOPS, in_features=768, out_features=2048, bias=False)
              (act_fn): SiLUActivation(0 = 0% Params, 0 MACs = 0% MACs, 22.17 us = 0% latency, 17.73 GFLOPS)
            )
            (85-96): 12 x Qwen3MoeMLP(
              4.72 M = 0.02% Params, 0 MACs = 0% MACs, 0 s = 0% latency, 0 FLOPS
              (gate_proj): Linear(1.57 M = 0.01% Params, 0 MACs = 0% MACs, 0 s = 0% latency, 0 FLOPS, in_features=2048, out_features=768, bias=False)
              (up_proj): Linear(1.57 M = 0.01% Params, 0 MACs = 0% MACs, 0 s = 0% latency, 0 FLOPS, in_features=2048, out_features=768, bias=False)
              (down_proj): Linear(1.57 M = 0.01% Params, 0 MACs = 0% MACs, 0 s = 0% latency, 0 FLOPS, in_features=768, out_features=2048, bias=False)
              (act_fn): SiLUActivation(0 = 0% Params, 0 MACs = 0% MACs, 0 s = 0% latency, 0 FLOPS)
            )
            (97): Qwen3MoeMLP(
              4.72 M = 0.02% Params, 2.42 GMACs = 0.15% MACs, 238.66 us = 0.01% latency, 20.25 TFLOPS
              (gate_proj): Linear(1.57 M = 0.01% Params, 805.31 MMACs = 0.05% MACs, 50.07 us = 0% latency, 32.17 TFLOPS, in_features=2048, out_features=768, bias=False)
              (up_proj): Linear(1.57 M = 0.01% Params, 805.31 MMACs = 0.05% MACs, 39.34 us = 0% latency, 40.94 TFLOPS, in_features=2048, out_features=768, bias=False)
              (down_proj): Linear(1.57 M = 0.01% Params, 805.31 MMACs = 0.05% MACs, 38.86 us = 0% latency, 41.44 TFLOPS, in_features=768, out_features=2048, bias=False)
              (act_fn): SiLUActivation(0 = 0% Params, 0 MACs = 0% MACs, 22.41 us = 0% latency, 17.55 GFLOPS)
            )
            (98-103): 6 x Qwen3MoeMLP(
              4.72 M = 0.02% Params, 0 MACs = 0% MACs, 0 s = 0% latency, 0 FLOPS
              (gate_proj): Linear(1.57 M = 0.01% Params, 0 MACs = 0% MACs, 0 s = 0% latency, 0 FLOPS, in_features=2048, out_features=768, bias=False)
              (up_proj): Linear(1.57 M = 0.01% Params, 0 MACs = 0% MACs, 0 s = 0% latency, 0 FLOPS, in_features=2048, out_features=768, bias=False)
              (down_proj): Linear(1.57 M = 0.01% Params, 0 MACs = 0% MACs, 0 s = 0% latency, 0 FLOPS, in_features=768, out_features=2048, bias=False)
              (act_fn): SiLUActivation(0 = 0% Params, 0 MACs = 0% MACs, 0 s = 0% latency, 0 FLOPS)
            )
            (104): Qwen3MoeMLP(
              4.72 M = 0.02% Params, 2.42 GMACs = 0.15% MACs, 263.69 us = 0.01% latency, 18.33 TFLOPS
…
              (gate_proj): Linear(1.57 M = 0.01% Params, 805.31 MMACs = 0.05% MACs, 61.51 us = 0% latency, 26.18 TFLOPS, in_features=2048, out_features=768, bias=False)
              (up_proj): Linear(1.57 M = 0.01% Params, 805.31 MMACs = 0.05% MACs, 41.48 us = 0% latency, 38.82 TFLOPS, in_features=2048, out_features=768, bias=False)
              (down_proj): Linear(1.57 M = 0.01% Params, 805.31 MMACs = 0.05% MACs, 45.3 us = 0% latency, 35.55 TFLOPS, in_features=768, out_features=2048, bias=False)
              (act_fn): SiLUActivation(0 = 0% Params, 0 MACs = 0% MACs, 24.8 us = 0% latency, 15.86 GFLOPS)
            )
            (41-81): 41 x Qwen3MoeMLP(
              4.72 M = 0.02% Params, 0 MACs = 0% MACs, 0 s = 0% latency, 0 FLOPS
              (gate_proj): Linear(1.57 M = 0.01% Params, 0 MACs = 0% MACs, 0 s = 0% latency, 0 FLOPS, in_features=2048, out_features=768, bias=False)
              (up_proj): Linear(1.57 M = 0.01% Params, 0 MACs = 0% MACs, 0 s = 0% latency, 0 FLOPS, in_features=2048, out_features=768, bias=False)
              (down_proj): Linear(1.57 M = 0.01% Params, 0 MACs = 0% MACs, 0 s = 0% latency, 0 FLOPS, in_features=768, out_features=2048, bias=False)
              (act_fn): SiLUActivation(0 = 0% Params, 0 MACs = 0% MACs, 0 s = 0% latency, 0 FLOPS)
            )
            (82): Qwen3MoeMLP(
              4.72 M = 0.02% Params, 2.42 GMACs = 0.15% MACs, 267.03 us = 0.01% latency, 18.1 TFLOPS
              (gate_proj): Linear(1.57 M = 0.01% Params, 805.31 MMACs = 0.05% MACs, 63.18 us = 0% latency, 25.49 TFLOPS, in_features=2048, out_features=768, bias=False)
              (up_proj): Linear(1.57 M = 0.01% Params, 805.31 MMACs = 0.05% MACs, 44.82 us = 0% latency, 35.93 TFLOPS, in_features=2048, out_features=768, bias=False)
              (down_proj): Linear(1.57 M = 0.01% Params, 805.31 MMACs = 0.05% MACs, 41.01 us = 0% latency, 39.28 TFLOPS, in_features=768, out_features=2048, bias=False)
              (act_fn): SiLUActivation(0 = 0% Params, 0 MACs = 0% MACs, 25.03 us = 0% latency, 15.71 GFLOPS)
            )
            (83-91): 9 x Qwen3MoeMLP(
              4.72 M = 0.02% Params, 0 MACs = 0% MACs, 0 s = 0% latency, 0 FLOPS
              (gate_proj): Linear(1.57 M = 0.01% Params, 0 MACs = 0% MACs, 0 s = 0% latency, 0 FLOPS, in_features=2048, out_features=768, bias=False)
              (up_proj): Linear(1.57 M = 0.01% Params, 0 MACs = 0% MACs, 0 s = 0% latency, 0 FLOPS, in_features=2048, out_features=768, bias=False)
              (down_proj): Linear(1.57 M = 0.01% Params, 0 MACs = 0% MACs, 0 s = 0% latency, 0 FLOPS, in_features=768, out_features=2048, bias=False)
              (act_fn): SiLUActivation(0 = 0% Params, 0 MACs = 0% MACs, 0 s = 0% latency, 0 FLOPS)
            )
            (92): Qwen3MoeMLP(
              4.72 M = 0.02% Params, 2.42 GMACs = 0.15% MACs, 263.45 us = 0.01% latency, 18.34 TFLOPS
              (gate_proj): Linear(1.57 M = 0.01% Params, 805.31 MMACs = 0.05% MACs, 64.85 us = 0% latency, 24.84 TFLOPS, in_features=2048, out_features=768, bias=False)
              (up_proj): Linear(1.57 M = 0.01% Params, 805.31 MMACs = 0.05% MACs, 41.48 us = 0% latency, 38.82 TFLOPS, in_features=2048, out_features=768, bias=False)
              (down_proj): Linear(1.57 M = 0.01% Params, 805.31 MMACs = 0.05% MACs, 39.82 us = 0% latency, 40.45 TFLOPS, in_features=768, out_features=2048, bias=False)
              (act_fn): SiLUActivation(0 = 0% Params, 0 MACs = 0% MACs, 25.27 us = 0% latency, 15.56 GFLOPS)
            )
            (93-95): 3 x Qwen3MoeMLP(
              4.72 M = 0.02% Params, 0 MACs = 0% MACs, 0 s = 0% latency, 0 FLOPS
              (gate_proj): Linear(1.57 M = 0.01% Params, 0 MACs = 0% MACs, 0 s = 0% latency, 0 FLOPS, in_features=2048, out_features=768, bias=False)
              (up_proj): Linear(1.57 M = 0.01% Params, 0 MACs = 0% MACs, 0 s = 0% latency, 0 FLOPS, in_features=2048, out_features=768, bias=False)
              (down_proj): Linear(1.57 M = 0.01% Params, 0 MACs = 0% MACs, 0 s = 0% latency, 0 FLOPS, in_features=768, out_features=2048, bias=False)
              (act_fn): SiLUActivation(0 = 0% Params, 0 MACs = 0% MACs, 0 s = 0% latency, 0 FLOPS)
            )
            (96): Qwen3MoeMLP(
              4.72 M = 0.02% Params, 2.42 GMACs = 0.15% MACs, 279.9 us = 0.01% latency, 17.26 TFLOPS
              (gate_proj): Linear(1.57 M = 0.01% Params, 805.31 MMACs = 0.05% MACs, 66.04 us = 0% latency, 24.39 TFLOPS, in_features=2048, out_features=768, bias=False)
              (up_proj): Linear(1.57 M = 0.01% Params, 805.31 MMACs = 0.05% MACs, 44.35 us = 0% latency, 36.32 TFLOPS, in_features=2048, out_features=768, bias=False)
              (down_proj): Linear(1.57 M = 0.01% Params, 805.31 MMACs = 0.05% MACs, 44.35 us = 0% latency, 36.32 TFLOPS, in_features=768, out_features=2048, bias=False)
              (act_fn): SiLUActivation(0 = 0% Params, 0 MACs = 0% MACs, 31.95 us = 0% latency, 12.31 GFLOPS)
            )
            (97-103): 7 x Qwen3MoeMLP(
              4.72 M = 0.02% Params, 0 MACs = 0% MACs, 0 s = 0% latency, 0 FLOPS
              (gate_proj): Linear(1.57 M = 0.01% Params, 0 MACs = 0% MACs, 0 s = 0% latency, 0 FLOPS, in_features=2048, out_features=768, bias=False)
              (up_proj): Linear(1.57 M = 0.01% Params, 0 MACs = 0% MACs, 0 s = 0% latency, 0 FLOPS, in_features=2048, out_features=768, bias=False)
              (down_proj): Linear(1.57 M = 0.01% Params, 0 MACs = 0% MACs, 0 s = 0% latency, 0 FLOPS, in_features=768, out_features=2048, bias=False)
              (act_fn): SiLUActivation(0 = 0% Params, 0 MACs = 0% MACs, 0 s = 0% latency, 0 FLOPS)
            )
            (104): Qwen3MoeMLP(
              4.72 M = 0.02% Params, 2.42 GMACs = 0.15% MACs, 274.42 us = 0.01% latency, 17.61 TFLOPS
              (gate_proj): Linear(1.57 M = 0.01% Params, 805.31 MMACs = 0.05% MACs, 67.95 us = 0% latency, 23.7 TFLOPS, in_features=2048, out_features=768, bias=False)
              (up_proj): Linear(1.57 M = 0.01% Params, 805.31 MMACs = 0.05% MACs, 45.3 us = 0% latency, 35.55 TFLOPS, in_features=2048, out_features=768, bias=False)
              (down_proj): Linear(1.57 M = 0.01% Params, 805.31 MMACs = 0.05% MACs, 41.72 us = 0% latency, 38.6 TFLOPS, in_features=768, out_features=2048, bias=False)
              (act_fn): SiLUActivation(0 = 0% Params, 0 MACs = 0% MACs, 24.08 us = 0% latency, 16.33 GFLOPS)
            )
            (105-118): 14 x Qwen3MoeMLP(
              4.72 M = 0.02% Params, 0 MACs = 0% MACs, 0 s = 0% latency, 0 FLOPS
              (gate_proj): Linear(1.57 M = 0.01% Params, 0 MACs = 0% MACs, 0 s = 0% latency, 0 FLOPS, in_features=2048, out_features=768, bias=False)
              (up_proj): Linear(1.57 M = 0.01% Params, 0 MACs = 0% MACs, 0 s = 0% latency, 0 FLOPS, in_features=2048, out_features=768, bias=False)
              (down_proj): Linear(1.57 M = 0.01% Params, 0 MACs = 0% MACs, 0 s = 0% latency, 0 FLOPS, in_features=768, out_features=2048, bias=False)
              (act_fn): SiLUActivation(0 = 0% Params, 0 MACs = 0% MACs, 0 s = 0% latency, 0 FLOPS)
            )
            (119): Qwen3MoeMLP(
              4.72 M = 0.02% Params, 2.42 GMACs = 0.15% MACs, 271.8 us = 0.01% latency, 17.78 TFLOPS
              (gate_proj): Linear(1.57 M = 0.01% Params, 805.31 MMACs = 0.05% MACs, 64.13 us = 0% latency, 25.11 TFLOPS, in_features=2048, out_features=768, bias=False)
              (up_proj): Linear(1.57 M = 0.01% Params, 805.31 MMACs = 0.05% MACs, 42.2 us = 0% latency, 38.17 TFLOPS, in_features=2048, out_features=768, bias=False)
              (down_proj): Linear(1.57 M = 0.01% Params, 805.31 MMACs = 0.05% MACs, 42.92 us = 0% latency, 37.53 TFLOPS, in_features=768, out_features=2048, bias=False)
              (act_fn): SiLUActivation(0 = 0% Params, 0 MACs = 0% MACs, 24.32 us = 0% latency, 16.17 GFLOPS)
            )
            (120-127): 8 x Qwen3MoeMLP(
              4.72 M = 0.02% Params, 0 MACs = 0% MACs, 0 s = 0% latency, 0 FLOPS
              (gate_proj): Linear(1.57 M = 0.01% Params, 0 MACs = 0% MACs, 0 s = 0% latency, 0 FLOPS, in_features=2048, out_features=768, bias=False)
              (up_proj): Linear(1.57 M = 0.01% Params, 0 MACs = 0% MACs, 0 s = 0% latency, 0 FLOPS, in_features=2048, out_features=768, bias=False)
              (down_proj): Linear(1.57 M = 0.01% Params, 0 MACs = 0% MACs, 0 s = 0% latency, 0 FLOPS, in_features=768, out_features=2048, bias=False)
              (act_fn): SiLUActivation(0 = 0% Params, 0 MACs = 0% MACs, 0 s = 0% latency, 0 FLOPS)
            )
          )
        )
        (input_layernorm): Qwen3MoeRMSNorm(2.05 K = 0% Params, 0 MACs = 0% MACs, 165.94 us = 0.01% latency, 0 FLOPS, (2048,), eps=1e-06)
        (post_attention_layernorm): Qwen3MoeRMSNorm(2.05 K = 0% Params, 0 MACs = 0% MACs, 97.51 us = 0% latency, 0 FLOPS, (2048,), eps=1e-06)
      )
      (45): Qwen3MoeDecoderLayer(
        623.12 M = 2.04% Params, 29.66 GMACs = 1.87% MACs, 48.59 ms = 1.54% latency, 1.22 TFLOPS
        (self_attn): Qwen3MoeAttention(
          18.87 M = 0.06% Params, 10.2 GMACs = 0.64% MACs, 810.86 us = 0.03% latency, 25.16 TFLOPS
          (q_proj): Linear(8.39 M = 0.03% Params, 4.29 GMACs = 0.27% MACs, 79.39 us = 0% latency, 108.19 TFLOPS, in_features=2048, out_features=4096, bias=False)
          (k_proj): Linear(1.05 M = 0% Params, 536.87 MMACs = 0.03% MACs, 65.09 us = 0% latency, 16.5 TFLOPS, in_features=2048, out_features=512, bias=False)
          (v_proj): Linear(1.05 M = 0% Params, 536.87 MMACs = 0.03% MACs, 55.79 us = 0% latency, 19.25 TFLOPS, in_features=2048, out_features=512, bias=False)
          (o_proj): Linear(8.39 M = 0.03% Params, 4.29 GMACs = 0.27% MACs, 65.33 us = 0% latency, 131.49 TFLOPS, in_features=4096, out_features=2048, bias=False)
          (q_norm): Qwen3MoeRMSNorm(128 = 0% Params, 0 MACs = 0% MACs, 100.85 us = 0% latency, 0 FLOPS, (128,), eps=1e-06)
          (k_norm): Qwen3MoeRMSNorm(128 = 0% Params, 0 MACs = 0% MACs, 97.04 us = 0% latency, 0 FLOPS, (128,), eps=1e-06)
        )
        (mlp): Qwen3MoeSparseMoeBlock(
          604.24 M = 1.98% Params, 19.46 GMACs = 1.23% MACs, 42.81 ms = 1.36% latency, 909.37 GFLOPS
          (gate): Linear(262.14 K = 0% Params, 134.22 MMACs = 0.01% MACs, 56.03 us = 0% latency, 4.79 TFLOPS, in_features=2048, out_features=128, bias=False)
          (experts): ModuleList(
            (0-25): 26 x Qwen3MoeMLP(
              4.72 M = 0.02% Params, 0 MACs = 0% MACs, 0 s = 0% latency, 0 FLOPS
              (gate_proj): Linear(1.57 M = 0.01% Params, 0 MACs = 0% MACs, 0 s = 0% latency, 0 FLOPS, in_features=2048, out_features=768, bias=False)
              (up_proj): Linear(1.57 M = 0.01% Params, 0 MACs = 0% MACs, 0 s = 0% latency, 0 FLOPS, in_features=2048, out_features=768, bias=False)
              (down_proj): Linear(1.57 M = 0.01% Params, 0 MACs = 0% MACs, 0 s = 0% latency, 0 FLOPS, in_features=768, out_features=2048, bias=False)
              (act_fn): SiLUActivation(0 = 0% Params, 0 MACs = 0% MACs, 0 s = 0% latency, 0 FLOPS)
            )
            (26): Qwen3MoeMLP(
              4.72 M = 0.02% Params, 2.42 GMACs = 0.15% MACs, 314.71 us = 0.01% latency, 15.35 TFLOPS
              (gate_proj): Linear(1.57 M = 0.01% Params, 805.31 MMACs = 0.05% MACs, 72 us = 0% latency, 22.37 TFLOPS, in_features=2048, out_features=768, bias=False)
              (up_proj): Linear(1.57 M = 0.01% Params, 805.31 MMACs = 0.05% MACs, 49.35 us = 0% latency, 32.63 TFLOPS, in_features=2048, out_features=768, bias=False)
              (down_proj): Linear(1.57 M = 0.01% Params, 805.31 MMACs = 0.05% MACs, 59.6 us = 0% latency, 27.02 TFLOPS, in_features=768, out_features=2048, bias=False)
              (act_fn): SiLUActivation(0 = 0% Params, 0 MACs = 0% MACs, 28.85 us = 0% latency, 13.63 GFLOPS)
            )
            (27-37): 11 x Qwen3MoeMLP(
              4.72 M = 0.02% Params, 0 MACs = 0% MACs, 0 s = 0% latency, 0 FLOPS
              (gate_proj): Linear(1.57 M = 0.01% Params, 0 MACs = 0% MACs, 0 s = 0% latency, 0 FLOPS, in_features=2048, out_features=768, bias=False)
              (up_proj): Linear(1.57 M = 0.01% Params, 0 MACs = 0% MACs, 0 s = 0% latency, 0 FLOPS, in_features=2048, out_features=768, bias=False)
              (down_proj): Linear(1.57 M = 0.01% Params, 0 MACs = 0% MACs, 0 s = 0% latency, 0 FLOPS, in_features=768, out_features=2048, bias=False)
              (act_fn): SiLUActivation(0 = 0% Params, 0 MACs = 0% MACs, 0 s = 0% latency, 0 FLOPS)
            )
            (38): Qwen3MoeMLP(
              4.72 M = 0.02% Params, 2.42 GMACs = 0.15% MACs, 282.53 us = 0.01% latency, 17.1 TFLOPS
              (gate_proj): Linear(1.57 M = 0.01% Params, 805.31 MMACs = 0.05% MACs, 72 us = 0% latency, 22.37 TFLOPS, in_features=2048, out_features=768, bias=False)
              (up_proj): Linear(1.57 M = 0.01% Params, 805.31 MMACs = 0.05% MACs, 43.63 us = 0% latency, 36.91 TFLOPS, in_features=2048, out_features=768, bias=False)
              (down_proj): Linear(1.57 M = 0.01% Params, 805.31 MMACs = 0.05% MACs, 46.01 us = 0% latency, 35 TFLOPS, in_features=768, out_features=2048, bias=False)
              (act_fn): SiLUActivation(0 = 0% Params, 0 MACs = 0% MACs, 24.08 us = 0% latency, 16.33 GFLOPS)
            )
            (39-62): 24 x Qwen3MoeMLP(
              4.72 M = 0.02% Params, 0 MACs = 0% MACs, 0 s = 0% latency, 0 FLOPS
              (gate_proj): Linear(1.57 M = 0.01% Params, 0 MACs = 0% MACs, 0 s = 0% latency, 0 FLOPS, in_features=2048, out_features=768, bias=False)
              (up_proj): Linear(1.57 M = 0.01% Params, 0 MACs = 0% MACs, 0 s = 0% latency, 0 FLOPS, in_features=2048, out_features=768, bias=False)
              (down_proj): Linear(1.57 M = 0.01% Params, 0 MACs = 0% MACs, 0 s = 0% latency, 0 FLOPS, in_features=768, out_features=2048, bias=False)
              (act_fn): SiLUActivation(0 = 0% Params, 0 MACs = 0% MACs, 0 s = 0% latency, 0 FLOPS)
            )
            (63): Qwen3MoeMLP(
              4.72 M = 0.02% Params, 2.42 GMACs = 0.15% MACs, 277.52 us = 0.01% latency, 17.41 TFLOPS
              (gate_proj): Linear(1.57 M = 0.01% Params, 805.31 MMACs = 0.05% MACs, 69.14 us = 0% latency, 23.29 TFLOPS, in_features=2048, out_features=768, bias=False)
              (up_proj): Linear(1.57 M = 0.01% Params, 805.31 MMACs = 0.05% MACs, 43.87 us = 0% latency, 36.71 TFLOPS, in_features=2048, out_features=768, bias=False)
              (down_proj): Linear(1.57 M = 0.01% Params, 805.31 MMACs = 0.05% MACs, 41.25 us = 0% latency, 39.05 TFLOPS, in_features=768, out_features=2048, bias=False)
              (act_fn): SiLUActivation(0 = 0% Params, 0 MACs = 0% MACs, 24.8 us = 0% latency, 15.86 GFLOPS)
            )
            (64): Qwen3MoeMLP(
              4.72 M = 0.02% Params, 2.42 GMACs = 0.15% MACs, 271.32 us = 0.01% latency, 17.81 TFLOPS
              (gate_proj): Linear(1.57 M = 0.01% Params, 805.31 MMACs = 0.05% MACs, 65.57 us = 0% latency, 24.57 TFLOPS, in_features=2048, out_features=768, bias=False)
              (up_proj): Linear(1.57 M = 0.01% Params, 805.31 MMACs = 0.05% MACs, 46.25 us = 0% latency, 34.82 TFLOPS, in_features=2048, out_features=768, bias=False)
              (down_proj): Linear(1.57 M = 0.01% Params, 805.31 MMACs = 0.05% MACs, 40.77 us = 0% latency, 39.51 TFLOPS, in_features=768, out_features=2048, bias=False)
              (act_fn): SiLUActivation(0 = 0% Params, 0 MACs = 0% MACs, 25.75 us = 0% latency, 15.27 GFLOPS)
            )
            (65-68): 4 x Qwen3MoeMLP(
              4.72 M = 0.02% Params, 0 MACs = 0% MACs, 0 s = 0% latency, 0 FLOPS
              (gate_proj): Linear(1.57 M = 0.01% Params, 0 MACs = 0% MACs, 0 s = 0% latency, 0 FLOPS, in_features=2048, out_features=768, bias=False)
              (up_proj): Linear(1.57 M = 0.01% Params, 0 MACs = 0% MACs, 0 s = 0% latency, 0 FLOPS, in_features=2048, out_features=768, bias=False)
              (down_proj): Linear(1.57 M = 0.01% Params, 0 MACs = 0% MACs, 0 s = 0% latency, 0 FLOPS, in_features=768, out_features=2048, bias=False)
              (act_fn): SiLUActivation(0 = 0% Params, 0 MACs = 0% MACs, 0 s = 0% latency, 0 FLOPS)
            )
            (69): Qwen3MoeMLP(
              4.72 M = 0.02% Params, 2.42 GMACs = 0.15% MACs, 280.38 us = 0.01% latency, 17.23 TFLOPS
              (gate_proj): Linear(1.57 M = 0.01% Params, 805.31 MMACs = 0.05% MACs, 71.05 us = 0% latency, 22.67 TFLOPS, in_features=2048, out_features=768, bias=False)
              (up_proj): Linear(1.57 M = 0.01% Params, 805.31 MMACs = 0.05% MACs, 47.45 us = 0% latency, 33.95 TFLOPS, in_features=2048, out_features=768, bias=False)
              (down_proj): Linear(1.57 M = 0.01% Params, 805.31 MMACs = 0.05% MACs, 42.2 us = 0% latency, 38.17 TFLOPS, in_features=768, out_features=2048, bias=False)
              (act_fn): SiLUActivation(0 = 0% Params, 0 MACs = 0% MACs, 24.08 us = 0% latency, 16.33 GFLOPS)
            )
            (70-85): 16 x Qwen3MoeMLP(
              4.72 M = 0.02% Params, 0 MACs = 0% MACs, 0 s = 0% latency, 0 FLOPS
              (gate_proj): Linear(1.57 M = 0.01% Params, 0 MACs = 0% MACs, 0 s = 0% latency, 0 FLOPS, in_features=2048, out_features=768, bias=False)
              (up_proj): Linear(1.57 M = 0.01% Params, 0 MACs = 0% MACs, 0 s = 0% latency, 0 FLOPS, in_features=2048, out_features=768, bias=False)
              (down_proj): Linear(1.57 M = 0.01% Params, 0 MACs = 0% MACs, 0 s = 0% latency, 0 FLOPS, in_features=768, out_features=2048, bias=False)
              (act_fn): SiLUActivation(0 = 0% Params, 0 MACs = 0% MACs, 0 s = 0% latency, 0 FLOPS)
            )
            (86): Qwen3MoeMLP(
              4.72 M = 0.02% Params, 2.42 GMACs = 0.15% MACs, 272.27 us = 0.01% latency, 17.75 TFLOPS
              (gate_proj): Linear(1.57 M = 0.01% Params, 805.31 MMACs = 0.05% MACs, 64.37 us = 0% latency, 25.02 TFLOPS, in_features=2048, out_features=768, bias=False)
              (up_proj): Linear(1.57 M = 0.01% Params, 805.31 MMACs = 0.05% MACs, 45.06 us = 0% latency, 35.74 TFLOPS, in_features=2048, out_features=768, bias=False)
              (down_proj): Linear(1.57 M = 0.01% Params, 805.31 MMACs = 0.05% MACs, 42.68 us = 0% latency, 37.74 TFLOPS, in_features=768, out_features=2048, bias=False)
              (act_fn): SiLUActivation(0 = 0% Params, 0 MACs = 0% MACs, 24.56 us = 0% latency, 16.01 GFLOPS)
            )
            (87-88): 2 x Qwen3MoeMLP(
              4.72 M = 0.02% Params, 0 MACs = 0% MACs, 0 s = 0% latency, 0 FLOPS
              (gate_proj): Linear(1.57 M = 0.01% Params, 0 MACs = 0% MACs, 0 s = 0% latency, 0 FLOPS, in_features=2048, out_features=768, bias=False)
              (up_proj): Linear(1.57 M = 0.01% Params, 0 MACs = 0% MACs, 0 s = 0% latency, 0 FLOPS, in_features=2048, out_features=768, bias=False)
              (down_proj): Linear(1.57 M = 0.01% Params, 0 MACs = 0% MACs, 0 s = 0% latency, 0 FLOPS, in_features=768, out_features=2048, bias=False)
              (act_fn): SiLUActivation(0 = 0% Params, 0 MACs = 0% MACs, 0 s = 0% latency, 0 FLOPS)
            )
            (89): Qwen3MoeMLP(
              4.72 M = 0.02% Params, 2.42 GMACs = 0.15% MACs, 267.03 us = 0.01% latency, 18.1 TFLOPS
              (gate_proj): Linear(1.57 M = 0.01% Params, 805.31 MMACs = 0.05% MACs, 65.09 us = 0% latency, 24.75 TFLOPS, in_features=2048, out_features=768, bias=False)
              (up_proj): Linear(1.57 M = 0.01% Params, 805.31 MMACs = 0.05% MACs, 44.11 us = 0% latency, 36.52 TFLOPS, in_features=2048, out_features=768, bias=False)
              (down_proj): Linear(1.57 M = 0.01% Params, 805.31 MMACs = 0.05% MACs, 39.34 us = 0% latency, 40.94 TFLOPS, in_features=768, out_features=2048, bias=False)
              (act_fn): SiLUActivation(0 = 0% Params, 0 MACs = 0% MACs, 24.8 us = 0% latency, 15.86 GFLOPS)
            )
            (90-117): 28 x Qwen3MoeMLP(
              4.72 M = 0.02% Params, 0 MACs = 0% MACs, 0 s = 0% latency, 0 FLOPS
              (gate_proj): Linear(1.57 M = 0.01% Params, 0 MACs = 0% MACs, 0 s = 0% latency, 0 FLOPS, in_features=2048, out_features=768, bias=False)
              (up_proj): Linear(1.57 M = 0.01% Params, 0 MACs = 0% MACs, 0 s = 0% latency, 0 FLOPS, in_features=2048, out_features=768, bias=False)
              (down_proj): Linear(1.57 M = 0.01% Params, 0 MACs = 0% MACs, 0 s = 0% latency, 0 FLOPS, in_features=768, out_features=2048, bias=False)
              (act_fn): SiLUActivation(0 = 0% Params, 0 MACs = 0% MACs, 0 s = 0% latency, 0 FLOPS)
            )
            (118): Qwen3MoeMLP(
              4.72 M = 0.02% Params, 2.42 GMACs = 0.15% MACs, 278.95 us = 0.01% latency, 17.32 TFLOPS
              (gate_proj): Linear(1.57 M = 0.01% Params, 805.31 MMACs = 0.05% MACs, 63.9 us = 0% latency, 25.21 TFLOPS, in_features=2048, out_features=768, bias=False)
              (up_proj): Linear(1.57 M = 0.01% Params, 805.31 MMACs = 0.05% MACs, 45.54 us = 0% latency, 35.37 TFLOPS, in_features=2048, out_features=768, bias=False)
              (down_proj): Linear(1.57 M = 0.01% Params, 805.31 MMACs = 0.05% MACs, 50.07 us = 0% latency, 32.17 TFLOPS, in_features=768, out_features=2048, bias=False)
              (act_fn): SiLUActivation(0 = 0% Params, 0 MACs = 0% MACs, 23.84 us = 0% latency, 16.49 GFLOPS)
            )
            (119-127): 9 x Qwen3MoeMLP(
              4.72 M = 0.02% Params, 0 MACs = 0% MACs, 0 s = 0% latency, 0 FLOPS
              (gate_proj): Linear(1.57 M = 0.01% Params, 0 MACs = 0% MACs, 0 s = 0% latency, 0 FLOPS, in_features=2048, out_features=768, bias=False)
              (up_proj): Linear(1.57 M = 0.01% Params, 0 MACs = 0% MACs, 0 s = 0% latency, 0 FLOPS, in_features=2048, out_features=768, bias=False)
              (down_proj): Linear(1.57 M = 0.01% Params, 0 MACs = 0% MACs, 0 s = 0% latency, 0 FLOPS, in_features=768, out_features=2048, bias=False)
              (act_fn): SiLUActivation(0 = 0% Params, 0 MACs = 0% MACs, 0 s = 0% latency, 0 FLOPS)
            )
          )
        )
        (input_layernorm): Qwen3MoeRMSNorm(2.05 K = 0% Params, 0 MACs = 0% MACs, 151.16 us = 0% latency, 0 FLOPS, (2048,), eps=1e-06)
        (post_attention_layernorm): Qwen3MoeRMSNorm(2.05 K = 0% Params, 0 MACs = 0% MACs, 100.37 us = 0% latency, 0 FLOPS, (2048,), eps=1e-06)
      )
      (46): Qwen3MoeDecoderLayer(
        623.12 M = 2.04% Params, 29.66 GMACs = 1.87% MACs, 49.42 ms = 1.57% latency, 1.2 TFLOPS
        (self_attn): Qwen3MoeAttention(
          18.87 M = 0.06% Params, 10.2 GMACs = 0.64% MACs, 808 us = 0.03% latency, 25.25 TFLOPS
          (q_proj): Linear(8.39 M = 0.03% Params, 4.29 GMACs = 0.27% MACs, 83.45 us = 0% latency, 102.94 TFLOPS, in_features=2048, out_features=4096, bias=False)
          (k_proj): Linear(1.05 M = 0% Params, 536.87 MMACs = 0.03% MACs, 64.85 us = 0% latency, 16.56 TFLOPS, in_features=2048, out_features=512, bias=False)
          (v_proj): Linear(1.05 M = 0% Params, 536.87 MMACs = 0.03% MACs, 53.41 us = 0% latency, 20.11 TFLOPS, in_features=2048, out_features=512, bias=False)
          (o_proj): Linear(8.39 M = 0.03% Params, 4.29 GMACs = 0.27% MACs, 65.57 us = 0% latency, 131.01 TFLOPS, in_features=4096, out_features=2048, bias=False)
          (q_norm): Qwen3MoeRMSNorm(128 = 0% Params, 0 MACs = 0% MACs, 101.09 us = 0% latency, 0 FLOPS, (128,), eps=1e-06)
          (k_norm): Qwen3MoeRMSNorm(128 = 0% Params, 0 MACs = 0% MACs, 98.71 us = 0% latency, 0 FLOPS, (128,), eps=1e-06)
        )
        (mlp): Qwen3MoeSparseMoeBlock(
          604.24 M = 1.98% Params, 19.46 GMACs = 1.23% MACs, 43.58 ms = 1.38% latency, 893.18 GFLOPS
          (gate): Linear(262.14 K = 0% Params, 134.22 MMACs = 0.01% MACs, 58.41 us = 0% latency, 4.6 TFLOPS, in_features=2048, out_features=128, bias=False)
          (experts): ModuleList(
            (0-24): 25 x Qwen3MoeMLP(
              4.72 M = 0.02% Params, 0 MACs = 0% MACs, 0 s = 0% latency, 0 FLOPS
              (gate_proj): Linear(1.57 M = 0.01% Params, 0 MACs = 0% MACs, 0 s = 0% latency, 0 FLOPS, in_features=2048, out_features=768, bias=False)
              (up_proj): Linear(1.57 M = 0.01% Params, 0 MACs = 0% MACs, 0 s = 0% latency, 0 FLOPS, in_features=2048, out_features=768, bias=False)
              (down_proj): Linear(1.57 M = 0.01% Params, 0 MACs = 0% MACs, 0 s = 0% latency, 0 FLOPS, in_features=768, out_features=2048, bias=False)
              (act_fn): SiLUActivation(0 = 0% Params, 0 MACs = 0% MACs, 0 s = 0% latency, 0 FLOPS)
            )
            (25): Qwen3MoeMLP(
              4.72 M = 0.02% Params, 2.42 GMACs = 0.15% MACs, 298.02 us = 0.01% latency, 16.21 TFLOPS
              (gate_proj): Linear(1.57 M = 0.01% Params, 805.31 MMACs = 0.05% MACs, 69.38 us = 0% latency, 23.21 TFLOPS, in_features=2048, out_features=768, bias=False)
              (up_proj): Linear(1.57 M = 0.01% Params, 805.31 MMACs = 0.05% MACs, 49.35 us = 0% latency, 32.63 TFLOPS, in_features=2048, out_features=768, bias=False)
              (down_proj): Linear(1.57 M = 0.01% Params, 805.31 MMACs = 0.05% MACs, 43.15 us = 0% latency, 37.32 TFLOPS, in_features=768, out_features=2048, bias=False)
              (act_fn): SiLUActivation(0 = 0% Params, 0 MACs = 0% MACs, 28.61 us = 0% latency, 13.74 GFLOPS)
            )
            (26-33): 8 x Qwen3MoeMLP(
              4.72 M = 0.02% Params, 0 MACs = 0% MACs, 0 s = 0% latency, 0 FLOPS
              (gate_proj): Linear(1.57 M = 0.01% Params, 0 MACs = 0% MACs, 0 s = 0% latency, 0 FLOPS, in_features=2048, out_features=768, bias=False)
              (up_proj): Linear(1.57 M = 0.01% Params, 0 MACs = 0% MACs, 0 s = 0% latency, 0 FLOPS, in_features=2048, out_features=768, bias=False)
              (down_proj): Linear(1.57 M = 0.01% Params, 0 MACs = 0% MACs, 0 s = 0% latency, 0 FLOPS, in_features=768, out_features=2048, bias=False)
              (act_fn): SiLUActivation(0 = 0% Params, 0 MACs = 0% MACs, 0 s = 0% latency, 0 FLOPS)
            )
            (34): Qwen3MoeMLP(
              4.72 M = 0.02% Params, 2.42 GMACs = 0.15% MACs, 269.17 us = 0.01% latency, 17.95 TFLOPS
              (gate_proj): Linear(1.57 M = 0.01% Params, 805.31 MMACs = 0.05% MACs, 63.66 us = 0% latency, 25.3 TFLOPS, in_features=2048, out_features=768, bias=False)
              (up_proj): Linear(1.57 M = 0.01% Params, 805.31 MMACs = 0.05% MACs, 42.2 us = 0% latency, 38.17 TFLOPS, in_features=2048, out_features=768, bias=False)
              (down_proj): Linear(1.57 M = 0.01% Params, 805.31 MMACs = 0.05% MACs, 43.87 us = 0% latency, 36.71 TFLOPS, in_features=768, out_features=2048, bias=False)
              (act_fn): SiLUActivation(0 = 0% Params, 0 MACs = 0% MACs, 25.03 us = 0% latency, 15.71 GFLOPS)
            )
            (35-37): 3 x Qwen3MoeMLP(
              4.72 M = 0.02% Params, 0 MACs = 0% MACs, 0 s = 0% latency, 0 FLOPS
              (gate_proj): Linear(1.57 M = 0.01% Params, 0 MACs = 0% MACs, 0 s = 0% latency, 0 FLOPS, in_features=2048, out_features=768, bias=False)
              (up_proj): Linear(1.57 M = 0.01% Params, 0 MACs = 0% MACs, 0 s = 0% latency, 0 FLOPS, in_features=2048, out_features=768, bias=False)
              (down_proj): Linear(1.57 M = 0.01% Params, 0 MACs = 0% MACs, 0 s = 0% latency, 0 FLOPS, in_features=768, out_features=2048, bias=False)
              (act_fn): SiLUActivation(0 = 0% Params, 0 MACs = 0% MACs, 0 s = 0% latency, 0 FLOPS)
            )
            (38): Qwen3MoeMLP(
              4.72 M = 0.02% Params, 2.42 GMACs = 0.15% MACs, 286.82 us = 0.01% latency, 16.85 TFLOPS
              (gate_proj): Linear(1.57 M = 0.01% Params, 805.31 MMACs = 0.05% MACs, 66.28 us = 0% latency, 24.3 TFLOPS, in_features=2048, out_features=768, bias=False)
              (up_proj): Linear(1.57 M = 0.01% Params, 805.31 MMACs = 0.05% MACs, 48.16 us = 0% latency, 33.44 TFLOPS, in_features=2048, out_features=768, bias=False)
              (down_proj): Linear(1.57 M = 0.01% Params, 805.31 MMACs = 0.05% MACs, 52.69 us = 0% latency, 30.57 TFLOPS, in_features=768, out_features=2048, bias=False)
              (act_fn): SiLUActivation(0 = 0% Params, 0 MACs = 0% MACs, 25.03 us = 0% latency, 15.71 GFLOPS)
            )
            (39-73): 35 x Qwen3MoeMLP(
              4.72 M = 0.02% Params, 0 MACs = 0% MACs, 0 s = 0% latency, 0 FLOPS
              (gate_proj): Linear(1.57 M = 0.01% Params, 0 MACs = 0% MACs, 0 s = 0% latency, 0 FLOPS, in_features=2048, out_features=768, bias=False)
              (up_proj): Linear(1.57 M = 0.01% Params, 0 MACs = 0% MACs, 0 s = 0% latency, 0 FLOPS, in_features=2048, out_features=768, bias=False)
              (down_proj): Linear(1.57 M = 0.01% Params, 0 MACs = 0% MACs, 0 s = 0% latency, 0 FLOPS, in_features=768, out_features=2048, bias=False)
              (act_fn): SiLUActivation(0 = 0% Params, 0 MACs = 0% MACs, 0 s = 0% latency, 0 FLOPS)
            )
            (74): Qwen3MoeMLP(
              4.72 M = 0.02% Params, 2.42 GMACs = 0.15% MACs, 278.71 us = 0.01% latency, 17.34 TFLOPS
              (gate_proj): Linear(1.57 M = 0.01% Params, 805.31 MMACs = 0.05% MACs, 68.9 us = 0% latency, 23.38 TFLOPS, in_features=2048, out_features=768, bias=False)
              (up_proj): Linear(1.57 M = 0.01% Params, 805.31 MMACs = 0.05% MACs, 46.01 us = 0% latency, 35 TFLOPS, in_features=2048, out_features=768, bias=False)
              (down_proj): Linear(1.57 M = 0.01% Params, 805.31 MMACs = 0.05% MACs, 41.25 us = 0% latency, 39.05 TFLOPS, in_features=768, out_features=2048, bias=False)
              (act_fn): SiLUActivation(0 = 0% Params, 0 MACs = 0% MACs, 25.75 us = 0% latency, 15.27 GFLOPS)
            )
            (75): Qwen3MoeMLP(
              4.72 M = 0.02% Params, 2.42 GMACs = 0.15% MACs, 275.85 us = 0.01% latency, 17.52 TFLOPS
              (gate_proj): Linear(1.57 M = 0.01% Params, 805.31 MMACs = 0.05% MACs, 64.37 us = 0% latency, 25.02 TFLOPS, in_features=2048, out_features=768, bias=False)
              (up_proj): Linear(1.57 M = 0.01% Params, 805.31 MMACs = 0.05% MACs, 49.59 us = 0% latency, 32.48 TFLOPS, in_features=2048, out_features=768, bias=False)
              (down_proj): Linear(1.57 M = 0.01% Params, 805.31 MMACs = 0.05% MACs, 43.15 us = 0% latency, 37.32 TFLOPS, in_features=768, out_features=2048, bias=False)
              (act_fn): SiLUActivation(0 = 0% Params, 0 MACs = 0% MACs, 24.32 us = 0% latency, 16.17 GFLOPS)
            )
            (76-95): 20 x Qwen3MoeMLP(
              4.72 M = 0.02% Params, 0 MACs = 0% MACs, 0 s = 0% latency, 0 FLOPS
              (gate_proj): Linear(1.57 M = 0.01% Params, 0 MACs = 0% MACs, 0 s = 0% latency, 0 FLOPS, in_features=2048, out_features=768, bias=False)
              (up_proj): Linear(1.57 M = 0.01% Params, 0 MACs = 0% MACs, 0 s = 0% latency, 0 FLOPS, in_features=2048, out_features=768, bias=False)
              (down_proj): Linear(1.57 M = 0.01% Params, 0 MACs = 0% MACs, 0 s = 0% latency, 0 FLOPS, in_features=768, out_features=2048, bias=False)
              (act_fn): SiLUActivation(0 = 0% Params, 0 MACs = 0% MACs, 0 s = 0% latency, 0 FLOPS)
            )
            (96): Qwen3MoeMLP(
              4.72 M = 0.02% Params, 2.42 GMACs = 0.15% MACs, 286.1 us = 0.01% latency, 16.89 TFLOPS
              (gate_proj): Linear(1.57 M = 0.01% Params, 805.31 MMACs = 0.05% MACs, 75.1 us = 0% latency, 21.45 TFLOPS, in_features=2048, out_features=768, bias=False)
              (up_proj): Linear(1.57 M = 0.01% Params, 805.31 MMACs = 0.05% MACs, 48.4 us = 0% latency, 33.28 TFLOPS, in_features=2048, out_features=768, bias=False)
              (down_proj): Linear(1.57 M = 0.01% Params, 805.31 MMACs = 0.05% MACs, 43.15 us = 0% latency, 37.32 TFLOPS, in_features=768, out_features=2048, bias=False)
              (act_fn): SiLUActivation(0 = 0% Params, 0 MACs = 0% MACs, 24.32 us = 0% latency, 16.17 GFLOPS)
            )
            (97-103): 7 x Qwen3MoeMLP(
              4.72 M = 0.02% Params, 0 MACs = 0% MACs, 0 s = 0% latency, 0 FLOPS
              (gate_proj): Linear(1.57 M = 0.01% Params, 0 MACs = 0% MACs, 0 s = 0% latency, 0 FLOPS, in_features=2048, out_features=768, bias=False)
              (up_proj): Linear(1.57 M = 0.01% Params, 0 MACs = 0% MACs, 0 s = 0% latency, 0 FLOPS, in_features=2048, out_features=768, bias=False)
              (down_proj): Linear(1.57 M = 0.01% Params, 0 MACs = 0% MACs, 0 s = 0% latency, 0 FLOPS, in_features=768, out_features=2048, bias=False)
              (act_fn): SiLUActivation(0 = 0% Params, 0 MACs = 0% MACs, 0 s = 0% latency, 0 FLOPS)
            )
            (104): Qwen3MoeMLP(
              4.72 M = 0.02% Params, 2.42 GMACs = 0.15% MACs, 270.61 us = 0.01% latency, 17.86 TFLOPS
              (gate_proj): Linear(1.57 M = 0.01% Params, 805.31 MMACs = 0.05% MACs, 62.94 us = 0% latency, 25.59 TFLOPS, in_features=2048, out_features=768, bias=False)
              (up_proj): Linear(1.57 M = 0.01% Params, 805.31 MMACs = 0.05% MACs, 46.25 us = 0% latency, 34.82 TFLOPS, in_features=2048, out_features=768, bias=False)
              (down_proj): Linear(1.57 M = 0.01% Params, 805.31 MMACs = 0.05% MACs, 42.68 us = 0% latency, 37.74 TFLOPS, in_features=768, out_features=2048, bias=False)
              (act_fn): SiLUActivation(0 = 0% Params, 0 MACs = 0% MACs, 25.03 us = 0% latency, 15.71 GFLOPS)
            )
            (105-117): 13 x Qwen3MoeMLP(
              4.72 M = 0.02% Params, 0 MACs = 0% MACs, 0 s = 0% latency, 0 FLOPS
              (gate_proj): Linear(1.57 M = 0.01% Params, 0 MACs = 0% MACs, 0 s = 0% latency, 0 FLOPS, in_features=2048, out_features=768, bias=False)
              (up_proj): Linear(1.57 M = 0.01% Params, 0 MACs = 0% MACs, 0 s = 0% latency, 0 FLOPS, in_features=2048, out_features=768, bias=False)
              (down_proj): Linear(1.57 M = 0.01% Params, 0 MACs = 0% MACs, 0 s = 0% latency, 0 FLOPS, in_features=768, out_features=2048, bias=False)
              (act_fn): SiLUActivation(0 = 0% Params, 0 MACs = 0% MACs, 0 s = 0% latency, 0 FLOPS)
            )
            (118): Qwen3MoeMLP(
              4.72 M = 0.02% Params, 2.42 GMACs = 0.15% MACs, 269.65 us = 0.01% latency, 17.92 TFLOPS
              (gate_proj): Linear(1.57 M = 0.01% Params, 805.31 MMACs = 0.05% MACs, 64.13 us = 0% latency, 25.11 TFLOPS, in_features=2048, out_features=768, bias=False)
              (up_proj): Linear(1.57 M = 0.01% Params, 805.31 MMACs = 0.05% MACs, 41.72 us = 0% latency, 38.6 TFLOPS, in_features=2048, out_features=768, bias=False)
              (down_proj): Linear(1.57 M = 0.01% Params, 805.31 MMACs = 0.05% MACs, 43.87 us = 0% latency, 36.71 TFLOPS, in_features=768, out_features=2048, bias=False)
              (act_fn): SiLUActivation(0 = 0% Params, 0 MACs = 0% MACs, 25.03 us = 0% latency, 15.71 GFLOPS)
            )
            (119-127): 9 x Qwen3MoeMLP(
              4.72 M = 0.02% Params, 0 MACs = 0% MACs, 0 s = 0% latency, 0 FLOPS
              (gate_proj): Linear(1.57 M = 0.01% Params, 0 MACs = 0% MACs, 0 s = 0% latency, 0 FLOPS, in_features=2048, out_features=768, bias=False)
              (up_proj): Linear(1.57 M = 0.01% Params, 0 MACs = 0% MACs, 0 s = 0% latency, 0 FLOPS, in_features=2048, out_features=768, bias=False)
              (down_proj): Linear(1.57 M = 0.01% Params, 0 MACs = 0% MACs, 0 s = 0% latency, 0 FLOPS, in_features=768, out_features=2048, bias=False)
              (act_fn): SiLUActivation(0 = 0% Params, 0 MACs = 0% MACs, 0 s = 0% latency, 0 FLOPS)
            )
          )
        )
        (input_layernorm): Qwen3MoeRMSNorm(2.05 K = 0% Params, 0 MACs = 0% MACs, 144.72 us = 0% latency, 0 FLOPS, (2048,), eps=1e-06)
        (post_attention_layernorm): Qwen3MoeRMSNorm(2.05 K = 0% Params, 0 MACs = 0% MACs, 114.44 us = 0% latency, 0 FLOPS, (2048,), eps=1e-06)
      )
      (47): Qwen3MoeDecoderLayer(
        623.12 M = 2.04% Params, 29.66 GMACs = 1.87% MACs, 48.82 ms = 1.55% latency, 1.22 TFLOPS
        (self_attn): Qwen3MoeAttention(
          18.87 M = 0.06% Params, 10.2 GMACs = 0.64% MACs, 815.63 us = 0.03% latency, 25.01 TFLOPS
          (q_proj): Linear(8.39 M = 0.03% Params, 4.29 GMACs = 0.27% MACs, 77.49 us = 0% latency, 110.86 TFLOPS, in_features=2048, out_features=4096, bias=False)
          (k_proj): Linear(1.05 M = 0% Params, 536.87 MMACs = 0.03% MACs, 62.7 us = 0% latency, 17.12 TFLOPS, in_features=2048, out_features=512, bias=False)
          (v_proj): Linear(1.05 M = 0% Params, 536.87 MMACs = 0.03% MACs, 61.99 us = 0% latency, 17.32 TFLOPS, in_features=2048, out_features=512, bias=False)
          (o_proj): Linear(8.39 M = 0.03% Params, 4.29 GMACs = 0.27% MACs, 67.23 us = 0% latency, 127.76 TFLOPS, in_features=4096, out_features=2048, bias=False)
          (q_norm): Qwen3MoeRMSNorm(128 = 0% Params, 0 MACs = 0% MACs, 100.61 us = 0% latency, 0 FLOPS, (128,), eps=1e-06)
          (k_norm): Qwen3MoeRMSNorm(128 = 0% Params, 0 MACs = 0% MACs, 96.56 us = 0% latency, 0 FLOPS, (128,), eps=1e-06)
        )
        (mlp): Qwen3MoeSparseMoeBlock(
          604.24 M = 1.98% Params, 19.46 GMACs = 1.23% MACs, 43.04 ms = 1.37% latency, 904.45 GFLOPS
          (gate): Linear(262.14 K = 0% Params, 134.22 MMACs = 0.01% MACs, 55.79 us = 0% latency, 4.81 TFLOPS, in_features=2048, out_features=128, bias=False)
          (experts): ModuleList(
            (0-1): 2 x Qwen3MoeMLP(
              4.72 M = 0.02% Params, 0 MACs = 0% MACs, 0 s = 0% latency, 0 FLOPS
              (gate_proj): Linear(1.57 M = 0.01% Params, 0 MACs = 0% MACs, 0 s = 0% latency, 0 FLOPS, in_features=2048, out_features=768, bias=False)
              (up_proj): Linear(1.57 M = 0.01% Params, 0 MACs = 0% MACs, 0 s = 0% latency, 0 FLOPS, in_features=2048, out_features=768, bias=False)
              (down_proj): Linear(1.57 M = 0.01% Params, 0 MACs = 0% MACs, 0 s = 0% latency, 0 FLOPS, in_features=768, out_features=2048, bias=False)
              (act_fn): SiLUActivation(0 = 0% Params, 0 MACs = 0% MACs, 0 s = 0% latency, 0 FLOPS)
            )
            (2): Qwen3MoeMLP(
              4.72 M = 0.02% Params, 2.42 GMACs = 0.15% MACs, 300.65 us = 0.01% latency, 16.07 TFLOPS
              (gate_proj): Linear(1.57 M = 0.01% Params, 805.31 MMACs = 0.05% MACs, 74.39 us = 0% latency, 21.65 TFLOPS, in_features=2048, out_features=768, bias=False)
              (up_proj): Linear(1.57 M = 0.01% Params, 805.31 MMACs = 0.05% MACs, 50.07 us = 0% latency, 32.17 TFLOPS, in_features=2048, out_features=768, bias=False)
              (down_proj): Linear(1.57 M = 0.01% Params, 805.31 MMACs = 0.05% MACs, 46.49 us = 0% latency, 34.64 TFLOPS, in_features=768, out_features=2048, bias=False)
              (act_fn): SiLUActivation(0 = 0% Params, 0 MACs = 0% MACs, 27.42 us = 0% latency, 14.34 GFLOPS)
            )
            (3-57): 55 x Qwen3MoeMLP(
              4.72 M = 0.02% Params, 0 MACs = 0% MACs, 0 s = 0% latency, 0 FLOPS
              (gate_proj): Linear(1.57 M = 0.01% Params, 0 MACs = 0% MACs, 0 s = 0% latency, 0 FLOPS, in_features=2048, out_features=768, bias=False)
              (up_proj): Linear(1.57 M = 0.01% Params, 0 MACs = 0% MACs, 0 s = 0% latency, 0 FLOPS, in_features=2048, out_features=768, bias=False)
              (down_proj): Linear(1.57 M = 0.01% Params, 0 MACs = 0% MACs, 0 s = 0% latency, 0 FLOPS, in_features=768, out_features=2048, bias=False)
              (act_fn): SiLUActivation(0 = 0% Params, 0 MACs = 0% MACs, 0 s = 0% latency, 0 FLOPS)
            )
            (58): Qwen3MoeMLP(
              4.72 M = 0.02% Params, 2.42 GMACs = 0.15% MACs, 283 us = 0.01% latency, 17.07 TFLOPS
              (gate_proj): Linear(1.57 M = 0.01% Params, 805.31 MMACs = 0.05% MACs, 70.1 us = 0% latency, 22.98 TFLOPS, in_features=2048, out_features=768, bias=False)
              (up_proj): Linear(1.57 M = 0.01% Params, 805.31 MMACs = 0.05% MACs, 46.49 us = 0% latency, 34.64 TFLOPS, in_features=2048, out_features=768, bias=False)
              (down_proj): Linear(1.57 M = 0.01% Params, 805.31 MMACs = 0.05% MACs, 45.3 us = 0% latency, 35.55 TFLOPS, in_features=768, out_features=2048, bias=False)
              (act_fn): SiLUActivation(0 = 0% Params, 0 MACs = 0% MACs, 24.56 us = 0% latency, 16.01 GFLOPS)
            )
            (59-60): 2 x Qwen3MoeMLP(
              4.72 M = 0.02% Params, 0 MACs = 0% MACs, 0 s = 0% latency, 0 FLOPS
              (gate_proj): Linear(1.57 M = 0.01% Params, 0 MACs = 0% MACs, 0 s = 0% latency, 0 FLOPS, in_features=2048, out_features=768, bias=False)
              (up_proj): Linear(1.57 M = 0.01% Params, 0 MACs = 0% MACs, 0 s = 0% latency, 0 FLOPS, in_features=2048, out_features=768, bias=False)
              (down_proj): Linear(1.57 M = 0.01% Params, 0 MACs = 0% MACs, 0 s = 0% latency, 0 FLOPS, in_features=768, out_features=2048, bias=False)
              (act_fn): SiLUActivation(0 = 0% Params, 0 MACs = 0% MACs, 0 s = 0% latency, 0 FLOPS)
            )
            (61): Qwen3MoeMLP(
              4.72 M = 0.02% Params, 2.42 GMACs = 0.15% MACs, 265.84 us = 0.01% latency, 18.18 TFLOPS
              (gate_proj): Linear(1.57 M = 0.01% Params, 805.31 MMACs = 0.05% MACs, 64.13 us = 0% latency, 25.11 TFLOPS, in_features=2048, out_features=768, bias=False)
              (up_proj): Linear(1.57 M = 0.01% Params, 805.31 MMACs = 0.05% MACs, 45.78 us = 0% latency, 35.18 TFLOPS, in_features=2048, out_features=768, bias=False)
              (down_proj): Linear(1.57 M = 0.01% Params, 805.31 MMACs = 0.05% MACs, 40.77 us = 0% latency, 39.51 TFLOPS, in_features=768, out_features=2048, bias=False)
              (act_fn): SiLUActivation(0 = 0% Params, 0 MACs = 0% MACs, 24.56 us = 0% latency, 16.01 GFLOPS)
            )
            (62-76): 15 x Qwen3MoeMLP(
              4.72 M = 0.02% Params, 0 MACs = 0% MACs, 0 s = 0% latency, 0 FLOPS
              (gate_proj): Linear(1.57 M = 0.01% Params, 0 MACs = 0% MACs, 0 s = 0% latency, 0 FLOPS, in_features=2048, out_features=768, bias=False)
              (up_proj): Linear(1.57 M = 0.01% Params, 0 MACs = 0% MACs, 0 s = 0% latency, 0 FLOPS, in_features=2048, out_features=768, bias=False)
              (down_proj): Linear(1.57 M = 0.01% Params, 0 MACs = 0% MACs, 0 s = 0% latency, 0 FLOPS, in_features=768, out_features=2048, bias=False)
              (act_fn): SiLUActivation(0 = 0% Params, 0 MACs = 0% MACs, 0 s = 0% latency, 0 FLOPS)
            )
            (77): Qwen3MoeMLP(
              4.72 M = 0.02% Params, 2.42 GMACs = 0.15% MACs, 280.14 us = 0.01% latency, 17.25 TFLOPS
              (gate_proj): Linear(1.57 M = 0.01% Params, 805.31 MMACs = 0.05% MACs, 65.8 us = 0% latency, 24.48 TFLOPS, in_features=2048, out_features=768, bias=False)
              (up_proj): Linear(1.57 M = 0.01% Params, 805.31 MMACs = 0.05% MACs, 47.45 us = 0% latency, 33.95 TFLOPS, in_features=2048, out_features=768, bias=False)
              (down_proj): Linear(1.57 M = 0.01% Params, 805.31 MMACs = 0.05% MACs, 41.48 us = 0% latency, 38.82 TFLOPS, in_features=768, out_features=2048, bias=False)
              (act_fn): SiLUActivation(0 = 0% Params, 0 MACs = 0% MACs, 26.23 us = 0% latency, 14.99 GFLOPS)
            )
            (78-100): 23 x Qwen3MoeMLP(
              4.72 M = 0.02% Params, 0 MACs = 0% MACs, 0 s = 0% latency, 0 FLOPS
              (gate_proj): Linear(1.57 M = 0.01% Params, 0 MACs = 0% MACs, 0 s = 0% latency, 0 FLOPS, in_features=2048, out_features=768, bias=False)
              (up_proj): Linear(1.57 M = 0.01% Params, 0 MACs = 0% MACs, 0 s = 0% latency, 0 FLOPS, in_features=2048, out_features=768, bias=False)
              (down_proj): Linear(1.57 M = 0.01% Params, 0 MACs = 0% MACs, 0 s = 0% latency, 0 FLOPS, in_features=768, out_features=2048, bias=False)
              (act_fn): SiLUActivation(0 = 0% Params, 0 MACs = 0% MACs, 0 s = 0% latency, 0 FLOPS)
            )
            (101): Qwen3MoeMLP(
              4.72 M = 0.02% Params, 2.42 GMACs = 0.15% MACs, 298.5 us = 0.01% latency, 16.19 TFLOPS
              (gate_proj): Linear(1.57 M = 0.01% Params, 805.31 MMACs = 0.05% MACs, 63.18 us = 0% latency, 25.49 TFLOPS, in_features=2048, out_features=768, bias=False)
              (up_proj): Linear(1.57 M = 0.01% Params, 805.31 MMACs = 0.05% MACs, 46.49 us = 0% latency, 34.64 TFLOPS, in_features=2048, out_features=768, bias=False)
              (down_proj): Linear(1.57 M = 0.01% Params, 805.31 MMACs = 0.05% MACs, 61.51 us = 0% latency, 26.18 TFLOPS, in_features=768, out_features=2048, bias=False)
              (act_fn): SiLUActivation(0 = 0% Params, 0 MACs = 0% MACs, 24.32 us = 0% latency, 16.17 GFLOPS)
            )
            (102-111): 10 x Qwen3MoeMLP(
              4.72 M = 0.02% Params, 0 MACs = 0% MACs, 0 s = 0% latency, 0 FLOPS
              (gate_proj): Linear(1.57 M = 0.01% Params, 0 MACs = 0% MACs, 0 s = 0% latency, 0 FLOPS, in_features=2048, out_features=768, bias=False)
              (up_proj): Linear(1.57 M = 0.01% Params, 0 MACs = 0% MACs, 0 s = 0% latency, 0 FLOPS, in_features=2048, out_features=768, bias=False)
              (down_proj): Linear(1.57 M = 0.01% Params, 0 MACs = 0% MACs, 0 s = 0% latency, 0 FLOPS, in_features=768, out_features=2048, bias=False)
              (act_fn): SiLUActivation(0 = 0% Params, 0 MACs = 0% MACs, 0 s = 0% latency, 0 FLOPS)
            )
            (112): Qwen3MoeMLP(
              4.72 M = 0.02% Params, 2.42 GMACs = 0.15% MACs, 283.48 us = 0.01% latency, 17.05 TFLOPS
              (gate_proj): Linear(1.57 M = 0.01% Params, 805.31 MMACs = 0.05% MACs, 63.18 us = 0% latency, 25.49 TFLOPS, in_features=2048, out_features=768, bias=False)
              (up_proj): Linear(1.57 M = 0.01% Params, 805.31 MMACs = 0.05% MACs, 44.82 us = 0% latency, 35.93 TFLOPS, in_features=2048, out_features=768, bias=False)
              (down_proj): Linear(1.57 M = 0.01% Params, 805.31 MMACs = 0.05% MACs, 55.07 us = 0% latency, 29.24 TFLOPS, in_features=768, out_features=2048, bias=False)
              (act_fn): SiLUActivation(0 = 0% Params, 0 MACs = 0% MACs, 23.84 us = 0% latency, 16.49 GFLOPS)
            )
            (113-115): 3 x Qwen3MoeMLP(
              4.72 M = 0.02% Params, 0 MACs = 0% MACs, 0 s = 0% latency, 0 FLOPS
              (gate_proj): Linear(1.57 M = 0.01% Params, 0 MACs = 0% MACs, 0 s = 0% latency, 0 FLOPS, in_features=2048, out_features=768, bias=False)
              (up_proj): Linear(1.57 M = 0.01% Params, 0 MACs = 0% MACs, 0 s = 0% latency, 0 FLOPS, in_features=2048, out_features=768, bias=False)
              (down_proj): Linear(1.57 M = 0.01% Params, 0 MACs = 0% MACs, 0 s = 0% latency, 0 FLOPS, in_features=768, out_features=2048, bias=False)
              (act_fn): SiLUActivation(0 = 0% Params, 0 MACs = 0% MACs, 0 s = 0% latency, 0 FLOPS)
            )
            (116): Qwen3MoeMLP(
              4.72 M = 0.02% Params, 2.42 GMACs = 0.15% MACs, 282.53 us = 0.01% latency, 17.1 TFLOPS
              (gate_proj): Linear(1.57 M = 0.01% Params, 805.31 MMACs = 0.05% MACs, 70.57 us = 0% latency, 22.82 TFLOPS, in_features=2048, out_features=768, bias=False)
              (up_proj): Linear(1.57 M = 0.01% Params, 805.31 MMACs = 0.05% MACs, 48.16 us = 0% latency, 33.44 TFLOPS, in_features=2048, out_features=768, bias=False)
              (down_proj): Linear(1.57 M = 0.01% Params, 805.31 MMACs = 0.05% MACs, 41.01 us = 0% latency, 39.28 TFLOPS, in_features=768, out_features=2048, bias=False)
              (act_fn): SiLUActivation(0 = 0% Params, 0 MACs = 0% MACs, 25.75 us = 0% latency, 15.27 GFLOPS)
            )
            (117-124): 8 x Qwen3MoeMLP(
              4.72 M = 0.02% Params, 0 MACs = 0% MACs, 0 s = 0% latency, 0 FLOPS
              (gate_proj): Linear(1.57 M = 0.01% Params, 0 MACs = 0% MACs, 0 s = 0% latency, 0 FLOPS, in_features=2048, out_features=768, bias=False)
              (up_proj): Linear(1.57 M = 0.01% Params, 0 MACs = 0% MACs, 0 s = 0% latency, 0 FLOPS, in_features=2048, out_features=768, bias=False)
              (down_proj): Linear(1.57 M = 0.01% Params, 0 MACs = 0% MACs, 0 s = 0% latency, 0 FLOPS, in_features=768, out_features=2048, bias=False)
              (act_fn): SiLUActivation(0 = 0% Params, 0 MACs = 0% MACs, 0 s = 0% latency, 0 FLOPS)
            )
            (125): Qwen3MoeMLP(
              4.72 M = 0.02% Params, 2.42 GMACs = 0.15% MACs, 274.18 us = 0.01% latency, 17.62 TFLOPS
              (gate_proj): Linear(1.57 M = 0.01% Params, 805.31 MMACs = 0.05% MACs, 61.99 us = 0% latency, 25.98 TFLOPS, in_features=2048, out_features=768, bias=False)
              (up_proj): Linear(1.57 M = 0.01% Params, 805.31 MMACs = 0.05% MACs, 45.78 us = 0% latency, 35.18 TFLOPS, in_features=2048, out_features=768, bias=False)
              (down_proj): Linear(1.57 M = 0.01% Params, 805.31 MMACs = 0.05% MACs, 48.4 us = 0% latency, 33.28 TFLOPS, in_features=768, out_features=2048, bias=False)
              (act_fn): SiLUActivation(0 = 0% Params, 0 MACs = 0% MACs, 25.03 us = 0% latency, 15.71 GFLOPS)
            )
            (126-127): 2 x Qwen3MoeMLP(
              4.72 M = 0.02% Params, 0 MACs = 0% MACs, 0 s = 0% latency, 0 FLOPS
              (gate_proj): Linear(1.57 M = 0.01% Params, 0 MACs = 0% MACs, 0 s = 0% latency, 0 FLOPS, in_features=2048, out_features=768, bias=False)
              (up_proj): Linear(1.57 M = 0.01% Params, 0 MACs = 0% MACs, 0 s = 0% latency, 0 FLOPS, in_features=2048, out_features=768, bias=False)
              (down_proj): Linear(1.57 M = 0.01% Params, 0 MACs = 0% MACs, 0 s = 0% latency, 0 FLOPS, in_features=768, out_features=2048, bias=False)
              (act_fn): SiLUActivation(0 = 0% Params, 0 MACs = 0% MACs, 0 s = 0% latency, 0 FLOPS)
            )
          )
        )
        (input_layernorm): Qwen3MoeRMSNorm(2.05 K = 0% Params, 0 MACs = 0% MACs, 163.32 us = 0.01% latency, 0 FLOPS, (2048,), eps=1e-06)
        (post_attention_layernorm): Qwen3MoeRMSNorm(2.05 K = 0% Params, 0 MACs = 0% MACs, 98.47 us = 0% latency, 0 FLOPS, (2048,), eps=1e-06)
      )
    )
    (norm): Qwen3MoeRMSNorm(2.05 K = 0% Params, 0 MACs = 0% MACs, 133.28 us = 0% latency, 0 FLOPS, (2048,), eps=1e-06)
    (rotary_emb): Qwen3MoeRotaryEmbedding(0 = 0% Params, 8.19 KMACs = 0% MACs, 475.17 us = 0.02% latency, 34.48 MFLOPS)
  )
  (lm_head): Linear(311.16 M = 1.02% Params, 159.32 GMACs = 10.06% MACs, 111.82 us = 0% latency, 2849.56 TFLOPS, in_features=2048, out_features=151936, bias=False)
)
------------------------------------------------------------------------------
FLOPs: 3.17 T MACs: 1.58 TMACs Params: 30.53 B
